Results/BS_256_EP_6000_TMAX_200_NOISE_0.1_LR_5_TAU_3e3/checkpoint_actor.pth (torch_old, 72217 bytes, 8 tensors)

fc1.weight f4 [100, 24]
000000 62 81 06 3f 5a 62 58 3e 80 95 7a be 9d 56 4e be
       0.5254117 0.21131268 -0.24471092 -0.20150228
000010 ba 6d 12 3e 44 a7 37 bf 2c 5e a5 bd 37 72 e2 3d
       0.1429967 -0.717396 -0.080746025 0.11056941
000020 dc 71 25 3f c0 b6 b4 3d 72 a4 82 3d fd 69 03 bf
       0.6462686 0.08823919 0.06379022 -0.513336
000030 36 8c f4 3c 9f 7c 3a bf 5a 50 29 3d dd 69 ee be
       0.029852014 -0.72846407 0.041336395 -0.46565142
000040 f0 c4 2e 3f 85 6e 7e bc c0 9e 9f bd bf ae a2 be
       0.6826925 -0.01552928 -0.07793951 -0.31773946
000050 25 25 be 3e fa 54 c4 bd dc 0a 97 3c bf db 9b bd
       0.37137714 -0.095865205 0.018437795 -0.076102726
000060 e0 45 a7 3e 71 2a 4d be af 79 1e 3e 3f 87 6a 3c
       0.32670498 -0.20035721 0.15476106 0.014314472
000070 b2 f2 bd be fb ee 2a bf ac 88 e0 bd 48 94 c2 3e
       -0.37099224 -0.66770905 -0.10963568 0.38003755
000080 84 85 9a 3e d9 e1 60 be cb 56 1e be 06 bc bb be
       0.3017999 -0.21961154 -0.15462796 -0.36666888
000090 bf 8a ef be 8c bd 67 3d a2 ef a1 3d 29 cd 9c bd
       -0.46785542 0.05657725 0.079070345 -0.07656319
0000a0 bd 44 1e 3f 55 2d 57 be 10 c1 54 bd b4 ab 9c be
       0.61823636 -0.21013387 -0.05194193 -0.3059975
0000b0 5b 9d 05 bf 67 68 1e 3f 6e 50 2d 3d 15 15 8c 3b
       -0.5219323 0.61878055 0.04231303 0.004274974
0000c0 36 ec ec 3e a0 b2 ef be 3f 94 96 3c cb c4 dd 3b
       0.46273965 -0.46815968 0.018381236 0.0067678443
0000d0 c5 9a db 3e 07 7c 1d bf e3 49 ca 3c d3 f9 a1 be
       0.42891517 -0.61517376 0.024693435 -0.31635913
0000e0 46 82 e2 3e f1 cd 51 bf ed 57 be bb 58 fc 44 be
       0.44240016 -0.81954867 -0.0058088214 -0.19236887
0000f0 07 a7 e9 3e db 84 a1 be 65 ba 71 3c fb f4 ce bc
       0.45635244 -0.31546673 0.014753913 -0.0252633
000100 79 eb dd 3e b8 e8 10 bf f4 0a 7f be 32 70 8f 3d
       0.43343714 -0.566051 -0.24906522 0.070038214
000110 14 55 c3 3e ae 17 ef bd a9 0c d4 be a0 40 55 bd
       0.38150847 -0.116744384 -0.4141591 -0.052063584
000120 44 cc e3 3e d6 46 b3 3e c0 d3 70 3c 10 42 d5 be
       0.4449178 0.3501498 0.014698923 -0.41651964
000130 1b 89 cf 3e cf 24 ac be 36 9d 13 be 09 6e 39 bf
       0.4053429 -0.33621833 -0.1441544 -0.72433525
000140 ba 18 16 3e 6c b6 3f 3e f7 35 20 3e 61 43 fa be
       0.1465787 0.18721932 0.15645586 -0.4887953
000150 0a 9b 1d 3f b6 77 08 3e 6b 7a 04 bd db d9 c1 be
       0.61564696 0.13326916 -0.03234331 -0.37861523
000160 59 49 23 3f ef 68 28 3e 6c b3 4a 3e f6 e2 9b 3e
       0.63783795 0.16446279 0.19795007 0.30446595
000170 b6 2f 3c 3f ef 3b 0d 3f 93 9b a1 bd 54 f5 8c 3d
       0.735103 0.55169576 -0.078910016 0.0688273
000180 1d 94 04 3f 85 0b 8f be 2c 02 1e 3c f6 6f 67 be
       0.517885 -0.27938476 0.0096440725 -0.22601303
000190 4a 70 41 3f 36 83 7c be 33 95 a3 3d be b0 23 be
       0.75561965 -0.24659428 0.07987442 -0.1598539
0001a0 fe ed 9d bd 17 68 3d bf eb 28 c9 3c 13 4a 7d bd
       -0.07711409 -0.73986953 0.024555644 -0.06183822
0001b0 cf 5d c4 bd 0d b2 c3 3e b6 e5 c1 3d 3f f0 5d 3e
       -0.09588205 0.3822178 0.09467642 0.21673678
0001c0 c1 16 b7 bd 25 55 fa be 87 d7 0a 3d 0f 82 f0 be
       -0.08939887 -0.48893085 0.03389695 -0.46974227
0001d0 67 88 b8 be 50 59 36 3f 5c 12 9c bd ec 2f 7f be
       -0.36041567 0.7123003 -0.07620689 -0.24920624
0001e0 e2 01 cf 3e 28 79 bb be a1 8f 6e 39 e9 44 95 3c
       0.40431124 -0.36615872 0.00022750955 0.018221335
0001f0 cf d0 30 bf f5 8f 2b bf bd 95 47 3d 93 10 36 be
       -0.69068617 -0.67016536 0.048726786 -0.1777976
000200 07 ba 61 3e 41 6f 0a bf de 89 76 bd 7f c0 36 3e
       0.2204362 -0.5407601 -0.060190074 0.17846869
000210 50 34 b3 be 48 57 43 ba 49 75 04 3e 77 2c e9 3d
       -0.3500085 -0.00074516656 0.12935366 0.11385434
000220 88 cf 95 3e 20 fb ea be ea 9a 84 bd e1 fb a9 3e
       0.29259896 -0.45894718 -0.0647486 0.3319998
000230 0a fb 26 3f 0a 32 4f 3f 0d b1 b3 3d 52 f0 3f 3e
       0.65226805 0.8093573 0.08774004 0.18744019
000240 bc 1e ae bd 24 a5 c3 3e 60 36 33 3e f5 0d 07 3d
       -0.08501956 0.3821193 0.17501211 0.032972295
000250 4a 6b 78 be 21 63 2a bf 11 ba 1e be ec 4d 0d be
       -0.24259678 -0.6655751 -0.15500666 -0.13799256
000260 25 f9 f7 3c d7 75 fc 3e 3d 3d 8a bd 35 51 98 be
       0.030270169 0.49308655 -0.067499615 -0.29749456
000270 62 18 19 3e 39 29 a1 bf 04 51 62 be 1f cd 3b be
       0.14950708 -1.2590705 -0.22101218 -0.18339966
000280 d6 92 89 3d f9 00 a9 3e c9 e2 d7 3d 55 38 9a bd
       0.0671746 0.33008555 0.10541303 -0.07530276
000290 0e d1 0e 3e 26 dd 0c c0 b7 8e 48 3e 99 1a 36 3e
       0.13946936 -2.2009978 0.19585691 0.17783584
0002a0 e0 d4 26 bb b5 22 86 3d 2d 9c 41 3e b7 a3 96 be
       -0.0025456473 0.065495886 0.18907233 -0.2942178
0002b0 1b 26 a3 3f f1 1f 3e bf cd d7 32 be 28 8d a7 bd
       1.2746004 -0.7426749 -0.17465134 -0.0818122
0002c0 8a 57 04 3e c6 36 06 3d 47 dc 42 3d 00 e0 0c be
       0.12924019 0.03276708 0.047573354 -0.13757324
0002d0 cf 07 ba 3e ae 3a 9e be 21 ae f6 3c d3 bf ac 3d
       0.36334082 -0.30904144 0.030112328 0.08435025
0002e0 bf 82 95 bd f3 1c a2 be 23 58 8f bd 23 bd 0c bf
       -0.073003285 -0.31662712 -0.069992326 -0.549761
0002f0 48 12 1a bf 31 23 5f 3f 1a 8e 10 3e 7e fd bb be
       -0.60184145 0.8716307 0.14116707 -0.36716837
000300 43 51 20 3d c6 5a 91 3f 28 0b a0 bb 39 7a 2e 3c
       0.039139997 1.1355827 -0.0048841424 0.010649257
000310 bb 16 50 be a6 35 23 3f 15 4b 8e 3c 89 d1 f2 3d
       -0.20321171 0.63753736 0.017369786 0.11856372
000320 65 7a c7 3e a6 a1 b4 3f 70 f4 90 3d a8 3b 7c bd
       0.38960567 1.4111831 0.07077873 -0.06158033
000330 ab cb 2d be cc 52 c8 3e fa 58 1b 3e 9e 5f 80 3e
       -0.16972224 0.3912567 0.1517066 0.2507295
000340 2b 45 e0 3e 00 90 af 3f 1e 48 11 3d e6 0f 15 be
       0.4380277 1.371582 0.035469167 -0.14556846
000350 9e 62 7e 3d a6 c9 82 be 71 a1 11 3d 69 25 a2 bd
       0.062105767 -0.2554447 0.035554353 -0.07917292
000360 e8 95 20 3e da 77 81 bf 24 1a 2d 3d 9e 34 d7 3c
       0.15682185 -1.0114701 0.042261258 0.026270207
000370 d5 97 37 be 6e 63 c8 bd 90 02 48 bd 16 72 4a 3e
       -0.17929013 -0.0978459 -0.04883057 0.19770083
000380 2a d3 8b 3e c5 38 32 bf e0 87 88 3c 37 55 85 3e
       0.27309543 -0.69617873 0.016666353 0.26041576
000390 f2 32 53 3d cb 12 28 bf 85 3c 28 3e ac 33 f9 3e
       0.051562257 -0.65653676 0.16429336 0.48672235
0003a0 e1 e9 09 3f 54 79 11 bf ed 65 64 3d 8d b0 0d bd
       0.53872496 -0.5682576 0.055761266 -0.0345922
0003b0 7a 3c c4 3e 84 29 a0 bf e0 5a 1f be bd 34 1e 3e
       0.3832739 -1.251267 -0.1556201 0.15449806
0003c0 15 02 16 3e a6 d1 73 3f 8b a4 83 bd 60 d5 a1 bd
       0.14649232 0.95241773 -0.064278685 -0.07902026
0003d0 87 9d fb 3d 00 4e 57 bf 8a 96 18 3e 2b 17 7e be
       0.12285905 -0.84103394 0.14901176 -0.24813525
0003e0 64 cc 8e 3d 15 7f 4d 3f 55 a8 eb bc fb a6 87 bd
       0.06972578 0.80272037 -0.02876679 -0.06623646
0003f0 d7 4b 43 3e 94 8a 8b bf 35 dc 2d bd 2f c2 2c be
       0.190719 -1.0901666 -0.042446334 -0.1687095

fc1.bias f4 [100]
000000 f7 62 6f be 74 04 4e bf 67 60 c8 be 49 6d ce be
       -0.23377596 -0.80475545 -0.3913605 -0.40317753
000010 5b a9 65 be 9a 90 17 3b 6e 27 39 bd 6e 2a 83 3e
       -0.22427885 0.002312696 -0.04520362 0.2561831
000020 05 77 ab be 58 9a ce be 8a 39 9c be 52 5e ac bd
       -0.33489242 -0.4035213 -0.3051265 -0.08416428
000030 95 d4 e1 3d 07 41 d0 be 69 4c c2 be 5c 98 15 bf
       0.11026875 -0.40674612 -0.3794892 -0.58435607
000040 ab d9 96 bd 33 20 0a bf af 0d c9 be 2b b7 a2 bd
       -0.073657356 -0.5395538 -0.39268252 -0.07945093
000050 ed 14 25 3e d9 f5 09 bf fb e1 e8 be 55 da 27 be
       0.16121264 -0.5389076 -0.4548491 -0.16391881
000060 b3 43 68 3c 4c e4 da be 7a 6d 00 bf 2a 34 ad bd
       0.014176297 -0.42752302 -0.5016705 -0.08457215
000070 98 49 d3 be d3 1c 56 be c7 1f a8 3d d6 0f 89 3d
       -0.41267085 -0.20909433 0.08209186 0.066924736
000080 f6 ca 34 bf 0b 3f 8d 3e e3 6d 8a bd c7 1f 44 be
       -0.70622194 0.2758716 -0.067592405 -0.19152747
000090 a9 05 92 3e 71 ec 91 3c fd 79 27 be e0 68 44 3d
       0.28519943 0.01781294 -0.16355129 0.04795158
0000a0 37 5b cb 3e 9a 27 df be a1 17 3d 3e ea 9c 45 bd
       0.3971803 -0.435849 0.18466045 -0.048245348
0000b0 4e eb a9 be 24 6b da 3d ad 6e d7 3a c2 9a 52 bc
       -0.33187336 0.10664967 0.0016436182 -0.01285428
0000c0 de 1c f4 3d 16 eb c6 3d 21 ca fd 3e a3 ba a4 3d
       0.119195685 0.09712808 0.49568275 0.08043411
0000d0 13 e9 a7 bd 5b 63 39 3e 4e d1 6d bd ec 0e 34 bf
       -0.08198752 0.18104307 -0.058060937 -0.7033527
0000e0 1c 2d a5 be 0e d0 80 be 6e 7f 3f be d6 b0 25 3e
       -0.32260978 -0.25158733 -0.18700954 0.16180739
0000f0 22 9e a4 be 4c 47 88 be 94 7a fb bd 5c 6e 0e bf
       -0.32151896 -0.26616895 -0.12279239 -0.55637145
000100 b4 56 ca bd 0f 29 3d be 32 60 a8 be 6d c2 51 be
       -0.098798186 -0.18472694 -0.3288589 -0.20484324
000110 fc 99 e3 be d3 31 25 3f 53 7c b4 bd 34 a2 1b bf
       -0.44453418 0.6452915 -0.088127755 -0.6079438
000120 72 4a 23 bf 53 81 83 be bf 9d 9d be be 6a 06 bf
       -0.6378547 -0.25684604 -0.30784413 -0.52506626
000130 b1 a2 1b 3f 0b 9c bb be 35 68 ef be 74 b4 8c be
       0.6079512 -0.3664249 -0.4675919 -0.27481425
000140 46 49 73 be eb 83 13 be 98 ca 17 be c2 3b 16 be
       -0.2375842 -0.14405791 -0.14823377 -0.14671233
000150 1d 3d d1 be b8 d5 45 be f2 97 f7 3d 28 b7 93 be
       -0.40866938 -0.19319808 0.12089528 -0.28850675
000160 2f 10 cd be 29 83 cb 3e 9a 6a 18 bf 65 34 93 be
       -0.4005141 0.39748505 -0.5953766 -0.2875091
000170 7b 37 d1 3e 2b 26 f8 bc 63 e5 f5 be ea 4c ef be
       0.4086264 -0.030291637 -0.4802657 -0.46738368
000180 e1 3b d8 3e 77 71 8d 3d a5 be af bd 53 f1 09 be
       0.42233184 0.06906407 -0.085812844 -0.13470964

fc2.weight f4 [100, 100]
000000 e6 c5 0b bf 9f dc c1 be c9 34 7b 3d db 33 43 3d
       -0.54598844 -0.37863633 0.061329637 0.047656875
000010 70 bf 97 be 93 77 74 bc 26 22 1f be d1 e2 d9 3e
       -0.29638243 -0.014921087 -0.1554037 0.4255586
000020 a8 45 0d 3e ed 65 21 bd a5 c3 ef be 58 81 d6 3e
       0.13796103 -0.039403845 -0.46828952 0.41895556
000030 46 71 6e bd b2 cb 99 3e 0a c4 69 be 28 b4 df 3e
       -0.058213495 0.3003822 -0.22828689 0.43692136
000040 d6 a2 a6 3b f8 a4 7b 3e 42 ca 13 3f 9d f5 55 bd
       0.0050853295 0.2457465 0.57730496 -0.05223619
000050 c3 29 d2 be 21 4d aa 3c 65 3c b8 bd 6c 18 8f be
       -0.41047487 0.020788731 -0.08995894 -0.2794832
000060 af ed 50 3e 9e 15 ff 3c 62 eb d4 3a 13 8b 0d 3e
       0.20403169 0.031138238 0.0016244466 0.13822584
000070 8f 60 47 bf 9b 88 de 3d 1c e4 06 bf bd 05 05 be
       -0.7788171 0.10865899 -0.5269182 -0.1299047
000080 d2 a9 0a be de 99 91 bd 81 3f 80 3e c0 4c 89 3e
       -0.13541344 -0.07109426 0.2504845 0.26816368
000090 96 5a 84 3e 81 c7 28 3e 1b 1f ff 3e 23 0f 9f be
       0.25850362 0.16482355 0.4982842 -0.31066236
0000a0 7c 03 7c bf 1e 27 97 bb 7b 97 d0 3d e7 ce b3 3e
       -0.98442817 -0.0046128174 0.101851426 0.3511879
0000b0 38 84 b0 be db 16 fd bd 85 b7 df be fb 25 2b be
       -0.34475875 -0.12357875 -0.43694702 -0.16713707
0000c0 d1 82 58 bf d9 c9 80 3e 08 72 f2 be 12 cd 50 3e
       -0.8457461 0.25153998 -0.47352624 0.20390728
0000d0 41 49 3c 3d 93 15 f4 bd c5 ac 89 3d 89 b8 09 3e
       0.045968298 -0.119181775 0.06722406 0.13449301
0000e0 d4 3d e7 3d 5f cc ed bd 00 85 e1 3c ba d0 a6 3d
       0.1129109 -0.11611246 0.02752924 0.0814528
0000f0 e9 58 c3 bd 09 13 c5 ba 02 d9 e0 3e c6 2a fb bd
       -0.09538443 -0.001503558 0.43915564 -0.12264018
000100 99 e0 8a 3d aa fa bc 3d c9 e5 0c 3e c2 ee ef 3d
       0.0678112 0.09227498 0.13759531 0.11715461
000110 47 ae 4d be 07 9f ba 3d bc 98 bd 3e 6e 64 cc bd
       -0.20086013 0.09112363 0.3703059 -0.09980093
000120 5d 69 b2 bd 45 19 11 3e 56 d9 1e bd 9c df d4 bd
       -0.08711503 0.14169796 -0.038781486 -0.103942126
000130 8e 9c 76 bf 32 f6 db 3e b7 87 c2 3d a1 43 08 be
       -0.96332633 0.4296127 0.09498542 -0.13307048
000140 f8 9a db be 3c 36 a1 3e 51 28 3f 3e 9d d8 53 3e
       -0.4289167 0.3148669 0.18667723 0.206881
000150 d5 a1 b7 bd 07 61 ca 3e c2 1a 76 3e 30 06 4d 3d
       -0.08966414 0.3952715 0.24033645 0.05005473
000160 9e 28 bc be 44 2b fc bd ac 78 f8 be 0f 13 dc be
       -0.36749738 -0.1231294 -0.48529565 -0.4298329
000170 eb 00 5d be 3a 3b 31 3d f6 38 60 3e 17 07 71 3e
       -0.21582381 0.043269373 0.21896729 0.23537861
000180 47 b9 55 be 47 37 26 3e b1 37 18 be 61 d5 e5 bc
       -0.20871459 0.16232024 -0.14864995 -0.028055849
000190 e5 f4 08 be 9e 73 e8 3c bf e8 aa be 3d 69 3c bf
       -0.1337467 0.028375443 -0.33380696 -0.7359808
0001a0 49 7a 40 be a9 66 af 3e 0a 8b af be 4e cc 89 bc
       -0.18796648 0.3425801 -0.34285766 -0.016821053
0001b0 0b 87 85 3c 20 e7 af be e6 41 11 bf 61 bd 40 be
       0.016299745 -0.34356022 -0.5674118 -0.18822242
0001c0 fc 11 13 3e 30 26 5b bd 8e ed 6f 3d 81 80 aa 3e
       0.14362329 -0.053503215 0.05857616 0.33301166
0001d0 a8 6d ee be 3d 66 cb be 7f 47 95 3e 69 3c 17 be
       -0.46568036 -0.3972644 0.2915611 -0.14769138
0001e0 0c b9 d1 3d 15 c6 b8 3e 86 36 50 bd 51 4a 14 3e
       0.10240373 0.36088625 -0.050833248 0.14481474
0001f0 39 81 17 3e 90 29 a7 bd 30 9d 37 3d 5f 02 7e be
       0.14795388 -0.08162224 0.04482764 -0.24805592
000200 8c 6d ad 3d d8 67 03 3e 51 ac a2 be 9c 47 26 be
       0.0846816 0.12832582 -0.31772092 -0.16238254
000210 f4 a1 a8 be 2b 5d 1b 3e 56 93 a0 be e7 25 74 bd
       -0.3293606 0.1517226 -0.31362408 -0.05960646
000220 57 7e 57 bc a4 c3 c0 3d cb a0 3d 3d b5 49 c2 be
       -0.01315268 0.094123155 0.046295922 -0.3794686
000230 96 f6 07 bf fb 68 d2 3c c3 af 67 3e 96 dc 98 3e
       -0.53110635 0.025684824 0.22625642 0.29855794
000240 06 ee c0 3e 1b 5c 05 3d e3 af 0b bf cd 75 8a 3e
       0.37681597 0.03255854 -0.54565257 0.27043
000250 0c bf 14 bd 64 fd 1d 3e cd f0 17 bf e7 b7 de bd
       -0.03631501 0.15428692 -0.5935181 -0.1087492
000260 82 ac c0 3e 01 99 b9 be 15 44 1f 3e 1d e5 d0 3c
       0.37631613 -0.36249545 0.15553315 0.025499875
000270 d5 d4 17 bf 04 9f 00 be 2b d8 4d be 66 41 a4 3d
       -0.5930913 -0.1256066 -0.20101993 0.08020286
000280 db aa f6 3d c6 92 cf 3d 18 ad 11 3f 78 1b 1f be
       0.12044307 0.10135417 0.56904745 -0.15537822
000290 e1 72 4b bc 3a 7a bd bd 9e 58 ee 3e 68 ee 03 be
       -0.012417526 -0.092518285 0.46551985 -0.12883914
0002a0 36 5a 84 3e 1b 08 37 bf d0 7b 34 3f fa 68 e6 bd
       0.25850075 -0.7149674 0.7050142 -0.112504914
0002b0 85 3f 7c 3d 73 2d 80 be 6a 11 53 3e 25 d3 bd 3d
       0.061584014 -0.25034675 0.20612112 0.09268788
0002c0 98 e9 91 be bb e1 ee 3d fb 61 e0 3d a8 d7 58 3e
       -0.2849853 0.116641484 0.10956188 0.21176016
0002d0 d5 19 ac 3e 60 b1 67 bd 86 3c 88 be 62 74 7d bd
       0.33613458 -0.056565642 -0.26608676 -0.06187857
0002e0 d5 ac 20 3e 16 e3 f1 be e2 c6 89 be c5 88 65 3d
       0.1569093 -0.47243565 -0.26909548 0.056038637
0002f0 e8 8e 20 bf b9 fc 14 be aa d3 0a 3b 9f 07 06 3e
       -0.6271806 -0.14549531 0.002118329 0.13088845
000300 83 00 ed be 41 e4 19 be 33 5c 16 3f 9a 6f d5 3e
       -0.46289453 -0.15028478 0.58734435 0.41686708
000310 54 4f 8c be 12 49 6c 3e 47 1e 0c bf a6 7a d6 be
       -0.27404273 0.23074749 -0.547337 -0.41890448
000320 1b 54 a4 bd 3b 0d 98 3e f4 f9 01 be 7c 82 d1 be
       -0.08023854 0.29697594 -0.12693006 -0.40919864
000330 be 20 8b 3e fa c9 79 3d 67 b5 fd bd 5d 67 9e bf
       0.27173418 0.060983635 -0.123881154 -1.2375294
000340 0e c6 86 be fa 73 54 be b8 ed d9 bd 7d 3b b9 3e
       -0.2632298 -0.20747367 -0.106410444 0.36178198
000350 64 8f 63 3e 2f e5 d0 3e 77 27 28 3f 14 c4 28 3f
       0.22222668 0.40799853 0.6568522 0.6592419
000360 cb f9 ad be e4 ed c7 be c2 a5 93 3e 55 f6 83 be
       -0.3397964 -0.39048684 0.288374 -0.25773874
000370 ea 6b 6a bd 09 a1 31 3e 4f c0 78 3d f6 0f ef 3e
       -0.05723182 0.17346586 0.060730275 0.46691865
000380 6b a2 01 bf 8a e2 44 3e e2 89 44 bf 73 c5 d9 3d
       -0.50638455 0.19227043 -0.7677289 0.106333636
000390 5b b6 ef 3c e5 69 2e be 6f ad 8e be 35 06 38 bd
       0.029261759 -0.17032583 -0.27866694 -0.044927794
0003a0 73 db e7 3a 78 c0 30 bf 12 e7 14 3d 4e 3d fe bd
       0.0017689302 -0.69043684 0.03635318 -0.12414037
0003b0 6b ac 61 be 97 18 5f bd f8 c3 de be bc 7d ab be
       -0.22038428 -0.05446681 -0.43508887 -0.33494365
0003c0 2b a1 9f 3d f3 a4 76 3e f9 49 b9 be 2e 11 12 3d
       0.07794412 0.2408636 -0.3618925 0.035660915
0003d0 ec b5 87 3c a5 02 89 3d e1 d4 a6 bd 67 ce c5 3d
       0.01656624 0.066899575 -0.08146072 0.09658509
0003e0 11 a6 60 39 53 3e 36 be 28 50 9f bd df f6 00 bf
       0.00021424169 -0.17797212 -0.077789605 -0.50376695
0003f0 bf 8a 66 bf d1 9b b4 be 43 20 91 3e 08 6d fe 3e
       -0.9005546 -0.35275128 0.28344926 0.4969256

fc2.bias f4 [100]
000000 20 4d f7 3c 49 d9 11 be cb 87 09 bf 70 dc 0f 3d
       0.030188143 -0.14243044 -0.5372283 0.035122335
000010 af e8 0e be b3 dc 87 be 68 d0 4c bd de cc 90 be
       -0.13955949 -0.26535568 -0.05000344 -0.282813
000020 35 dd db bd 98 45 dc 3d 8d a3 e7 bd f1 18 f0 3d
       -0.10735551 0.107554615 -0.11310492 0.11723507
000030 52 f3 78 3e e3 65 b7 be e0 00 7d 3d a6 b0 f9 bd
       0.2431157 -0.3581992 0.061768413 -0.12191896
000040 33 9d 23 be 49 90 85 be ac d7 9a be 6f 6c 2f be
       -0.15977935 -0.26086643 -0.3024267 -0.17131208
000050 6c 5f 89 bd 54 3a d7 be 65 14 a3 be 7a 4b 8a be
       -0.067076534 -0.42036688 -0.31851497 -0.2701071
000060 1d 53 b5 bd 72 90 33 bd 4b 55 f2 be 1a 6e bd bc
       -0.08853743 -0.043838926 -0.47330698 -0.02312379
000070 93 42 5b 3e 41 e9 5d 3e 78 f3 c5 3c 74 1e 3d 3e
       0.21412115 0.2167101 0.024163947 0.18468648
000080 bf 5e 7a be 6f 1e d5 bd 92 17 b2 3e dc 4d 17 be
       -0.24450205 -0.10406195 0.34783608 -0.14775795
000090 36 13 b6 bd fc 2d 9c 3e 0a ce 51 be 6b 14 a5 bd
       -0.08890383 0.30503833 -0.20488754 -0.08060535
0000a0 ef db ca bd 1e be df be 50 c9 18 be cc 88 f5 be
       -0.0990523 -0.43699735 -0.14920545 -0.4795593
0000b0 08 c6 a0 be e7 16 92 be 91 68 72 bd ad 9a 04 be
       -0.31401086 -0.28533098 -0.059181754 -0.12949629
0000c0 1d 5a 4f be 7d 54 16 be 97 75 91 be 4c 9b ef bd
       -0.20249219 -0.14680667 -0.28410026 -0.116995424
0000d0 8f 7d 0a bd c9 26 5a be 25 30 a1 bd ae d2 b7 be
       -0.03381115 -0.21303858 -0.07870511 -0.35902923
0000e0 fb 24 a8 3e 78 e6 4e 3e a0 33 6c 3f 40 6a a5 be
       0.32840714 0.20205104 0.92266273 -0.32307625
0000f0 d3 7d 9e be 63 76 55 be e0 22 dd bd 6f 25 c1 be
       -0.3095537 -0.20845942 -0.107976675 -0.37723872
000100 1b dc 4d 3c 0e f8 cb be da d2 63 be fc e9 98 3c
       0.012564684 -0.39837688 -0.22248402 0.01866626
000110 6a e1 ba 3d 04 d9 83 3c 1d ea 6a bd 59 e6 f5 be
       0.091250256 0.016094692 -0.057352174 -0.48027304
000120 23 f6 08 3e 75 04 7e bd 3d b0 8d be 34 61 61 3e
       0.13375144 -0.06201597 -0.27673522 0.22009736
000130 b8 d3 a5 3e 73 0f be bc fe 02 05 be 4f 6b dc be
       0.3238809 -0.023200726 -0.12989423 -0.4305062
000140 8b b4 9d be 46 6a 10 bf 3e 7e 85 be fa a6 d2 be
       -0.30801806 -0.5641216 -0.26072878 -0.41143018
000150 d3 cb 7d bd 64 dc 2e 3e e8 27 8f be 20 0a 89 bd
       -0.06196196 0.1707626 -0.27960134 -0.06691384
000160 0c b9 10 3d a6 16 ac be ba 86 ea bc b6 e8 8d be
       0.035332724 -0.3361103 -0.028628696 -0.27716607
000170 1c 44 4d 3d 67 84 e3 3d ee 45 7a be 13 6f ee 3b
       0.050113782 0.11109238 -0.24440739 0.0072764247
000180 f0 2a d7 be 48 b2 cd bd db e7 52 be 74 2e 21 be
       -0.42024946 -0.1004377 -0.20596258 -0.15740377

fc3.weight f4 [50, 100]
000000 3a d1 4b 3d e2 4c 98 3e 6d 8a 13 3e be 69 03 be
       0.04976008 0.29746157 0.14408274 -0.12833306
000010 77 c5 a7 3d 2d bd 0b bf 74 f4 05 be ed 48 62 bf
       0.0819196 -0.54585534 -0.13081533 -0.88392526
000020 82 70 43 3d c2 40 b7 bd 74 0a d7 be 44 0b 22 bd
       0.047714718 -0.089478984 -0.42000163 -0.039561525
000030 1d 6f b0 3e 34 42 8b be d6 55 9c be 80 31 70 bf
       0.34459773 -0.27198946 -0.30534238 -0.9382553
000040 e5 b3 10 bf 9e 64 e9 be 09 67 b2 3a dc 19 10 3d
       -0.565245 -0.45584577 0.0013611029 0.03518091
000050 31 a0 d6 be 78 2d d8 3e c8 9a ca be e9 12 82 3e
       -0.4191909 0.4222219 -0.39571214 0.25405052
000060 bf cc 70 be 2c 18 8b bc 3c ae 39 3e 9f c0 a0 bd
       -0.23515604 -0.0169793 0.18132871 -0.078492396
000070 7a 4f f7 be 05 4b 0a bf ff af c6 3d 5f 95 07 bc
       -0.48302823 -0.5402072 0.09701537 -0.008275359
000080 1b ab e4 bd 35 3a 0f 3e 95 a7 2e be 84 52 f9 3d
       -0.11165448 0.13987048 -0.17056115 0.12173942
000090 d6 33 0d bd af ec fc bd bc 55 45 3e 36 61 2b 3e
       -0.034473263 -0.12349831 0.19270986 0.16736302
0000a0 6f b6 df bc f4 ac bf be 10 d9 0f 3d 4f c1 3b be
       -0.02730867 -0.3743664 0.035119116 -0.1833546
0000b0 76 a8 c7 be 25 de ed be 8d 05 d9 3e 8e 0a 04 3d
       -0.38995713 -0.46458545 0.42387047 0.03223663
0000c0 a7 18 eb 3c 6e 22 2c bd 98 76 9f 3e 94 55 97 bd
       0.028698279 -0.042025022 0.31145167 -0.073893696
0000d0 22 f7 10 3c 0e 2d 06 bd ec 8b 25 be 94 ec d4 bd
       0.008847984 -0.03275781 -0.16166657 -0.10396686
0000e0 d6 71 22 bf dd d2 2d be aa b7 b7 bc 6b 18 f1 3d
       -0.6345495 -0.16974969 -0.022426445 0.117722355
0000f0 8c a4 88 be d6 95 39 bd 32 fe 9b be 6c d6 5b 3d
       -0.2668804 -0.04530891 -0.30467373 0.053671286
000100 e5 65 63 3e 44 2b 09 3f e4 38 8b be b5 54 68 3e
       0.22206838 0.53581643 -0.27191842 0.22688563
000110 eb 83 b7 be 7e 93 2b 3f 40 17 1f bf f4 69 a3 be
       -0.35842833 0.6702193 -0.6214485 -0.31916773
000120 07 36 2a be d8 c2 d5 bd ce ae 27 3f d6 be 4c 3e
       -0.16622172 -0.10437554 0.65501106 0.19994673
000130 9e e8 89 be 7f 8b 8c 3d dc 0a 21 3e 85 30 02 be
       -0.26935285 0.06862544 0.15726799 -0.12713821
000140 3b d6 9e 3e bd d8 9d be cc 5e 21 3d 9e 13 39 3e
       0.3102282 -0.3082942 0.039397046 0.1807389
000150 67 b7 0b be 0e 04 92 be 7f ec ea be 7e 7c 50 bd
       -0.13644181 -0.28518718 -0.45883557 -0.050899975
000160 0a 95 05 be c1 35 b8 be 50 29 79 3e f2 18 68 bf
       -0.13045135 -0.3597851 0.24332166 -0.90663064
000170 cc af b7 be 8f 12 ad be 3b 27 c9 bd 0f e6 7e bf
       -0.3587631 -0.33803222 -0.09821936 -0.9956979
000180 37 3d a2 bc 02 11 60 39 fe 7c a8 3e 73 cd 36 3e
       -0.01980458 0.0002136864 0.3290786 0.1785181
000190 82 b1 c3 3d 7b 5f 43 be 48 98 a0 3e 82 18 44 3d
       0.09555341 -0.19079392 0.3136618 0.047874935
0001a0 56 95 64 be 5d 5b b1 bf 25 ea 74 be 5a 1f 6b bd
       -0.22322592 -1.3856007 -0.23917444 -0.057402946
0001b0 51 cc 10 bd 5c 0c 0e be 89 fe c0 3e 64 87 49 be
       -0.0353511 -0.13871902 0.37694195 -0.19680554
0001c0 b3 ab 07 bf 28 44 a9 3c 33 b0 a3 3e 10 fc 19 3f
       -0.5299637 0.020662382 0.31970367 0.6015024
0001d0 f3 6b 6d bf d0 94 e1 be 95 c3 04 be 31 e6 a4 3e
       -0.9274284 -0.44058847 -0.12965234 0.32206872
0001e0 be ba 3a be 01 d9 0b 3b f0 44 dc bd f5 01 ab be
       -0.18235299 0.0021339061 -0.10755336 -0.3339993
0001f0 b1 17 3f be c4 68 d6 3b 98 a0 8c 3e f1 4f 93 3d
       -0.18661381 0.0065432508 0.27466273 0.07192982
000200 b7 69 10 bf 72 df db be 62 ef 30 3e 8f 6e 57 bf
       -0.5641131 -0.42943913 0.17278817 -0.84153074
000210 bf f0 17 3f e0 51 46 3f 59 d1 ee bc 6b cc 1c be
       0.59351724 0.7746868 -0.02915256 -0.15312354
000220 f1 04 d5 bc 80 83 d9 3e 6a b3 0e 3d 5c 42 94 be
       -0.026003333 0.4248314 0.03483907 -0.28956878
000230 15 f3 ad 3e 4c b6 9d 3e df 96 69 be 6f 2d 08 bf
       0.3397452 0.30803144 -0.22811459 -0.53194326
000240 67 26 c4 3b 18 95 ff bd 6c 09 b5 3e 4d 48 42 3e
       0.005986023 -0.12479609 0.3535875 0.18972893
000250 48 95 99 bd e6 c8 18 3d d5 22 46 bd d5 61 b7 3e
       -0.07499176 0.037300967 -0.048373062 0.35816827
000260 cb 27 0b bd 5c 50 df be e0 0f a5 be 2e d4 ee 3e
       -0.033973496 -0.43615997 -0.32238674 0.46646255
000270 9c 4c 4c 3e e6 fe 4c 3d 3f c1 8c be 86 f6 11 3e
       0.19951099 0.050047778 -0.27491185 0.14254197
000280 ac b7 95 be 8c a3 68 be 46 60 e4 3e 1a 2a 11 bc
       -0.29241693 -0.22718638 0.446047 -0.008860135
000290 1d b7 1f be c2 62 3b 3d c3 0b a4 be cf e6 97 bc
       -0.15597196 0.04574848 -0.32040223 -0.018542675
0002a0 8a 5c 3d 3f d3 03 b1 bd 79 2d 08 bf f0 0d dc 3c
       0.7396933 -0.086433075 -0.53194386 0.026862115
0002b0 01 f0 89 3d 47 53 12 3e fe 40 ff be f3 e5 3b be
       0.0673523 0.1428958 -0.49854273 -0.18349437
0002c0 50 5a 6c bb 91 4f aa bd 61 e3 69 be 09 95 1e bd
       -0.0036064573 -0.08315957 -0.22840644 -0.03871635
0002d0 a3 81 23 bd 20 1f 21 bd 23 3f 08 bb 51 45 aa be
       -0.039918553 -0.039336324 -0.0020789586 -0.3325601
0002e0 f5 6e 02 bd 16 29 a9 3e 98 3c 11 be 92 ad 2d 3f
       -0.031844098 0.3303916 -0.14183271 0.6784297
0002f0 b6 ee 5a be 4a 18 05 bf 40 0e 4a be 78 5e 8b 3b
       -0.21380123 -0.5199019 -0.19731998 0.004253205
000300 34 fd 0c 3e 84 2a 4e be ed 8a 4a 3e f0 84 da 3c
       0.13768464 -0.20133406 0.19779558 0.026674718
000310 21 38 2d 3e f2 cb a4 be 67 35 af bd dd b9 e3 be
       0.16915943 -0.32186848 -0.085551076 -0.4447774
000320 fc 68 cc be c3 61 fb be 07 e9 c5 bd 36 fa 09 bd
       -0.39923847 -0.49098024 -0.09663587 -0.033685885
000330 83 9b 4c 3d 78 df 13 3e c1 57 71 be 1e d1 ef 3d
       0.049952995 0.14440715 -0.23568632 0.11709808
000340 34 39 c8 bd 93 dd 82 3c 29 fc f1 3e 4e 53 13 3d
       -0.09776536 0.015974795 0.47262695 0.035968117
000350 e9 cf d6 be d8 bb 7f be 6f b7 e7 3d c1 86 c1 be
       -0.41955498 -0.24974 0.11314284 -0.37798122
000360 db ff 97 be 0b 08 09 be 16 d3 2e be 3f 5c de be
       -0.2968739 -0.13381974 -0.1707271 -0.43429753
000370 c0 11 a1 bc c0 ec 2c be 8f b4 d5 3c 52 bf 75 bd
       -0.019661784 -0.16887188 0.026087074 -0.05999691
000380 a7 12 67 3e 1b 7d e6 3c ec de 40 bf 15 95 09 bd
       0.22565709 0.028135827 -0.7534015 -0.03358944
000390 c9 3d 33 3e e3 da 6f 3d 5d 03 00 3f e7 83 0e bf
       0.17504038 0.058558356 0.5000513 -0.55670017
0003a0 8e 6c 69 3e 08 ad c5 bd ab f1 93 3e 37 4c 09 3e
       0.22795317 -0.09652144 0.28895316 0.1340798
0003b0 5b b1 58 be fd 54 df be 1a 41 2d 3e 76 44 14 bf
       -0.21161406 -0.43619528 0.16919366 -0.57916963
0003c0 3b 0e 79 bd 19 22 a0 3e d7 a6 23 bf b8 c0 fb bd
       -0.060804587 0.31276014 -0.6392645 -0.122926176
0003d0 28 85 39 3e de 73 0e 3e f7 f2 7e be ec 32 f9 bd
       0.18117201 0.13911387 -0.24897371 -0.12167916
0003e0 b2 82 0e be f9 76 a2 3d 71 85 8c bc 60 5b dd be
       -0.13917044 0.079328485 -0.017153474 -0.43233776
0003f0 24 be ca 3c 21 7f 5b 3f 59 04 8b bf bb 3d 24 3f
       0.02474887 0.8574086 -1.0860702 0.64156693

fc3.bias f4 [50]
000000 9a fe 90 bc ad 95 eb bb 8c 5b 96 be 86 7f 8a be
       -0.017699528 -0.0071894736 -0.2936672 -0.27050418
000010 94 e3 23 bc 05 9f 26 be b2 ab 9a 3d 3a 77 2f be
       -0.010002989 -0.16271599 0.075522795 -0.17135325
000020 98 55 ad bd a2 d8 e4 be 4f 51 12 be f4 db a0 3e
       -0.08463591 -0.44696528 -0.1428883 0.3141781
000030 25 b6 02 bf 68 fb c7 3d 6a bd 01 bf ce 85 21 3e
       -0.5105918 0.09764749 -0.5067965 0.15773699
000040 1a 54 f7 be 2d 33 4a 3d 3b 19 35 3c df 31 a6 be
       -0.48306352 0.04936521 0.011053379 -0.32459924
000050 8d 6e 85 be 68 3c 54 bd d6 0d 0b bf 56 46 fc bd
       -0.26060906 -0.05181542 -0.54317987 -0.12318103
000060 13 8e be be c9 c6 0f 3e 26 ec 9e bc 76 db df be
       -0.3721777 0.14040674 -0.019399714 -0.43722123
000070 42 3f 06 3e 93 82 d2 be 24 ac 95 bd 05 b7 47 be
       0.13110068 -0.41115245 -0.07308224 -0.1950341
000080 d9 7c fc bd 55 07 a1 be 8c 4f 8f bd 88 02 26 bf
       -0.123285 -0.31450906 -0.06997594 -0.6484761
000090 e5 e0 8b be 2f a1 78 bd 1f 07 00 be e1 11 01 bf
       -0.27320018 -0.06070059 -0.12502716 -0.50417906
0000a0 40 97 89 bd 77 5b 86 be 7d 9b 8a be 60 2a 21 be
       -0.06718302 -0.26241657 -0.27071753 -0.15738821
0000b0 55 bc c7 3d 03 b9 d7 3d e3 99 8a be 8a f3 47 bd
       0.09752718 0.10533335 -0.2707053 -0.04881624
0000c0 d8 42 9d bc 03 a4 0c be
       -0.019196913 -0.1373444

fc4.weight f4 [2, 50]
000000 ea 5e 48 bc 1f 78 24 3f 7c 78 2d 3f 4b 51 af be
       -0.0122296605 0.6424579 0.6776197 -0.3424171
000010 2d 41 6f bd de bb 95 3d cf 7b 92 3e 80 eb 9f 3e
       -0.058411766 0.073112234 0.28610083 0.3123436
000020 76 27 ac 3e 50 e7 6d 3f ae 43 c5 be 6b a8 4b be
       0.33623856 0.9293108 -0.38528198 -0.19888465
000030 4a a1 94 be 15 33 d2 be 90 f1 2a be 72 1e 7e 3d
       -0.29029304 -0.41054597 -0.16693711 0.062040754
000040 84 88 11 3f e9 dd ef 3e 75 06 93 3e 58 ad 0b 3f
       0.5684893 0.46848992 0.28715864 0.54561377
000050 03 a0 25 3e 38 c9 71 3d 48 42 09 bf c0 0a a3 be
       0.16174321 0.059029788 -0.5361676 -0.3184414
000060 65 84 35 3f 7a a8 74 bc b4 93 2d bc 23 39 5a bd
       0.70905143 -0.014932746 -0.010594297 -0.053277146
000070 7c a8 4f bc 39 c6 a2 bd 0d b0 c8 3d bd 6d 13 3f
       -0.012674447 -0.07947964 0.09799204 0.5758932
000080 90 c5 fa be 2c 52 a1 be 73 cb 96 39 f5 c2 6c be
       -0.48978853 -0.31508005 0.0002876181 -0.23121245
000090 38 0a 4e 3e 03 1e 12 be 0c b3 ea be 6f 3f a9 3e
       0.20121086 -0.14269261 -0.45839727 0.33056208
0000a0 16 d1 55 be f8 85 31 3e 69 92 c1 3e b2 b4 07 3d
       -0.20880541 0.17336261 0.37807015 0.03313131
0000b0 5e f9 8a bd cb 4c 76 be a4 13 ba 3e 2e a0 50 3e
       -0.06785844 -0.24052732 0.3634311 0.20373604
0000c0 08 20 ee 3c d8 89 51 bb 84 26 43 bf 26 2b f7 3e
       0.029068008 -0.003197303 -0.76230645 0.48275107
0000d0 e2 f3 01 be e3 fc 09 3e 6e 84 c3 bd 7e bf d7 3e
       -0.1269069 0.13475375 -0.09546743 0.42138284
0000e0 56 89 56 bf ce 49 7a 3f e5 19 0b 3e 41 40 90 3f
       -0.8380331 0.97768867 0.13584097 1.1269609
0000f0 56 7a 1b 3e 84 03 ec be 41 24 5a bf 82 7e 77 be
       0.15183386 -0.46096432 -0.8521157 -0.24169353
000100 c4 9a bb be b4 eb 39 bf 04 25 88 3f 89 5b b6 3d
       -0.36641514 -0.7262528 1.0636296 0.08904178
000110 37 bc 2d bf f3 b8 49 3f e5 0c fe be de 8b 3b 3f
       -0.6786532 0.78797835 -0.49619213 0.73260295
000120 7b f3 29 3f 14 8e 16 3e 69 bf 19 3f 95 85 2f 3f
       0.66387147 0.14702636 0.60057694 0.68563205
000130 32 a7 4f 3f 5c 61 77 be cf 07 4f bf f0 2d 19 bf
       0.81114495 -0.24158233 -0.8087129 -0.5983572
000140 6d 05 dc bd a0 0f 37 3f dd ef f9 be a2 7a 9e be
       -0.107432224 0.71508217 -0.48815814 -0.30952936
000150 37 3e 72 3e 69 3e 80 3f 2d 35 32 be 12 09 3e bf
       0.23656546 1.0019046 -0.17403097 -0.7423259
000160 ee c8 04 bf ba e8 3b 3f 20 e0 e9 3e 41 05 59 3f
       -0.51869094 0.7340199 0.45678806 0.8477364
000170 32 c0 8b 3e db a7 5a be fd 68 09 3f db 7c e8 be
       0.2729507 -0.21353094 0.53675824 -0.45407757
000180 7a b4 d5 be c2 4d 3b bf 2a 76 ed 3e 42 42 43 3f
       -0.41739255 -0.73165524 0.46379215 0.76272976

fc4.bias f4 [2]
000000 1e 4d ad 3d a5 d8 66 bd
       0.084619746 -0.056358952
