Results/BS_256_EP_6000_TMAX_200_NOISE_0.1_LR_5_TAU_3e3/checkpoint_critic.pth (torch_old, 72813 bytes, 7 tensors)

fc1.weight f4 [100, 26]
0	0xbf0b57e2	-0.54430974
1	0x40accceb	5.4000144
2	0xbd0a3b44	-0.033747926
3	0x407bcf6d	3.9345353
4	0x3f6dce74	0.9289315
5	0xc09ba901	-4.8643804
6	0x3dfd8049	0.12377984
7	0x4087803b	4.234403
8	0xbebb9025	-0.3663341
9	0x40fef6d5	7.967631
10	0xbd275603	-0.04085351
11	0x3e1f7afe	0.15574262
12	0x40216152	2.521565
13	0xc1879b51	-16.950838
14	0xbd7fb3a7	-0.06242719
15	0x3e4e63ed	0.20155306
16	0xbf2ae95d	-0.66762334
17	0x40e98611	7.2976155
18	0xbdea90e6	-0.114534184
19	0xc058ffb5	-3.390607
20	0xbebc6cb3	-0.3680168
21	0x4016a1a2	2.3536153
22	0xbcb3c0fd	-0.02194261
23	0xc04a243a	-3.158461
24	0xc08bc4ce	-4.367774
25	0x3fadbe78	1.3573751
26	0x40479073	3.1181915
27	0xbfb106af	-1.3830165
28	0xbdc6cdb6	-0.09707205
29	0x3fa50ea4	1.2895093
30	0xc00041d8	-2.0040188
31	0x402d314a	2.7061334
32	0xbdce4a75	-0.10072795
33	0x3f9fdb52	1.2488806
34	0x40ae32fa	5.4437227
35	0xbefd58f8	-0.4948194
36	0x3d746d20	0.059674382
37	0x3ea68ddb	0.32530102
38	0xbf35c492	-0.7100307
39	0x406581fb	3.5860584
40	0x3e3ce554	0.18446857
41	0x3d6613d0	0.05617124
42	0x4079a9ac	3.900981
43	0xbebff999	-0.37495115
44	0xbe1321a6	-0.14368305
45	0xbef8deb5	-0.48607412
46	0x3f85c44a	1.0450528
47	0xbd7ae966	-0.061257742
48	0xbdb62c4f	-0.0889517
49	0xbec8ba87	-0.3920481
50	0x4100c624	8.048374
51	0x3f722527	0.9458794
52	0x3fa405d7	1.2814282
53	0x3d00bda8	0.03143087
54	0x3df94ec4	0.121732265
55	0xba4db901	-0.0007847697
56	0x3d872027	0.065979294
57	0xbf9e5568	-1.2369814
58	0xbe152eee	-0.14568684
59	0x3c5b2f5c	0.013377991
60	0x3f8f7e55	1.1210428
61	0x3e81d1b6	0.2535531
62	0xbe0a8375	-0.1352671
63	0xbe8c67b9	-0.27422884
64	0x3d94da65	0.07268218
65	0xbf8fd122	-1.1235697
66	0xbc3e3549	-0.011609384
67	0xbe93797c	-0.28803623
68	0x3fa50106	1.2890937
69	0x3ec00ca7	0.37509653
70	0xbe608540	-0.21925831
71	0x3d180423	0.03711332
72	0xbdf4b677	-0.11948865
73	0xbf270db0	-0.6525526
74	0x3dd1fe1c	0.10253546
75	0x3e906554	0.28202307
76	0xbf370cb7	-0.71503776
77	0xbf81f29f	-1.0152167
78	0x3f16e13d	0.58937436
79	0x408854ef	4.260368
80	0xbecafa9c	-0.39644325
81	0xbf681f77	-0.9067301
82	0x3f0a6706	0.5406345
83	0x3f1a6bf4	0.60320973
84	0xbe35358f	-0.17696212
85	0xbf8e97a0	-1.1140022
86	0x3fd4ba1e	1.6619298
87	0x3f899d13	1.075106
88	0x3f1fdba8	0.62444544
89	0x3f76ce2a	0.9640833
90	0x3e90138d	0.28139916
91	0xbf470cda	-0.77753985
92	0x3f307dbb	0.6894185
93	0x3f93a830	1.1535702
94	0x408cd850	4.4014053
95	0x3ee560cd	0.44800416
96	0x3ed1ccda	0.40976602
97	0xbed7ff2f	-0.42186877
98	0xc02afb8c	-2.6716032
99	0xc11ba37c	-9.727413
100	0x3efe2092	0.49634224
101	0xbea95a79	-0.33076838
102	0x3d7bec35	0.06150456
103	0x409dcc04	4.9311543
104	0xbdcf1fec	-0.101135105
105	0x3eeaf2ce	0.4588837
106	0x3e94e88d	0.29083672
107	0xbfae012f	-1.3594111
108	0x3ffb7f92	1.9648306
109	0xbfa682b2	-1.3008635
110	0x3eb76716	0.35820836
111	0xbf8bbf32	-1.0917723
112	0x408ec6c0	4.4617615
113	0x3fe94593	1.8224357
114	0xbd6b1854	-0.057396248
115	0xbd793e8f	-0.060850676
116	0x40529631	3.290417
117	0xbff7b6ef	-1.9352702
118	0xbe2718c0	-0.16318035
119	0x3e1aaa4f	0.1510403
120	0x4091fdc0	4.5622253
121	0x3fa5e550	1.2960606
122	0xbf8454ae	-1.0338342
123	0x3ec4a6db	0.3840855
124	0xbe23dc3e	-0.16001984
125	0xc0423e6b	-3.0350597
126	0xbf7cbb95	-0.9872373
127	0x3e4871e8	0.19574702
128	0xc121d7ab	-10.115153
129	0xc05f6a80	-3.4908752
130	0x3eaaa7d7	0.33331177
131	0x3fd7dfc6	1.6865165
132	0x3eb7389a	0.3578537
133	0x3f59be65	0.85056144
134	0x400819ef	2.1265829
135	0xbfd62785	-1.673081
136	0x3efb6ccc	0.49106443
137	0x3f57fd5d	0.84370977
138	0x3f9628eb	1.1731237
139	0x404eb455	3.2297566
140	0x3e089ec0	0.13341808
141	0x4021d8bb	2.5288532
142	0x4010439a	2.254126
143	0xc101aab3	-8.104175
144	0xbe6a0331	-0.2285278
145	0x4013ecdd	2.311332
146	0x3fa8f70d	1.3200394
147	0x4084f27b	4.1545997
148	0xbd9c5c0f	-0.07634746
149	0x3faf9623	1.3717693
150	0xbf3b8135	-0.7324403
151	0xc0b82fcc	-5.7558346
152	0xbc98c640	-0.01864922
153	0x3fd096ee	1.629606
154	0xbe99f0fa	-0.30066663
155	0xc0005779	-2.005339
156	0x3f120f09	0.5705419
157	0x40734bc1	3.8014987
158	0x3e55a5f5	0.20864089
159	0x3e68c2d6	0.22730574
160	0xbf25bad9	-0.6473823
161	0x40c2af57	6.083904
162	0x3d97cc11	0.074119695
163	0x3e0ccad9	0.13749255
164	0x3e20dcad	0.15709181
165	0x4016d115	2.3565114
166	0xbe0b4fc2	-0.13604644
167	0xbef35dba	-0.47532445
168	0xbdb3965d	-0.08768914
169	0x40a1e196	5.0587873
170	0x3e008530	0.12550807
171	0xbf211256	-0.62918603
172	0xbe9ffff1	-0.31249955
173	0x40806ba5	4.01314
174	0xbed87581	-0.42277148
175	0x3fe0115e	1.75053
176	0x3f682978	0.90688276
177	0xc1d4b0bf	-26.586302
178	0xbdb62ec4	-0.088956386
179	0x3fbbe67c	1.4679713
180	0xc042dacb	-3.044604
181	0x400386b1	2.055096
182	0x3fec8dbf	1.8480757
183	0x40abd697	5.369945
184	0x3e340308	0.17579281
185	0x3eb41fd9	0.35180548
186	0xbf8e83c2	-1.1133959
187	0xbfb874f2	-1.4410689
188	0xbda3f92d	-0.08006511
189	0x3ec711e1	0.38880828
190	0x40007b32	2.0075192
191	0x40d32d26	6.5992613
192	0x3db7c8e3	0.08973863
193	0x3ebf506c	0.37366045
194	0xbfe39406	-1.7779548
195	0xc09e6288	-4.9495277
196	0x3de90dd9	0.11379594
197	0x3edd2681	0.4319344
198	0x401b2c6c	2.4245863
199	0x40e83086	7.2559233
200	0x3f1a2f87	0.6022877
201	0x3f4b86f9	0.79502827
202	0xc06b3cb2	-3.6755795
203	0xc1672f66	-14.449072
204	0x3ef5d8d1	0.4801698
205	0x3f4e4de3	0.80587596
206	0xc0f857be	-7.7607107
207	0xbf2c088a	-0.6720053
208	0x407b20e7	3.9238832
209	0x40721465	3.7824948
210	0x3d00b26a	0.03142015
211	0x3fe3bfef	1.7792948
212	0xbfa77da5	-1.3085219
213	0xc04e133b	-3.2199237
214	0x3d010836	0.03150197
215	0x3febe9ae	1.8430688
216	0x40b3e6a7	5.621906
217	0x408678a8	4.2022285
218	0x3e147430	0.14497447
219	0xbf2c3f2d	-0.672839
220	0xbeae9601	-0.3409882
221	0xc0a95c3a	-5.292508
222	0x3d6b56a8	0.05745569
223	0xbf021459	-0.508123
224	0x4075733d	3.8351586
225	0x4088b3ef	4.2719646
226	0xbfbf9676	-1.4967792
227	0x3f0e1391	0.55498606
228	0xbf1d634b	-0.61479634
229	0xc113f9b1	-9.24846
230	0xbfad6e66	-1.3549316
231	0x3f45bd15	0.7724164
232	0xbf57b95d	-0.84267217
233	0xc0f98462	-7.79741
234	0x3e2b53bf	0.16731165
235	0x407313bf	3.7980802
236	0x3bd29a64	0.006427096
237	0xbc9a3e4b	-0.018828532
238	0x3ff34d00	1.9007874
239	0xbfb47674	-1.4098649
240	0xbc896ecd	-0.016776467
241	0x3e88ac91	0.26694158
242	0x3f423843	0.758671
243	0x40940197	4.625194
244	0xbcd8fe84	-0.02648855
245	0x3e70d34a	0.235181
246	0x3ff0fe8f	1.8827685
247	0x40bd4c2c	5.9155483
248	0xbdff7cf0	-0.12475002
249	0x3ec873e7	0.39150926
250	0x3f571911	0.84022623
251	0x40380f70	2.8759422
252	0x3e579235	0.21051867
253	0xbfcada7a	-1.5847924
254	0xbee65aa6	-0.44991034
255	0x40ceaeda	6.458844

fc1.bias f4 [100]
0	0xc007255a	-2.1116548
1	0xbf41a7fb	-0.7564694
2	0xbf706095	-0.9389737
3	0xbfbfb2f5	-1.4976488
4	0x3ff8ac4e	1.9427583
5	0x4000c4c6	2.01201
6	0x405fa37c	3.4943533
7	0xc01166dd	-2.2719033
8	0xbfa656a5	-1.2995192
9	0xc028338a	-2.6281457
10	0xc0de0a3f	-6.9387507
11	0x3fe90a30	1.8206234
12	0xc0f957b0	-7.791954
13	0x402b632f	2.6779287
14	0xc0c88c98	-6.2671623
15	0xbff5c9c0	-1.9202194
16	0xc0d1a609	-6.551518
17	0xc0a320e3	-5.0977645
18	0xc08db0a1	-4.427811
19	0x40b6f719	5.7176633
20	0xc03464fb	-2.8186634
21	0xbf645677	-0.89194435
22	0x40178936	2.3677497
23	0xc08b131b	-4.346082
24	0xbfe8ca90	-1.8186817
25	0xc04512c6	-3.0792708
26	0xc133a31d	-11.227323
27	0x3f235725	0.63804847
28	0xc038e2b7	-2.8888376
29	0xc08e6515	-4.449839
30	0xc0d1cdfd	-6.556395
31	0xc0151491	-2.3293803
32	0xbfc84675	-1.5646502
33	0xc0dcdea4	-6.902178
34	0xbffc1a2a	-1.9695485
35	0xc0159bdb	-2.3376377
36	0xc103564d	-8.20857
37	0xc179a9cc	-15.603954
38	0xbf8b1d02	-1.0868227
39	0xc16ee5ed	-14.931134
40	0xbf6458c2	-0.89197934
41	0xbf7bf496	-0.98420084
42	0x3e3822c9	0.1798202
43	0x40308675	2.7582066
44	0x3f889fa2	1.0673716
45	0xc04f17ef	-3.2358358
46	0xbec75963	-0.38935384
47	0xc0938e8b	-4.6111503
48	0xc0a85413	-5.260263
49	0xbd391ce7	-0.04519358
50	0xc0930dc2	-4.5954294
51	0x4034efef	2.8271444
52	0x4102b6ac	8.169598
53	0xbfdc2e61	-1.7201654
54	0xbf16ffa2	-0.58983815
55	0x40111ea9	2.2674963
56	0xc0022cab	-2.0339763
57	0xc18d78d7	-17.684004
58	0xbff2b730	-1.8962154
59	0xc1342a8b	-11.260386
60	0x40863ea0	4.1951447
61	0xc04424f8	-3.0647564
62	0xc0b952c6	-5.791354
63	0xbe0bd1c5	-0.1365424
64	0x41315faf	11.08586
65	0xc109a76a	-8.603373
66	0xc09eb6ed	-4.95983
67	0xc14e8e45	-12.909734
68	0xc18e09b4	-17.754738
69	0x3f4bbd96	0.7958616
70	0xc0b79ede	-5.738143
71	0xc0e4248c	-7.1294613
72	0xc0590bf1	-3.3913538
73	0xc0b1f64a	-5.5613146
74	0x3fd0c516	1.6310146
75	0xc1027427	-8.1533575
76	0xc1606ee0	-14.027069
77	0xc0a52814	-5.1611423
78	0x3f8320e5	1.0244414
79	0x3e4e234b	0.2013065
80	0xc127a33a	-10.47735
81	0xc141b035	-12.105519
82	0xc089aa3f	-4.302032
83	0xc07777e6	-3.866693
84	0xbfe1996e	-1.7624948
85	0xc057302e	-3.3623157
86	0xbfc7c6a0	-1.560749
87	0x4024ace0	2.5730515
88	0xc0dab941	-6.835114
89	0x3e4cb095	0.19989236
90	0xc100dd2d	-8.053998
91	0xc0fb43de	-7.8520346
92	0x3d8938b7	0.067002706
93	0xc01b2f5a	-2.424765
94	0x3f59bc7a	0.8505322
95	0xc03861d7	-2.8809717
96	0x3fc40440	1.5313797
97	0x4008ac88	2.1355305
98	0x3ee8e8a7	0.4549
99	0xc0cb2f55	-6.349528

fc2.weight f4 [100, 100]
0	0xbfeae86a	-1.8352177
1	0xbf65b42f	-0.89728063
2	0x3e140e10	0.1445849
3	0xbfac79f3	-1.3474716
4	0xbeeb5f84	-0.4597131
5	0x3d3d98df	0.046288367
6	0xc08ad036	-4.3379164
7	0xbfc1751b	-1.5113863
8	0x3f3dcf1e	0.7414416
9	0x3f27c83b	0.655399
10	0xbf5a9714	-0.85386777
11	0xbe21de3b	-0.1580743
12	0xc09e7b3b	-4.952543
13	0x40678a5d	3.61782
14	0xbf787247	-0.97049373
15	0x3ed05341	0.40688518
16	0xc0678579	-3.6175215
17	0xc02c1144	-2.6885538
18	0x408c3041	4.3808904
19	0x3e1de686	0.15419969
20	0x3f24c049	0.64355904
21	0xbdcb183d	-0.099167325
22	0xc0705a02	-3.7554936
23	0xbfde7a2c	-1.7381034
24	0xbde0ca75	-0.109761156
25	0xc005c8e1	-2.0903857
26	0xbf35c98f	-0.7101068
27	0xbf68b185	-0.90895873
28	0xbf1742eb	-0.59086484
29	0xbfeb51cd	-1.8384339
30	0xbf08f073	-0.53491896
31	0x3f016be5	0.5055526
32	0xbfbcf164	-1.4761167
33	0xbedf0210	-0.4355626
34	0xbef0b25f	-0.47011086
35	0xbf1270f9	-0.5720363
36	0xc085cfaf	-4.181602
37	0x400f3c65	2.2380612
38	0xbe2fb9bf	-0.171607
39	0x3dfdf32e	0.123998985
40	0x3e0435b0	0.12911105
41	0x3e832fd1	0.2562242
42	0xbdbec6bd	-0.0931525
43	0xbed21925	-0.4103481
44	0xbeafb3b8	-0.34316802
45	0xc071daf2	-3.7789884
46	0xbdff3b80	-0.124625206
47	0xc07613eb	-3.8449657
48	0xbe80b944	-0.25141346
49	0xbf04a377	-0.5181193
50	0xc03a1fc6	-2.9081893
51	0xc0e1bcb6	-7.054286
52	0x3e80c303	0.25148782
53	0x3f477668	0.7791505
54	0xbec66877	-0.38751575
55	0xbefc4232	-0.49269253
56	0xbf8152fb	-1.0103449
57	0xc09a1199	-4.814648
58	0x3f3868e8	0.72035074
59	0xbfa786ea	-1.3088048
60	0x3f946bb2	1.1595366
61	0xbdeb60c5	-0.11493067
62	0xc030fb5b	-2.7653415
63	0xbf331517	-0.69954056
64	0x3e041dcc	0.12901992
65	0xbc82670d	-0.015918279
66	0x3e3c337f	0.18379019
67	0xbf68b0dd	-0.9089487
68	0xc108de73	-8.554309
69	0x3eb9f6dd	0.36321154
70	0xbf1fdc1d	-0.6244524
71	0xbfbf0b0e	-1.4925249
72	0xc00ac1b6	-2.1680732
73	0x3dbef8a2	0.09324767
74	0xc008ec75	-2.1394322
75	0xc0dd5cb7	-6.9175677
76	0xbef4baff	-0.47798917
77	0xbfb59f9c	-1.4189334
78	0xbf43bb62	-0.764578
79	0xbf2c6ea7	-0.6735634
80	0xbf62cac2	-0.88590634
81	0xbf0b1bc0	-0.5433922
82	0xbfaa3870	-1.3298473
83	0xbfd85d2e	-1.6903436
84	0xbf1f7fbf	-0.623043
85	0xbfd68309	-1.6758739
86	0xbe17f1c9	-0.14838327
87	0x3f19e476	0.6011423
88	0x402c1b00	2.689148
89	0xbfd10779	-1.6330405
90	0xc032f06d	-2.7959244
91	0xbee0081a	-0.4375618
92	0xbf93fa9f	-1.1560858
93	0xc094c9c1	-4.649628
94	0xbea2da46	-0.31807154
95	0xc037df47	-2.8730028
96	0xc01590c0	-2.3369598
97	0x3f6a2401	0.9146119
98	0xbe52ec66	-0.20597991
99	0x3f7094ce	0.9397706
100	0xbe332c4e	-0.1749737
101	0xbd9f8923	-0.07789829
102	0xbc5390cc	-0.01291294
103	0xbe3ab607	-0.182335
104	0xbd01ba41	-0.031671766
105	0xbdab5080	-0.083649635
106	0xbd90cd8c	-0.07070455
107	0xbe03b788	-0.1286298
108	0xbcb72edd	-0.022361213
109	0xbc797048	-0.015224524
110	0x3b0b8060	0.0021286234
111	0xbe16782c	-0.1469428
112	0xbde00c03	-0.10939791
113	0xbe9f15c6	-0.310713
114	0xbd0c2811	-0.034217898
115	0xbd7c0b0c	-0.061533973
116	0xbebb1271	-0.36537507
117	0xbdf7a21c	-0.12091467
118	0xbc88c6dc	-0.016696386
119	0xbc20bf4c	-0.009811234
120	0xbea0ccf3	-0.31406364
121	0x3d9da02a	0.076965645
122	0xbe037933	-0.12839203
123	0xbe1e58af	-0.15463518
124	0x3d6514c1	0.055927996
125	0xbe3a0073	-0.18164234
126	0xbd8d58a1	-0.0690167
127	0xbdea3a72	-0.11436929
128	0xbd172d9c	-0.03690873
129	0xbdaae30f	-0.08344089
130	0xbe41055b	-0.18849699
131	0xbcd6869d	-0.026187235
132	0xbe333cb6	-0.17503628
133	0x3d5d571c	0.054038152
134	0x3dd6fc94	0.10497394
135	0xbd70ab6f	-0.05875724
136	0xbe4281fe	-0.189949
137	0xbc6d0b84	-0.014468078
138	0xbe6af6cf	-0.22945713
139	0xbd536752	-0.051612206
140	0xbc692963	-0.014231059
141	0xbdd53fac	-0.10412535
142	0xbe845e6e	-0.25853294
143	0xbe53b7ed	-0.20675631
144	0xbdfd2a84	-0.12361625
145	0xbe0c36bb	-0.13692753
146	0xbeb131b0	-0.3460822
147	0x3d1dae87	0.03849652
148	0xbcdec498	-0.027193353
149	0xbda193a9	-0.07889492
150	0xbda12806	-0.07868962
151	0xbeae7c91	-0.34079412
152	0xbe0d5c1d	-0.1380467
153	0xbcfd6d15	-0.030935803
154	0xbd13fe21	-0.036131028
155	0xbe4600f3	-0.193363
156	0xbe35b501	-0.17744829
157	0xbdbe10ee	-0.09280573
158	0xbe96e772	-0.29473454
159	0x3ce300ae	0.027710285
160	0xbef7e0a1	-0.48413566
161	0xbddf83f5	-0.10913841
162	0x3e0b9b04	0.13633353
163	0xbe1438ce	-0.14474794
164	0xbf0fcc77	-0.56171364
165	0xbda393ff	-0.079872124
166	0x3d0e6db7	0.0347726
167	0xbe6c0eed	-0.23052569
168	0xbd805fa2	-0.062682405
169	0xbc87fa7a	-0.016598929
170	0xbe872224	-0.26393235
171	0xbdbe6e87	-0.09298425
172	0xbe57c23b	-0.21070187
173	0xbde31800	-0.11088562
174	0xbeb97d4e	-0.36228412
175	0xbde68430	-0.112556815
176	0xbd8a39b6	-0.06749289
177	0xbe1ae400	-0.15126038
178	0x3ba8c1f9	0.0051500765
179	0xbdd7da37	-0.10539668
180	0xbdade8c4	-0.08491662
181	0xbc36e91e	-0.011163978
182	0x3e62fed1	0.22167517
183	0xbc992bda	-0.018697668
184	0xbd40666f	-0.04697269
185	0xbd77aced	-0.06046765
186	0xbd0de3f0	-0.034641206
187	0x3cd5ec0c	0.026113532
188	0x3d67f65b	0.056631427
189	0xbe559b19	-0.20859946
190	0xbaca8a88	-0.0015452662
191	0x3d08ea29	0.033426438
192	0xbe889548	-0.26676393
193	0x3d0756bd	0.033041704
194	0xbd8ffc6d	-0.07030568
195	0x39c4d09a	0.00037539453
196	0xbe2da732	-0.16958311
197	0xbeb95e51	-0.3620477
198	0xbe0c01e4	-0.13672596
199	0x3c86eb54	0.016469635
200	0xc00ea042	-2.2285314
201	0xbdb96859	-0.09053106
202	0xbe060124	-0.13086373
203	0xbfd2ed90	-1.6478748
204	0xbdef4098	-0.11682242
205	0xbf300644	-0.6875956
206	0x3f0a28c4	0.53968453
207	0x3f5ab3eb	0.85430783
208	0xbe24d0e9	-0.16095318
209	0xc0244952	-2.566975
210	0x3f27d8d4	0.6556523
211	0xbd86ea20	-0.065876245
212	0xbf454c8c	-0.77069926
213	0x3fd87949	1.6912013
214	0xbf543fea	-0.82910025
215	0xbf1a37d1	-0.6024142
216	0xc071a93b	-3.775954
217	0x3f548739	0.83018833
218	0xbe9542fb	-0.29152665
219	0xc0053f9d	-2.0820076
220	0xc030159c	-2.751319
221	0xbe47af35	-0.1950043
222	0xbf797f07	-0.97459453
223	0xbcdaee2d	-0.0267249
224	0x3edd4ef7	0.43224308
225	0xbd9311f8	-0.07181162
226	0xbf1dca3f	-0.6163673
227	0xbe8fab29	-0.28060272
228	0xbecaa531	-0.39579156
229	0xbf95b780	-1.1696625
230	0xbd80ce50	-0.06289351
231	0xbe860dbc	-0.26182353
232	0xbecad000	-0.39611816
233	0xbe2fd632	-0.17171553
234	0xc0d07630	-6.514427
235	0xbec5fae7	-0.38667986
236	0xc01fc2dc	-2.4962683
237	0xbcf36f80	-0.029716253
238	0x3f419e58	0.7563224
239	0xbf43bad4	-0.7645695
240	0xbe07196c	-0.13193291
241	0xbf23079b	-0.6368348
242	0xc01ab982	-2.4175725
243	0xbf13195a	-0.5746056
244	0xc127f09b	-10.496242
245	0x3e0048fd	0.12527843
246	0xbfd8e41c	-1.6944613
247	0xbf9e815d	-1.2383229
248	0x3c5ef9f4	0.013609398
249	0xc04cef6f	-3.2021139
250	0xbfd49a90	-1.6609669
251	0xbfbc1c9c	-1.4696231
252	0x3e3dd1b1	0.18537022
253	0x3e53931b	0.20661585
254	0xbc1fd2c2	-0.009754838
255	0xc0817663	-4.0457015

fc2.bias f4 [100]
0	0xc10d2933	-8.822558
1	0xbe5138ec	-0.2043187
2	0xc07b1c85	-3.9236157
3	0xbf84b5d2	-1.0367987
4	0xbe982da8	-0.29722333
5	0xbf017814	-0.5057385
6	0xc1862a4b	-16.77065
7	0xbea07a2a	-0.31343204
8	0xbeb38e54	-0.35069525
9	0xbe31da8c	-0.17368525
10	0x4119e9ed	9.619611
11	0x4111d491	9.114396
12	0xbf2d20a0	-0.67627907
13	0xbfe043fb	-1.7520746
14	0xbf1971a6	-0.5993904
15	0xbebc387a	-0.36761838
16	0xbcaa76d5	-0.020808617
17	0x411e5a97	9.897117
18	0xbece70e3	-0.403205
19	0xc050f2d1	-3.2648203
20	0xbeb2cffd	-0.34924307
21	0xbea2f67f	-0.31828687
22	0xbf484cbd	-0.78242093
23	0xbe24fd70	-0.16112304
24	0xbe6ac1be	-0.2292547
25	0xbe40eeac	-0.18841046
26	0xbe30b3bc	-0.17256063
27	0xbe55555e	-0.20833346
28	0xbee0a202	-0.43873602
29	0xbe77c9b1	-0.24198033
30	0xbde8c7e3	-0.1136625
31	0xbe9cbd1f	-0.30613038
32	0xbf036b29	-0.5133539
33	0xc0ea31c2	-7.318574
34	0xbf87c134	-1.0605836
35	0x3e8b1f99	0.27172545
36	0xbeb2000e	-0.34765667
37	0x40c6f77a	6.2177095
38	0xbedcc058	-0.43115497
39	0xbfbd93ea	-1.4810765
40	0x3b5483c7	0.0032427178
41	0xbe9b06c7	-0.30278608
42	0xbed9d974	-0.42548716
43	0xbf88a772	-1.06761
44	0x41392714	11.572041
45	0xbed41ee2	-0.41429812
46	0xc049797a	-3.1480393
47	0xbd79c79d	-0.06098138
48	0xbe8a6cf9	-0.27036265
49	0xbe9824cc	-0.29715574
50	0xbea683b1	-0.32522348
51	0xbe933999	-0.2875488
52	0xbd863529	-0.06553108
53	0x41287c48	10.530342
54	0xbf8aa810	-1.0832539
55	0xbf03f472	-0.5154487
56	0xc12b772f	-10.716598
57	0x4068787b	3.6323535
58	0x3f25cd0a	0.6476599
59	0xbec6d2cb	-0.38832697
60	0xbeaa634d	-0.33278885
61	0xc13e4c79	-11.89367
62	0xc0a5430a	-5.1644335
63	0xbf79b248	-0.9753766
64	0xbe8cebcf	-0.27523658
65	0xbf8c9f71	-1.0986158
66	0xbf70e8ae	-0.9410504
67	0x3e1d4c80	0.15361214
68	0xbe6e546d	-0.23274393
69	0xbed0ebfe	-0.40805048
70	0xbe89b13b	-0.2689303
71	0x3e29ed79	0.16594495
72	0xbd92f81a	-0.07176228
73	0xbe79f142	-0.24408439
74	0xbf61ce69	-0.8820558
75	0xbe42e0c6	-0.19031057
76	0xbf8315c2	-1.0241015
77	0xbf5d805a	-0.86523974
78	0xbe934455	-0.2876307
79	0xbe1d2bc6	-0.1534873
80	0xbf02ad04	-0.5104525
81	0xbf2582ef	-0.64652914
82	0xbe45b5b2	-0.19307593
83	0xc0af4e5e	-5.4783163
84	0xbe3ca224	-0.18421227
85	0x3d12d8c0	0.03585124
86	0xc1277dff	-10.468261
87	0xbe40f9e4	-0.18845326
88	0xbed2655b	-0.41092953
89	0xbe6cdefb	-0.23131935
90	0xc1afd75b	-21.980154
91	0xbe084bd4	-0.13310176
92	0xc0961ba3	-4.6908736
93	0xbed36be8	-0.41293263
94	0xc00d7743	-2.2104042
95	0xbe4a75bd	-0.19771476
96	0xc17e591a	-15.896753
97	0xbf33b5aa	-0.7019907
98	0xbf0bcc01	-0.5460816
99	0x411d692a	9.838175

fc3.weight f4 [50, 100]
0	0xbe1fd39c	-0.15608066
1	0xbde73fa9	-0.11291439
2	0xbdd4ac40	-0.103844166
3	0xbdc2e380	-0.095160484
4	0x3da90003	0.08251955
5	0x3c290bd9	0.010317766
6	0xbdfbf6f4	-0.12302962
7	0xbd9d7415	-0.076881565
8	0xbd1cca37	-0.038278785
9	0x3dc3d31b	0.095617495
10	0xbda3641c	-0.07978079
11	0xbdeed340	-0.116613865
12	0xbdf66454	-0.12030855
13	0xbdbe8089	-0.0930186
14	0xbcd6aeb6	-0.026206356
15	0x3db740a1	0.08947874
16	0x3ca4d9d7	0.020123405
17	0xbc8a6bd8	-0.016897127
18	0x3c086820	0.008325607
19	0xbd7b25c4	-0.061315313
20	0xbd7d90ad	-0.06190555
21	0xbd0a74e8	-0.033802897
22	0x3d8ccc4f	0.06874906
23	0x3db54425	0.08850888
24	0x3dcaa5a7	0.09894877
25	0x3d9fdbac	0.07805571
26	0x3ce9291c	0.028461985
27	0xbc931168	-0.017952636
28	0x3cb1d4d4	0.02170793
29	0x3d19d6ca	0.037558354
30	0xbdd6997a	-0.10478492
31	0xbd74ca4d	-0.05976324
32	0xbdb84d9d	-0.089991786
33	0xbea07ad3	-0.31343707
34	0xbcba14eb	-0.022715053
35	0x3d201f2f	0.03909224
36	0xbbe62e00	-0.0070245266
37	0xbf08246b	-0.5318057
38	0xbdf96f1b	-0.12179395
39	0xbe17da14	-0.14829284
40	0xbc82d528	-0.015970781
41	0xbdbdcd33	-0.09267654
42	0x3e115650	0.14193082
43	0xbd656475	-0.056004006
44	0xbd9cef82	-0.0766287
45	0xbddd7902	-0.10814096
46	0xbd6fbd5c	-0.058530197
47	0xba316095	-0.0006766406
48	0xbd339541	-0.04384351
49	0xbc01b118	-0.007915758
50	0xbda5268c	-0.08063993
51	0xbda5a2b3	-0.08087673
52	0x3cb55a6a	0.02213784
53	0xbedd7ccf	-0.43259284
54	0xbdba80f6	-0.091066286
55	0x3b961560	0.004580185
56	0xbddbac36	-0.10726206
57	0xbda82750	-0.08210623
58	0xbf51ec6d	-0.8200138
59	0xbd92701f	-0.07150292
60	0xbd312099	-0.04324398
61	0xbeacd469	-0.33755806
62	0xbe1ac8de	-0.15115687
63	0xbd9db15e	-0.07699846
64	0xbd81b2c6	-0.063329265
65	0xbe070e8b	-0.13189141
66	0xbe13404e	-0.14379999
67	0xbd3d1cff	-0.04617023
68	0x3d14808c	0.036255404
69	0xbcdebaa0	-0.0271886
70	0x3d9603db	0.07324954
71	0xbcc8fc68	-0.02453442
72	0x3d2bfbec	0.0419883
73	0x3d8daab4	0.06917325
74	0xbd0ae100	-0.033905983
75	0x3c2f4190	0.010696784
76	0x3b5da205	0.0033818495
77	0x3d287e01	0.04113579
78	0x3cb4ca60	0.022069156
79	0x3d8363d8	0.06415528
80	0xbd580c82	-0.052746303
81	0x3e1b3349	0.15156282
82	0xbd2d23d2	-0.04227049
83	0xbdf77128	-0.1208213
84	0xb95e6a00	-0.00021211058
85	0x3d4d2142	0.050080545
86	0xbe460929	-0.19339432
87	0x3d3c1701	0.045920376
88	0x3dd6f302	0.10495569
89	0x3d8457b9	0.06462044
90	0xbe391e2f	-0.1807792
91	0xbd81fdcc	-0.06347236
92	0xbbdcc1ca	-0.0067369686
93	0x3da42bea	0.080161884
94	0xbdb9b70f	-0.09068119
95	0x3c38ef76	0.011287561
96	0xbeba91c3	-0.36439332
97	0x3d9ae557	0.07563274
98	0x3d7d88bc	0.06189798
99	0xbecf4a15	-0.40486208
100	0xbe63c3c1	-0.22242643
101	0x3dd452c0	0.10367346
102	0xbe136af7	-0.14396273
103	0xbc283255	-0.010265906
104	0xbd779443	-0.060444128
105	0x3ce44e14	0.027869262
106	0xbe479adc	-0.19492668
107	0x3cc8d6a8	0.024516419
108	0x3d456f82	0.048202045
109	0x3d0a8a86	0.033823512
110	0xbe24332c	-0.16035146
111	0xbd85e640	-0.06538057
112	0xbc7e10a7	-0.0155069
113	0xbee420c9	-0.44556263
114	0xbe106b4b	-0.14103429
115	0xbc114829	-0.008867302
116	0xbde2ab71	-0.11067856
117	0xbe9228c5	-0.2854673
118	0xbd2d904f	-0.04237395
119	0xbdc846df	-0.097791426
120	0xbd511073	-0.051041078
121	0x3c38765e	0.01125869
122	0xbd3404a0	-0.043949723
123	0x3d841a53	0.064503334
124	0x3d1b0c3c	0.037853464
125	0xbd96205a	-0.07330389
126	0xbd056b9b	-0.032573324
127	0xbdbdbb96	-0.09264295
128	0x3cf3f9e5	0.029782245
129	0x3d8ccb73	0.06874742
130	0x3d2ba785	0.041907806
131	0x3cd2a0ec	0.0257115
132	0xbdbf00b3	-0.09326305
133	0xbd222aaa	-0.03959147
134	0xbe93d37d	-0.2887229
135	0xbe414603	-0.18874364
136	0xbdfe3320	-0.12412095
137	0xbe0150d5	-0.12628491
138	0xbe78dca1	-0.24302913
139	0xbc85935c	-0.016305618
140	0xbe25d421	-0.16194202
141	0x3db0af47	0.086271815
142	0x3d03049b	0.031986814
143	0xbd5d6dc8	-0.054059774
144	0xbcb27932	-0.021786306
145	0xbd340c4e	-0.043957047
146	0xbdd6898c	-0.10475454
147	0xbd8d522f	-0.06900441
148	0xbbf905fe	-0.0075995913
149	0xbe3a33ad	-0.18183775
150	0x3d178472	0.036991544
151	0x3dce3b71	0.10069931
152	0x3db3a232	0.08771171
153	0xbe8b4e72	-0.27208287
154	0x3eafa73f	0.34307286
155	0xbd0ac943	-0.033883344
156	0xbe13d751	-0.14437605
157	0xbe10d9d6	-0.14145598
158	0xbeb552b9	-0.35414675
159	0xbd971523	-0.073770784
160	0x3da8a9ce	0.08235513
161	0xbeb7e499	-0.35916594
162	0xbebf484d	-0.3735985
163	0x3d4176ed	0.047232557
164	0xbdb7ac21	-0.08968378
165	0xbcbaea12	-0.022816692
166	0xbe0463a7	-0.1292864
167	0xbdda8177	-0.10669225
168	0xbcc778bc	-0.024349563
169	0x3cc6a8f8	0.024250492
170	0xbc534b90	-0.0128964335
171	0x3e287b5f	0.16453312
172	0x3da981aa	0.082766846
173	0x3dac3685	0.08408836
174	0xbddfdd0f	-0.109308355
175	0xbe164cfd	-0.14677806
176	0xbd45da6d	-0.04830401
177	0xbda5d932	-0.08098067
178	0x3d962f37	0.07333224
179	0xbcae12a1	-0.021249117
180	0xbd80c05a	-0.06286688
181	0x3bbe3a18	0.005805265
182	0x3d5a16ef	0.053244527
183	0xbd31ab94	-0.04337652
184	0x3ced6660	0.02897948
185	0xbf17b8b1	-0.5926619
186	0xbd55e63d	-0.052221525
187	0xbd4e1cc5	-0.050320406
188	0x3c41cce7	0.011828638
189	0x3d9f9cf8	0.07793611
190	0xbe4dff2e	-0.20116875
191	0xbeba1521	-0.36344245
192	0xbe46779f	-0.1938157
193	0x3cbf6aaf	0.0233663
194	0xbd9f57fc	-0.077804536
195	0xbd90101d	-0.07034323
196	0xbeb9e1f1	-0.36305192
197	0x3cf55392	0.029947076
198	0xbe1f480c	-0.15554827
199	0xbea675e4	-0.32511818
200	0xbe47fea0	-0.19530725
201	0x3cdf2aff	0.027242182
202	0xbe3a4f2c	-0.18194264
203	0xbe0a3efa	-0.13500586
204	0xbd29c6a5	-0.041449208
205	0xbdd9f6a4	-0.10642746
206	0xbd32bf55	-0.0436395
207	0xbc655b83	-0.013998869
208	0xbd6723cd	-0.056430627
209	0xbd92e3df	-0.07172369
210	0xbd961cb0	-0.073296905
211	0xbcb64e34	-0.022254087
212	0xbd2760e4	-0.040863886
213	0xbde206e7	-0.11036473
214	0xbd3d9a70	-0.04628986
215	0x3d4fac12	0.05070121
216	0x3e5ef3fe	0.21772763
217	0xbcc6a678	-0.0242493
218	0xbd83883b	-0.06422468
219	0xbe5cefbf	-0.21575831
220	0xbda52d4c	-0.0806528
221	0x3d112a0d	0.035440493
222	0x3dbd9cbf	0.092584126
223	0xbd47e95a	-0.048806526
224	0xbd7e5b17	-0.06209859
225	0x3de228c2	0.1104293
226	0xbcf9e7a5	-0.030505965
227	0xbcea01a8	-0.028565243
228	0xbd947512	-0.07248892
229	0x3dca7417	0.09885424
230	0x3bd9fbf8	0.0066523515
231	0xbd92fdc0	-0.07177305
232	0x3da1fcee	0.07909571
233	0xbe142569	-0.14467396
234	0x3ae9bf99	0.001783359
235	0xbe27c7bf	-0.16384791
236	0x3d4ff4b4	0.050770476
237	0xbefa5ae9	-0.48897484
238	0xbc3b165d	-0.011418906
239	0x3d01d15c	0.0316938
240	0xbe2b5a14	-0.16733581
241	0x3c6bc732	0.014390754
242	0xbcdf00f2	-0.02722213
243	0xbdf7cf9b	-0.121001445
244	0xbe9ec374	-0.31008494
245	0x3ce239e1	0.02761549
246	0xbe282a15	-0.16422303
247	0xbc0a1bf3	-0.008429515
248	0x3d471243	0.0486014
249	0x3cbec5a8	0.02328761
250	0x3cc976a3	0.024592703
251	0xbd6c3dfc	-0.0576763
252	0xbd064d1c	-0.03278838
253	0xbeedd8dd	-0.46454516
254	0xbd510e66	-0.051039122
255	0xbd91cf5a	-0.07119627

fc3.bias f4 [50]
0	0xbf6953b6	-0.9114336
1	0xbdec2d42	-0.1153207
2	0xbec00566	-0.3750412
3	0xbf0817a2	-0.5316106
4	0xbe26d2a4	-0.1629129
5	0xbf03b8e3	-0.5145399
6	0xbf6fe6e6	-0.937117
7	0xbe6cbd70	-0.2311914
8	0xbf23f58e	-0.6404656
9	0xbf336b5c	-0.7008569
10	0xbf485079	-0.7824779
11	0xbf148685	-0.5801776
12	0xbf0e51c7	-0.5559353
13	0xbfb1d620	-1.3893471
14	0xbf0ead27	-0.5573296
15	0xbf5101cb	-0.8164336
16	0xbeee7bd3	-0.46578845
17	0xbead8701	-0.33892062
18	0xbf2bd350	-0.6711931
19	0xbf88683f	-1.0656813
20	0xbe397466	-0.18110809
21	0xbf127a78	-0.5721812
22	0xbf36ca65	-0.7140258
23	0xbf1b0d55	-0.6056722
24	0xbed0f0df	-0.4080877
25	0xbf7b237d	-0.98101026
26	0xbebecd8e	-0.372662
27	0xbf2b07b7	-0.66808647
28	0x4097200b	4.7226615
29	0xbf7979f2	-0.974517
30	0xbf13486a	-0.5753237
31	0xbf1de146	-0.61671865
32	0x40515d13	3.2713058
33	0xbf6eed3c	-0.9333074
34	0xbf59d6e1	-0.85093504
35	0xbf2edea3	-0.68308467
36	0xbf71fc71	-0.9452582
37	0xbf113d4e	-0.5673417
38	0xbf788a93	-0.9708645
39	0xbe815e94	-0.2526747
40	0xbea5d3c4	-0.32388127
41	0xbf64de6d	-0.89401895
42	0xbebfc540	-0.37455177
43	0xbf099efa	-0.53758204
44	0xbe96bd49	-0.29441288
45	0x409b9917	4.8624377
46	0xbee3839a	-0.44436342
47	0xbf500cc9	-0.8126951
48	0xbed47c79	-0.41501215
49	0xbf4c7c92	-0.7987758

fc4.weight f4 [1, 50]
0	0x3bcd6120	0.0062676817
1	0x3e80b21a	0.2513588
2	0x3e09f532	0.13472441
3	0xbddf8513	-0.10914054
4	0x3dea0886	0.11427407
5	0xbd5f60a8	-0.054535538
6	0x3dab15a8	0.0835374
7	0xbda1b10a	-0.07895096
8	0x3d554945	0.05207183
9	0x3ceb4b57	0.028722448
10	0x3de67f3d	0.112547375
11	0xbca817bd	-0.020519132
12	0xbd805567	-0.06266289
13	0x3d84b3ee	0.06479631
14	0x3d82e77c	0.063918084
15	0xbdb9d418	-0.09073657
16	0xbd996922	-0.074907556
17	0x3da7b76c	0.08189282
18	0x3db6fcd1	0.0893494
19	0xbde829b6	-0.11336081
20	0xbd8afd43	-0.06786587
21	0xbdbd4225	-0.09241132
22	0xbd8a6376	-0.06757252
23	0x3d450fa4	0.04811062
24	0xbd977406	-0.073951766
25	0xbd221e40	-0.03957963
26	0x3d488eb1	0.048964206
27	0x3dad6bbe	0.08467816
28	0xbc911406	-0.017709743
29	0x3e20eda4	0.15715653
30	0xbd352cd0	-0.04423219
31	0x3dd4a033	0.10382118
32	0x3c149877	0.009069554
33	0x3df5ed04	0.12008098
34	0xbd050f1f	-0.032485124
35	0x3d44b38b	0.048022788
36	0xbc72eef2	-0.014827477
37	0xbddd423e	-0.1080365
38	0x3d130cca	0.03590087
39	0x3defa027	0.117004685
40	0xbe29250d	-0.1651804
41	0x3c88188d	0.01661327
42	0xbca1f9a8	-0.019772366
43	0xbdfff927	-0.12498694
44	0x3dd923f4	0.10602561
45	0x3c431854	0.011907656
46	0xbd48d2dd	-0.04902922
47	0xbd3df68c	-0.046377704
48	0xbda6ef63	-0.08151128
49	0x3d9b0592	0.07569422
