Results/BS_256_EP_6000_TMAX_200_NOISE_0.1_LR_5_TAU_3e3/last_checkpoint_actor.pth (torch_old, 72217 bytes, 8 tensors)

fc1.weight f4 [100, 24]
000000 c6 12 6d 3f 1c ac cc bd 8d 73 8f be cb 6e ff be
       0.9260677 -0.09993765 -0.28017846 -0.49889216
000010 64 9b cd 3d f0 7a 68 bf cd 02 ee bd 5c 4f 3f be
       0.10039404 -0.9081259 -0.11621628 -0.18682617
000020 47 d2 8b 3f 78 90 8b be 51 a4 ed 3c df 65 06 bf
       1.0923547 -0.27258658 0.029009016 -0.5249919
000030 a9 3a 9c bc a5 2b 88 bf 27 ca d6 3b 55 62 f4 be
       -0.01907094 -1.0638319 0.00655486 -0.4773127
000040 61 63 6a 3f 8c 8b aa be 0e 8e 4a be 09 bf 26 be
       0.9155789 -0.3330959 -0.19780752 -0.16283812
000050 f1 02 b5 3e e1 ca 10 bf 06 bc cf bd 18 5f a1 3d
       0.35353807 -0.5655957 -0.101432845 0.07879466
000060 ec 15 e5 3e e9 52 08 bf fe e4 6b 3e f3 35 2d be
       0.44743288 -0.5325151 0.23036572 -0.16915111
000070 0e d1 b8 be 10 43 86 bf 55 61 0b bd 58 4d 49 3e
       -0.36096996 -1.0489216 -0.03402837 0.1965841
000080 1d b5 e3 3e d3 1e 15 bf ae 1a ce bd 60 21 8d be
       0.44474116 -0.5825016 -0.100636825 -0.27564526
000090 2e 8f f3 be 68 98 1d be 74 41 08 3e 66 dc 6c 3c
       -0.47570175 -0.1539017 0.13306218 0.014456844
0000a0 89 2d 53 3f 63 5c f7 be 1c b3 92 3d ea d2 42 be
       0.82491356 -0.48312673 0.07163069 -0.1902577
0000b0 5e bb 0d bf 1d 06 15 3f 88 dd 29 3e b5 cc f5 3d
       -0.55364025 0.58212453 0.16588414 0.120019354
0000c0 2c 8f 7b 3f 8d 9f ef be 27 6e be 3d dd 2e 84 3e
       0.9826534 -0.46801415 0.09298354 0.25817004
0000d0 48 df 0c 3e be 19 60 bf 73 5b cb 3d 5d 06 85 bd
       0.1375705 -0.8753928 0.09929552 -0.06495354
0000e0 8c 11 81 3f 5d 2c 1f bf 12 3d 07 be d6 a6 bb bd
       1.008348 -0.6217707 -0.1320689 -0.09162681
0000f0 07 d9 58 3e f0 c6 6d bf 23 5e e4 bd 6f 95 9a 3d
       0.2117654 -0.9288168 -0.11150768 0.075480334
000100 e3 03 54 3f 32 3c 9c be 56 10 d5 bd 25 96 08 3e
       0.8281843 -0.30514675 -0.104035065 0.13338526
000110 c9 cc 37 3e 0d 65 50 bf 55 cb 89 be 08 ea 38 3c
       0.17949213 -0.8140419 -0.26912943 0.011286266
000120 22 2b 1b 3f be 6d 16 3e 18 31 48 bd 67 75 78 be
       0.6061269 0.14690301 -0.048874944 -0.24263535
000130 97 6b 07 3f d8 37 1a bf a9 b6 54 be 18 ea 0c bf
       0.52898544 -0.6024146 -0.20772804 -0.550447
000140 a4 be 95 3e aa 47 ce 3d ff 9d 8b 3d ae 9e 9d be
       0.2924701 0.100722626 0.06817245 -0.30785125
000150 d4 86 62 3f e0 da 0d be c6 0a f7 bd 48 6b 4a be
       0.8848698 -0.13853025 -0.12062602 -0.19767487
000160 08 25 6b 3f 51 df cf 3d a2 c7 21 3e 63 fb 1b 3e
       0.9185338 0.10150016 0.1579881 0.15232615
000170 cd 9f 92 3f 48 2f 96 3e c4 70 f3 bd 45 9e aa bd
       1.1455017 0.29332948 -0.11886743 -0.08330969
000180 7a bb 24 3f ac 9f fd be ba ea 24 bd 13 9d 99 bb
       0.64348567 -0.49535882 -0.040262915 -0.004687914
000190 6f 10 72 3f 37 fb 02 bf 45 7e f5 3c 0f ca 7b 3d
       0.94556326 -0.51164573 0.029967437 0.061471995
0001a0 ff e4 ff 3d 51 4b 5c bf a8 7e 1d bd 95 b9 bb 3d
       0.124948494 -0.86052424 -0.038450867 0.09166256
0001b0 0d 75 bd bd c9 c4 47 3e d0 b8 01 3d a8 8f bd 3e
       -0.09250841 0.19508661 0.03167039 0.37023664
0001c0 00 21 5c 3c 32 16 32 bf ef 8d 7d bd c7 81 0c bf
       0.013435602 -0.6956512 -0.061902937 -0.54885525
0001d0 67 2f 11 bf ac cc 55 3f 2c 22 30 be 8c 19 a8 be
       -0.56712955 0.8351543 -0.17200536 -0.3283199
0001e0 9e f1 f7 3e 36 a0 e5 3d 09 b2 19 bd cd 40 e9 3d
       0.48426527 0.112121984 -0.037523303 0.11389313
0001f0 e5 cc 81 bf ce a6 a4 bf 08 da 33 3c 1e 33 a8 bd
       -1.0140654 -1.2863405 0.010977276 -0.08212875
000200 a4 05 73 3e 79 57 c7 bd a7 6d ce bd 16 15 f3 3d
       0.2373262 -0.09733481 -0.10079508 0.11869256
000210 10 80 d2 be 2d e4 d3 bd e2 be b5 3d dd 83 5d 3d
       -0.4111333 -0.103462555 0.08874299 0.054080833
000220 d5 6c 69 3e e8 4d ef 3a 0f 27 51 be f4 57 74 3e
       0.22795422 0.0018257471 -0.20425056 0.23861676
000230 f0 70 56 3f 4a 49 83 3f 49 03 54 bd 95 9f c0 3d
       0.8376608 1.0256741 -0.051760945 0.09405438
000240 6d e8 ad bc 4c 12 7a 3d 1a 0c 76 3e 80 6a fe 3d
       -0.021228993 0.061052606 0.24028054 0.12422657
000250 a5 87 19 bc 77 50 2f bf 57 c7 b7 bd 98 71 3f bd
       -0.009370719 -0.68482155 -0.08973568 -0.04673919
000260 2c 09 b4 3d d6 37 62 3e 39 0d df bd ce e2 1f be
       0.08790812 0.22091612 -0.10891194 -0.15613863
000270 38 23 b6 3e 55 27 d0 bf 14 5d 86 be a9 30 2c bd
       0.35573745 -1.6262003 -0.26242888 -0.042038593
000280 7c e8 5f 3e a8 bd b4 3d d7 4a 8d 3e 89 5a 40 3d
       0.2186603 0.088252366 0.2759616 0.04696134
000290 83 b4 bd 3e 5b 22 21 c0 de 99 bb 3e 71 a6 99 3e
       0.37051782 -2.517722 0.3664083 0.30009797
0002a0 9f a0 7c be 1b be a3 be 63 92 35 3e 89 e4 7c bd
       -0.24670647 -0.31980976 0.17731623 -0.061741386
0002b0 2e fa d0 3f 3e 5e 82 bf 99 e1 3e be a3 47 1a 3e
       1.6326349 -1.018501 -0.18640746 0.1506639
0002c0 39 b9 7e bc 19 fe d5 bd f3 9b e2 3d 8a d9 45 bd
       -0.01554709 -0.10448856 0.11064901 -0.048303165
0002d0 af 7f d1 3e 45 7c dd be e9 d8 be 3d 8f c9 31 3e
       0.40917727 -0.43258873 0.09318716 0.17362045
0002e0 b9 fc 9a be d0 6f 13 bf 68 f8 3b bd 6d 7d 01 bf
       -0.30270937 -0.5759249 -0.045891196 -0.5058201
0002f0 0b 17 6d bf de 18 9a 3f 29 3c 29 3e 24 80 a5 be
       -0.92613286 1.2038839 0.16526856 -0.32324326
000300 d4 98 3e bd 19 53 bc 3f fe 7a 0d 3d 5a 52 e9 be
       -0.046532467 1.4712859 0.034541123 -0.45570642
000310 fe 6e 7e be cd 80 34 3f 23 a2 68 3d d8 11 b2 be
       -0.24847028 0.70509034 0.05679525 -0.3477924
000320 ab 1d 91 3e 5d 12 d0 3f 7c 57 ed 3c 73 71 99 be
       0.28342947 1.6255604 0.02897238 -0.29969367
000330 2f eb 62 be d3 3c ae 3e 26 13 e1 3d df b3 4e 3c
       -0.22160028 0.3403078 0.109899804 0.012616127
000340 15 20 e0 3e 66 76 d1 3f a9 d2 6c 3e 9e b9 9a bb
       0.43774477 1.6364257 0.23127235 -0.0047218343
000350 f3 51 36 bc 9c 88 13 bf 01 e9 6c 3e e8 9e 7c 3d
       -0.011127937 -0.57630324 0.23135759 0.061674982
000360 b0 7c 8f 3e a9 d6 92 bf ca 77 a0 bd 0e 01 10 be
       0.28024817 -1.1471759 -0.07835348 -0.14062902
000370 35 00 fc 3c 99 56 13 be db 82 2d be b9 52 fc 3c
       0.030761817 -0.14388503 -0.16944449 0.030801164
000380 07 b7 f4 3e 10 c8 5f bf 44 82 a6 3d 85 f9 3d be
       0.4779589 -0.87414646 0.08130315 -0.18552215
000390 bc 4a 1c 3e 66 17 59 bf a7 6c 6a 3e 9c 0d 27 3d
       0.15262884 -0.8480133 0.2289301 0.040784463
0003a0 d2 ab 30 3f b0 56 51 bf da d6 37 3e 89 7b ec bd
       0.69012177 -0.817729 0.17953053 -0.11547
0003b0 37 f2 fb 3e c4 bf c8 bf 3e 71 02 bd f4 c4 96 3d
       0.49208233 -1.5683522 -0.031846277 0.073617846
0003c0 17 8a 7a 3d 94 ae 79 3f c3 41 49 be d7 cb 63 3e
       0.06116685 0.9753201 -0.19653992 0.22245727
0003d0 0b 18 b5 3e 9a 31 d4 bf 7e 3b 89 3c 0b 85 5a 3d
       0.35369906 -1.6577637 0.016752 0.053349536
0003e0 0a 95 13 bd a1 aa 59 3f b9 55 47 3d d4 dc d8 3d
       -0.036030807 0.85025984 0.048665736 0.105889946
0003f0 a4 45 f9 3e ac 51 02 c0 3a 4e 0f 3d 8e 17 60 3b
       0.48685944 -2.0362349 0.034986712 0.0034193727

fc1.bias f4 [100]
000000 6f 16 4a be 60 38 87 bf f5 2c 02 bf c0 ab 1f bf
       -0.1973512 -1.0564079 -0.5084985 -0.62371445
000010 ba e7 a0 be dd d5 b1 bd e6 5b e0 3b a3 1d 27 3f
       -0.31426793 -0.08683369 0.0068468926 0.652796
000020 cc af 85 be ec c5 bc be df 12 82 be 2f 67 81 be
       -0.26110685 -0.36869752 -0.25405023 -0.25274035
000030 b4 50 b0 3e 42 2e 1c bf 86 9f 33 bf c7 8e 42 bf
       0.34436572 -0.61008084 -0.7016529 -0.7599911
000040 36 72 15 be 9a 1a 6c bf e0 f6 2c bf 2c 1e e4 bd
       -0.1459435 -0.9222809 -0.675642 -0.11138567
000050 db b8 ea 3e 79 91 73 bf d6 14 c4 be cc 71 7e be
       0.4584416 -0.9514385 -0.38297147 -0.24848098
000060 d0 d9 0f be ed 43 09 bf 8b 42 1a bf 32 b8 62 be
       -0.14047933 -0.5361927 -0.60257787 -0.22140577
000070 fa c3 40 bf 74 50 12 bf b6 9e 3d bd a8 9e a3 3e
       -0.75299037 -0.5715401 -0.046293937 0.31956983
000080 c3 12 59 bf 5f c9 c1 3e 5a 2e 70 bd 9e 90 52 be
       -0.84794253 0.37848946 -0.058637954 -0.2056298
000090 01 51 8d 3e 43 08 90 3d fe 15 c3 be f9 7f 02 3e
       0.27600864 0.07032826 -0.38102716 0.1274413
0000a0 0b f6 f7 3e 00 a9 2b bf 32 8d 51 bd a1 fd 57 bc
       0.48429903 -0.6705475 -0.051160045 -0.013183028
0000b0 d0 c0 ad be e4 fa 16 3e ad c6 5b 3e 52 89 12 3e
       -0.33936167 0.14744145 0.21462508 0.14310196
0000c0 e9 18 1b 3f 21 20 be 3d c6 f2 26 3f bb 40 97 bd
       0.60584885 0.09283472 0.6521419 -0.07385393
0000d0 12 04 08 be b2 a4 a1 3e 84 e9 d9 bb a2 4e 5f bf
       -0.13282803 0.31570965 -0.0066501517 -0.8722936
0000e0 5e 41 de be c2 52 a1 be f6 c8 ee be 68 81 94 3e
       -0.43409246 -0.31508452 -0.46637696 0.2900498
0000f0 75 4f 1f bf 3d 8f c9 be 68 50 55 be 9e 36 47 bf
       -0.62230617 -0.39367095 -0.20831454 -0.77817714
000100 39 e7 cd be 6e fa f1 be 4d f0 f3 be 28 c5 96 be
       -0.4021547 -0.47261375 -0.47644272 -0.29447293
000110 9a 38 2f bf 55 46 69 3f 9e 0c 67 bd 5b 57 86 bf
       -0.6844574 0.91122943 -0.056408517 -1.0495409
000120 78 cd 62 bf 8c 02 ad be 06 7c ef be 0d 5c 8b bf
       -0.8859477 -0.33791006 -0.4677431 -1.0887467
000130 78 bf 7b 3f e1 8e c9 be 4b dd 02 bf 06 5d cc be
       0.98339033 -0.3936682 -0.51118916 -0.3991472
000140 b1 6f 0e be dd 21 22 be 7f 00 82 be 0c 71 4a be
       -0.13909794 -0.1583323 -0.25391003 -0.19769686
000150 42 13 ce be ff fc ba be 7f 73 74 3e ae 86 e6 be
       -0.40249068 -0.36521146 0.23872183 -0.45024627
000160 0c 02 e1 be e2 06 24 3f 50 3f 80 bf 13 03 dd be
       -0.43946874 0.64073 -1.0019321 -0.43166408
000170 9a 35 46 3f ea ca 0c 3e ae 17 15 bf ac 5e 1b bf
       0.7742554 0.1374928 -0.5823926 -0.6069133
000180 15 d3 1a 3f 5e 07 a7 bd 9b 36 27 3e 91 b2 39 be
       0.60478336 -0.08155702 0.16329424 -0.18134524

fc2.weight f4 [100, 100]
000000 5b a2 27 be 4d 73 ab be d2 7d 6e 3e f7 c3 d8 bd
       -0.16370527 -0.33486405 0.23290184 -0.10584252
000010 0e 7a e2 bd c4 0e b8 3e fc c7 11 be 78 d3 92 3e
       -0.11058436 0.35948765 -0.14236444 0.28676963
000020 b0 f1 28 3e b2 2a 90 be 12 a1 26 bf c8 68 12 3f
       0.16498446 -0.28157574 -0.65089524 0.57191133
000030 c9 ac 6e 3c 5d 2b 18 3e 7e 20 5e bd a4 ab 33 3f
       0.014567562 0.14860292 -0.054230206 0.7018378
000040 86 08 8f 3e 97 4e 1d 3e 8a fd 2e 3f df d9 27 3e
       0.2793619 0.15362011 0.6835562 0.16391705
000050 f3 74 2d bf 52 c0 75 3c 2f fa f0 3d 39 e4 33 3e
       -0.67756575 0.014999466 0.11766469 0.17567529
000060 f6 44 11 3f bd 75 0c 3e 0a ce b6 3d c1 d0 3d 3e
       0.5674585 0.13716789 0.089260176 0.18536665
000070 11 37 43 bf ed e3 d8 bc 67 49 68 bf 32 43 86 3e
       -0.762559 -0.026475871 -0.90737003 0.2622314
000080 6a 99 0c bf 56 c8 9d be cf 01 01 3f 3e 52 a6 3e
       -0.5492159 -0.30816907 0.50393385 0.3248462
000090 3f 6c dd 3e b5 b3 aa 3d 45 e1 e0 3e b5 fb 58 be
       0.43246648 0.08335058 0.43921867 -0.21189769
0000a0 9a 3f 8b bf 74 a0 13 bd cf 9c df 3d 27 a9 27 3f
       -1.0878785 -0.036041692 0.10918581 0.6549248
0000b0 f7 08 f6 bc ba 5c ce bd 2a 2c 94 be 7b 70 17 bf
       -0.030033572 -0.1007628 -0.28939945 -0.59156007
0000c0 c8 67 8c bf 2b bc af 3e 04 59 88 be a6 c0 aa 3e
       -1.0969172 0.34323248 -0.26630414 0.33350104
0000d0 5c d7 81 bd 8b 06 43 be 33 4d 96 3e 61 c2 67 3e
       -0.06339905 -0.19045465 0.29355773 0.22632743
0000e0 96 81 22 3e 61 ab 1f 3e 10 21 f9 3c 97 51 a2 3e
       0.15869746 0.1559272 0.030411273 0.31702873
0000f0 27 57 8f be cc 77 68 3d 9b 7f 11 3f 32 cc 1e be
       -0.2799618 0.056754872 0.56835335 -0.15507582
000100 f9 39 33 bd 86 42 a7 be f9 43 a6 be cc 03 05 3f
       -0.04375646 -0.3266794 -0.32473734 0.5195892
000110 d0 57 20 be 9c 5c 66 be 84 2e 12 3f f4 06 f2 bd
       -0.15658498 -0.22496265 0.5710223 -0.118177325
000120 7c 19 42 3e e7 45 a0 3e 78 29 1a 3e fb 43 57 3d
       0.18955034 0.3130333 0.15054882 0.052555066
000130 db e4 5c bf a9 ef 55 3e ff 95 13 3d e4 e9 e2 bd
       -0.86286706 0.20892204 0.03603172 -0.11079767
000140 59 9f a7 be d5 c0 99 3e 96 ef de 3d 58 10 2b 3f
       -0.3273876 0.30029932 0.10885541 0.66821814
000150 af f6 6f bc ad c2 e0 3e 9e d9 91 3e 80 a7 ad 3e
       -0.014646216 0.43898526 0.2848634 0.33916855
000160 f3 28 9e be 5f 2e 99 be 29 bd 1d bf 94 e1 1b bf
       -0.30890617 -0.2991819 -0.6161676 -0.6089108
000170 c0 87 95 be e1 18 f6 3e 52 25 04 3f f7 d8 69 3e
       -0.29205132 0.48065856 0.51619446 0.22836672
000180 1c 4e ad be 9e 88 9b 3d 1f ef 9a be b0 a4 11 be
       -0.33848655 0.07594417 -0.3026056 -0.1422298
000190 31 33 70 3d 54 32 a7 3e bd cd 2d bf db 41 81 be
       0.05864257 0.32655585 -0.67892057 -0.25245556
0001a0 c4 36 e1 bd 5f fb 85 3e 20 6d 26 bf cc e2 65 be
       -0.10996774 0.26168343 -0.6501026 -0.22449797
0001b0 de 46 74 3c 39 a4 08 bf 96 d4 01 bf 1d 6a d6 bc
       0.014909474 -0.53375584 -0.50715005 -0.026173646
0001c0 bd 2d 0c bf 94 e5 6b 3e ae 34 ec 3e 4d 05 81 3e
       -0.5475729 0.23036796 0.4613394 0.25199357
0001d0 dc 18 32 be 08 9e 95 be 44 c4 c4 3e 39 39 0d be
       -0.17392296 -0.2922213 0.3843099 -0.1379136
0001e0 45 0a b4 3d c3 33 19 3f 2c 5e 0c bd 64 d0 94 3d
       0.08791021 0.5984461 -0.034269497 0.0726631
0001f0 be 41 67 be 73 20 6d 3c 51 96 16 bc 3f 47 51 be
       -0.22583672 0.0144730685 -0.009191112 -0.20437334
000200 e1 9b 4d 3e c3 89 4d 3f 1d 1b e6 b9 06 eb 03 bf
       0.20078994 0.8028833 -0.0004388922 -0.5153049
000210 8c 91 2a bf 8e 2e 93 3e 32 2c 52 bf 88 b7 42 bb
       -0.66628337 0.28746456 -0.82098687 -0.0029711444
000220 16 3d 58 3d 32 6c b5 ba c6 f8 26 bf d6 1d 42 bf
       0.05279263 -0.0013841449 -0.6522335 -0.75826776
000230 ab 42 ba be 46 5a eb be c7 dc 3e 3e e6 c4 1c 3e
       -0.3637899 -0.4596731 0.18638907 0.15309486
000240 11 43 aa 3e 50 6b 3e 3e 31 dc ea be 5a f5 97 be
       0.33254293 0.18595624 -0.45871118 -0.29679376
000250 9c 0e 85 bd d2 cc 83 3d 8f 9e 93 bf 78 bb b5 be
       -0.06496927 0.06435551 -1.1532763 -0.3549459
000260 bd 3c 74 3d 87 1d a6 be 07 db 27 3e 32 7d b8 3e
       0.059628237 -0.32444403 0.16392146 0.36033016
000270 f2 c0 7c be 7e 86 ef be 8d ea 88 3e 68 db a3 3d
       -0.24682978 -0.46782297 0.26741448 0.08000833
000280 77 15 03 3e cd a6 f9 bd 1a c8 43 3f b9 2c df bd
       0.12801157 -0.12190018 0.76477206 -0.10897202
000290 c6 66 16 3e 42 2a b9 3d 03 ec 1e 3f f1 4c 54 3c
       0.14687642 0.09041263 0.62078875 0.012957797
0002a0 ba 7e 94 3e ce 83 9e bf 36 f0 3c 3f a9 da 21 3e
       0.29002935 -1.2383974 0.7380403 0.15806068
0002b0 1d 61 c6 3e d8 14 85 be 9f 2d dc 3e 1d 7f a0 3e
       0.38745967 -0.25992465 0.43003556 0.3134698
0002c0 30 35 e1 be 19 3c ce 3d ea 5f 3d 3e 9b fd 9e 3e
       -0.4398589 0.100700565 0.1849362 0.3105286
0002d0 9f b5 cb 3e 9b ef 11 3d 47 79 3d bf a9 08 29 3d
       0.39787003 0.035628896 -0.7401318 0.041268025
0002e0 18 91 9a be ed a7 0c 3e 26 8c a9 be 4f e1 3e 3e
       -0.30188823 0.13735934 -0.33114737 0.18640636
0002f0 05 4c 10 bf a3 f4 21 be 40 29 1c 3e 9c 09 a3 bd
       -0.56365997 -0.15815978 0.1525011 -0.07960817
000300 ee 2a 38 bf 4c fd db 3e 42 95 16 3e 04 92 4e 3f
       -0.71940506 0.42966688 0.14705375 0.8069155
000310 b1 ae 2c bf 02 68 90 3e 0e ee f0 be 57 da 94 be
       -0.6745406 0.28204352 -0.4705662 -0.2907283
000320 33 32 5e bd 30 94 f4 3e e9 d1 80 be 00 fd ed 3c
       -0.054247092 0.47769308 -0.2516015 0.029051304
000330 e9 d5 72 3e f4 35 7c 3e cb cd 0a 3d 92 35 24 bf
       0.23714413 0.24629956 0.033887666 -0.6414424
000340 2e db 13 bf 87 99 02 bb 72 3e 91 3e be a0 22 3f
       -0.57756317 -0.0019927935 0.28367954 0.63526523
000350 28 35 1e 3e 01 e4 7d 3e 5d f4 85 3e 17 b3 32 3f
       0.15449965 0.24794008 0.26162997 0.6980452
000360 ee 96 ee be 34 f9 75 bd ab e8 8b 3e be db 90 bd
       -0.46599525 -0.06005211 0.2732595 -0.070731625
000370 61 54 08 be a2 57 65 3e 2a 83 d0 3e b8 6c 67 3f
       -0.13313438 0.2239671 0.4072507 0.90400267
000380 ad 7b 14 bf 4a 2f c6 3e 56 93 02 bf ad fc 2e bd
       -0.58001214 0.38707954 -0.51006067 -0.04272144
000390 45 48 06 3e 3d 0d 92 3e ca 5e da be e5 5e 4d be
       0.13113506 0.28525725 -0.42650443 -0.2005573
0003a0 58 89 86 3e 59 7d 34 bf 44 24 14 be 3a 0b 47 3d
       0.2627666 -0.70503765 -0.14466959 0.04859469
0003b0 ae 88 09 be e8 19 4e be bc b0 e9 bd 9f 5d 36 be
       -0.13431045 -0.2012707 -0.114106625 -0.17809151
0003c0 cc 27 70 3d 04 20 9a 3e ae 58 00 3e d0 73 a1 3e
       0.058631703 0.3010255 0.12533829 0.3153367
0003d0 20 a6 cb 3e b6 07 50 3d 5d aa 1e 3d e4 1e a3 3c
       0.3977518 0.050788604 0.03873669 0.01991219
0003e0 a1 1b 65 bd b4 e5 50 be 33 24 9d bd 76 61 d3 be
       -0.055934552 -0.20400125 -0.0767292 -0.41285294
0003f0 73 1d 45 bf 3a 7f 9b be 87 17 1a 3f b3 ba 1f 3f
       -0.7699806 -0.30370504 0.6019215 0.62394255

fc2.bias f4 [100]
000000 29 4f 9e bd 47 f3 c4 be ce 70 42 bf bc 40 f1 3c
       -0.07729942 -0.38466856 -0.75953376 0.029449813
000010 af e8 0e be 24 c4 8c be 97 f1 d8 bc 62 81 a9 be
       -0.13955949 -0.27493393 -0.026482387 -0.33106524
000020 50 d6 db bd c2 08 ac 3e 3f 5a 81 3d 12 33 12 bd
       -0.10734236 0.33600432 0.06316041 -0.035693236
000030 72 a9 53 3e 07 0f fb be 36 ec 98 bd 24 ac 4d be
       0.20670107 -0.49034902 -0.07466929 -0.20085198
000040 ef 48 73 be a1 2f 68 be 51 c3 7f be 7c c8 67 be
       -0.2375829 -0.22674419 -0.24976851 -0.22635072
000050 14 d4 2a be da b4 b2 be 65 14 a3 be dc 2b c5 be
       -0.16682464 -0.34903604 -0.31851497 -0.38510025
000060 99 17 01 bf 72 90 33 bd e8 70 2d bf 1a 6e bd bc
       -0.5042663 -0.043838926 -0.67750406 -0.02312379
000070 d4 9b 63 3d 27 86 99 3e a5 74 4e 3c 80 8f 65 3e
       0.05556853 0.29985163 0.012601052 0.22418022
000080 f0 3a c0 be fb 9b d3 be 69 0d 3a 3f fa 37 69 be
       -0.37544966 -0.4132994 0.7267671 -0.2277526
000090 36 13 b6 bd 81 c9 ab 3e d1 c0 86 be 5c aa 04 3e
       -0.08890383 0.33552173 -0.26318982 0.12955612
0000a0 6e 22 6a be 61 90 42 bf bd 48 a9 be 7c 0a 11 bf
       -0.22864696 -0.76001555 -0.33063307 -0.5665662
0000b0 2f 08 16 bf 02 49 a0 be 72 77 5f be ab f2 04 be
       -0.5860624 -0.313057 -0.21822909 -0.12983195
0000c0 2c e8 4e be 7d 54 16 be 0a 26 d7 be f0 ef 95 be
       -0.20205754 -0.14680667 -0.4202121 -0.2928462
0000d0 f9 74 13 be 3a e6 dd be 9f 65 84 bd c3 0a 15 bf
       -0.1440009 -0.4333971 -0.06464695 -0.58219546
0000e0 dc 43 08 3f 97 b4 df 3e 74 ad cc 3f e2 75 69 be
       0.53228545 0.43692467 1.5990434 -0.22798875
0000f0 83 8b d9 be ad 38 ca be 74 e5 ca be aa eb 0a bf
       -0.42489251 -0.39496365 -0.39628184 -0.54265845
000100 15 18 ae 3d bf 7f fa be c1 25 8f be 94 37 29 be
       0.08500687 -0.48925588 -0.2795849 -0.16525108
000110 5e f3 9e 3d ee 64 2a be 2e 1d b2 3d b5 6f c8 be
       0.07761262 -0.16640064 0.08696972 -0.39147726
000120 ed 22 a9 3e 75 04 7e bd f3 ab ac bd a6 d7 a2 3e
       0.3303446 -0.06201597 -0.08431234 0.31805152
000130 39 99 a3 3e 46 ea bd bc 53 70 3c bd 6f 5b 0d bf
       0.31952837 -0.023183 -0.04600556 -0.5521764
000140 60 67 06 bf 4b bf 4d bf 3e 7e 85 be f2 ed 26 bf
       -0.5250149 -0.80370015 -0.26072878 -0.65206826
000150 a7 dd 5f 3e ca 12 d3 3d d9 36 4d bf 79 01 a6 be
       0.21861897 0.10306318 -0.80161816 -0.32423
000160 0c b9 10 3d 84 5f 11 bf f0 aa 56 bd b2 82 dc be
       0.035332724 -0.5678637 -0.052409112 -0.43068463
000170 dc 09 4f be 41 d2 91 3e ae e7 5f be 69 a9 dc bd
       -0.20218605 0.28480724 -0.21865723 -0.107745
000180 a0 5d 0e bf d7 79 c4 be 3a 59 8b be 48 01 8b be
       -0.5561161 -0.38374206 -0.27216512 -0.27149415

fc3.weight f4 [50, 100]
000000 14 a6 8e 3e 66 f7 82 3e 39 c7 96 3e be 69 03 be
       0.27861083 0.25579375 0.2944887 -0.12833306
000010 77 c5 a7 3d 9b 6a eb be e1 b7 36 3e 08 9d b6 be
       0.0819196 -0.4597977 0.17843582 -0.3566668
000020 82 70 43 3d 43 d5 be be 33 5f 3a 3e c4 b0 40 3e
       0.047714718 -0.3727208 0.18200378 0.1881743
000030 1f 3f b4 3e 00 f2 a0 be 97 05 d9 be cf 05 73 bf
       0.35204408 -0.3143463 -0.42387077 -0.9493074
000040 d7 7d 42 bf ce 03 d0 bf a2 60 ac be b6 50 e9 bd
       -0.75973266 -1.6251161 -0.33667475 -0.113923475
000050 15 77 94 bf 53 b0 2d 3e c8 9a ca be 9e c2 eb 3e
       -1.1598841 0.16961794 -0.39571214 0.4604692
000060 52 35 11 be 2c 18 8b bc ec 8f 03 bd 9f c0 a0 bd
       -0.14180496 -0.0169793 -0.032119676 -0.078492396
000070 3e a2 88 bf e4 b0 18 bf 6e 70 4f be 20 8a 81 bf
       -1.0674512 -0.59644914 -0.20257732 -1.0120277
000080 0e 7a 2c be 6b eb d7 3e eb e7 d2 be 00 e5 da 3d
       -0.16843435 0.42171797 -0.41192564 0.106882095
000090 d6 33 0d bd 3a 35 7e be f2 d4 11 3e 0b 89 8e 3d
       -0.034473263 -0.24824992 0.14241388 0.069597326
0000a0 08 ff d5 be c8 74 4c bf f9 7b c3 bc 3b c2 47 be
       -0.41796136 -0.79865694 -0.023862826 -0.19507687
0000b0 0c 8f a9 3d a8 5c 09 bf d0 1a eb 3e 8e 0a 04 3d
       0.08279237 -0.5365701 0.45918894 0.03223663
0000c0 a7 18 eb 3c 6e 22 2c bd ea 90 82 3e 59 56 3e bf
       0.028698279 -0.042025022 0.25501186 -0.74350506
0000d0 49 b1 63 be 67 96 49 bd 1a 88 ab be 6f 1b f7 be
       -0.22235598 -0.0492157 -0.33502275 -0.48263118
0000e0 47 8a bb be 49 06 fa be 24 3d 0e 3d 1e f7 14 3e
       -0.36628935 -0.4883292 0.034726277 0.14547393
0000f0 04 88 08 bf 0f 6d 8d 3d cd 20 87 be e5 f5 1a 3d
       -0.53332543 0.06905567 -0.26392213 0.03783216
000100 8a be 03 3f cb b1 0c 3f 36 fe d6 be 21 f0 d4 3d
       0.51462615 0.5495879 -0.41990823 0.103973635
000110 64 eb 6a bf 34 3a 94 3f 5a 3d a6 bd c7 2e 92 be
       -0.9176543 1.1580262 -0.08117171 -0.28551313
000120 06 11 2a bf d8 c2 d5 bd 6e d6 46 3f ad 6f 12 3f
       -0.66432226 -0.10437554 0.77670944 0.57201654
000130 91 12 ba be 7f 8b 8c 3d c7 13 21 3d 3a d9 1e bf
       -0.3634229 0.06862544 0.0393255 -0.6205021
000140 23 d4 8b 3e bc 3c c8 be cc 5e 21 3d 62 87 14 3e
       0.27310285 -0.39108837 0.039397046 0.1450477
000150 fc 01 bc be 84 5d ca be 4b 42 32 bf e9 b2 48 3e
       -0.36720264 -0.39524472 -0.69632405 0.19599499
000160 0a 95 05 be 5e be b8 be 81 27 64 be 67 5b 32 bf
       -0.13045135 -0.3608274 -0.22280695 -0.6967072
000170 8f ed c5 be f0 97 69 bd ed 2e b1 be 96 3f 27 bf
       -0.38657805 -0.057029665 -0.34606114 -0.653314
000180 15 52 72 3e 18 01 fd be 42 53 5e 3e 51 70 28 3e
       0.23664124 -0.49414897 0.21711448 0.16449095
000190 2b c0 d9 3e fe 15 21 be fe 12 a8 3e 82 18 44 3d
       0.42529425 -0.15731046 0.3282699 0.047874935
0001a0 56 95 64 be 88 72 a8 bf ae 56 54 3e cf 57 b6 bd
       -0.22322592 -1.3159952 0.2073619 -0.08903467
0001b0 5e d8 10 bd cd 1d 0b bf da 92 d4 3e 6c 99 ae bc
       -0.035362594 -0.5434235 0.4151829 -0.021313392
0001c0 2f 96 8d be 12 94 9a bd 3f b5 a8 3c 56 76 0c 3f
       -0.27653643 -0.075477734 0.020594237 0.54868066
0001d0 fe 48 2e bf ea 95 0b bf 06 5f db be 13 78 0d 3f
       -0.6808013 -0.54525626 -0.42845935 0.55261344
0001e0 dc ca 52 3d 80 0a a9 3e f0 44 dc bd bf 23 87 be
       0.051462993 0.33015823 -0.10755336 -0.2639446
0001f0 b9 ef c0 3d c4 68 d6 3b 63 43 11 3f f1 4f 93 3d
       0.094207235 0.0065432508 0.5674345 0.07192982
000200 22 92 67 be f8 2e bc be d9 c7 0c 3f 5e 39 29 bf
       -0.22614339 -0.36754584 0.54992443 -0.6610316
000210 95 82 91 3e d1 95 58 3f 39 60 d3 be 01 86 32 be
       0.2841994 0.846036 -0.4128435 -0.17433931
000220 f1 04 d5 bc d8 01 29 3f a4 4a b6 3e 83 36 0a bf
       -0.026003333 0.6601844 0.3560382 -0.5398943
000230 09 70 a6 ba 58 4b a7 3e 90 ba ff be 42 7d 67 bf
       -0.0012698184 0.3267467 -0.49947023 -0.90425503
000240 2d 02 1b 3d d2 3c 0b be 40 32 db 3e 4d 48 42 3e
       0.03784387 -0.1359742 0.42811775 0.18972893
000250 48 95 99 bd e6 c8 18 3d 79 de d0 be 94 a0 3c be
       -0.07499176 0.037300967 -0.40794733 -0.1842063
000260 0a 0b 90 3e 0f 4f 40 bf 2b 76 b2 be f8 ce 8f 3e
       0.28133422 -0.75120634 -0.3485578 0.28087592
000270 e1 e5 2b 3e f5 88 00 3d 04 b5 d6 be 2e b8 1c bd
       0.1678691 0.031380612 -0.4193498 -0.038261585
000280 e1 8b 49 bc a5 74 da 3d 52 d9 bc 3e 5a 91 5a 3e
       -0.012301416 0.106667794 0.36884552 0.2134451
000290 05 05 85 3e df 4a cb be 14 66 de be ee 09 65 bd
       0.25980392 -0.3970556 -0.43437254 -0.055917673
0002a0 d9 36 3e 3f 28 73 77 be a4 04 57 bf 05 e6 c9 3e
       0.7430244 -0.24165022 -0.83991456 0.39433303
0002b0 95 87 22 be 47 53 12 3e fb 34 bd be 99 fc b1 3e
       -0.15872033 0.1428958 -0.36954483 0.3476303
0002c0 75 ba db 3d c3 49 aa bd 1c 88 b4 be bb 32 55 3e
       0.10728923 -0.0831485 -0.35260093 0.20820133
0002d0 eb 82 4e be 92 09 ce 3e 23 3f 08 bb cf 43 96 be
       -0.20167129 0.40241677 -0.0020789586 -0.2934861
0002e0 65 13 d9 3c 3e 24 09 3f c0 cb 51 bc 6b c4 2c 3f
       0.026498506 0.53570926 -0.012804925 0.6748721
0002f0 b6 ee 5a be 2f 4c f1 be 1c 0e 94 3d d1 f1 81 be
       -0.21380123 -0.47128436 0.07229254 -0.25379804
000300 97 d1 6f 3e 64 ec 01 bf 7e 32 8e 3e 41 ae e7 be
       0.23419796 -0.5075133 0.27772897 -0.45250133
000310 05 6f aa 3e 5b 24 05 3e 7d 30 64 be 7b e5 84 bd
       0.33287826 0.1300215 -0.22284122 -0.064890824
000320 9f 4a 68 bf 20 82 00 bf bb 15 83 3d 81 a8 b7 bc
       -0.9073886 -0.50198555 0.06400629 -0.022419216
000330 83 9b 4c 3d c8 5c 24 3e 13 06 d7 be d4 2d 6c 3c
       0.049952995 0.16051018 -0.41996822 0.014415223
000340 7f 39 c8 bd bb e7 fe be 9d 36 12 3f 88 d6 1f 3d
       -0.097765915 -0.4978617 0.57114583 0.039022952
000350 61 fd 1d bf 71 ff 3b bf 85 da 4b be 6e 38 c7 be
       -0.6171475 -0.7343665 -0.19907577 -0.3891024
000360 56 02 05 bf 4e d4 62 bf 8e df e1 be 50 f4 45 be
       -0.5195669 -0.886052 -0.4411587 -0.19331479
000370 de f3 f9 3d b5 69 09 bf 8f b4 d5 3c 33 de 49 be
       0.12204717 -0.5367692 0.026087074 -0.19713669
000380 60 72 b2 3a 1b 7d e6 3c 61 01 65 bf 15 95 09 bd
       0.0013614409 0.028135827 -0.8945523 -0.03358944
000390 dd 26 25 be 06 a1 f3 3d 13 cb b7 3e 0e 2d c6 bf
       -0.16128106 0.11895947 0.3589712 -1.54825
0003a0 03 ae df 3e cf 29 07 be ed 33 03 3e f2 da 2d 3f
       0.43687448 -0.13199542 0.12812777 0.6791221
0003b0 5b b1 58 be 24 f7 2c 3c e3 0f f6 bd 5e 47 86 bf
       -0.21161406 0.01055697 -0.12014749 -1.049053
0003c0 03 76 8b be b2 94 a3 3e 4e 88 a4 bf c8 93 c0 bd
       -0.27238473 0.31949383 -1.2854097 -0.09403187
0003d0 b6 ad 22 3f 32 1a 00 bf a4 0d 1d 3d ec 32 f9 bd
       0.6354631 -0.5003997 0.038343087 -0.12167916
0003e0 b2 82 0e be f9 76 a2 3d 44 8a 07 be a5 66 ff be
       -0.13917044 0.079328485 -0.13236338 -0.49883
0003f0 43 4a c3 3e 6d 30 83 3f 45 af 9f bf f6 d9 25 3f
       0.38142595 1.0249153 -1.2475363 0.64785707

fc3.bias f4 [50]
000000 3e 4b 6e bd 7a c7 92 be c1 69 1c bf 4f 0e 92 be
       -0.058177225 -0.28667814 -0.6109887 -0.28526542
000010 d7 c0 45 3d 1c 33 3f 3d b1 c2 53 bd b5 8b 51 3e
       0.04827961 0.0466796 -0.051699344 0.2046345
000020 5a 0c 85 be b3 bb db be 50 8f 92 be 1f e4 ba 3e
       -0.25985986 -0.4291664 -0.28624964 0.36502168
000030 4d 58 b1 be a2 f5 12 3d f0 f1 de be 13 35 76 3e
       -0.3463768 0.035878785 -0.4354396 0.24043684
000040 48 25 9d be 3d 61 7b bc 5f 11 5a bc 72 87 11 bf
       -0.30692506 -0.015343008 -0.013309806 -0.568473
000050 a4 a9 87 be 87 83 51 bd 08 46 26 bf 32 b6 c2 bd
       -0.26496613 -0.051150825 -0.6495061 -0.09507407
000060 2d 2b f5 be 98 c8 00 3d 6b ff bc bc 45 4e e4 be
       -0.47884503 0.0314413 -0.023071012 -0.44590965
000070 71 fa f7 3d 87 75 2b bf 71 c5 fc be 80 d4 1a be
       0.12108315 -0.6697621 -0.49369386 -0.15120125
000080 1d df 63 bd b6 d5 f3 be 8c 4f 8f bd cc cb 58 bf
       -0.0556327 -0.47623986 -0.06997594 -0.8468597
000090 df 65 ee be fc ed 60 3d 9f e1 b7 bc 26 65 37 bf
       -0.46562096 0.05491446 -0.022446452 -0.71638715
0000a0 6f 5a 1e be 47 62 c2 be 86 85 f9 bd 60 2a 21 be
       -0.15464185 -0.37965605 -0.12183671 -0.15738821
0000b0 ab d9 a6 be 1a cf eb 3e d3 34 38 be 7c 5b 80 bc
       -0.32587942 0.46056443 -0.17988901 -0.015668623
0000c0 bc 89 29 3e 61 4b 2a bf
       0.16556448 -0.6652127

fc4.weight f4 [2, 50]
000000 af 17 4c 3d 0b 9e 66 3f 4f 70 ec 3e 88 8e 57 be
       0.049827274 0.90084904 0.46179435 -0.21050465
000010 f6 2d c8 bc b3 57 9c 3e 03 23 95 3d 56 97 f0 3e
       -0.024435978 0.3053566 0.072820686 0.4699046
000020 ca 33 ae 3f ad c9 48 3f 06 58 1f bf 90 14 96 bd
       1.3609555 0.7843273 -0.6224369 -0.07328141
000030 75 37 ad be 77 c8 d6 be 64 3d 89 be bb cf b2 3c
       -0.33831373 -0.41949818 -0.2680465 0.02182757
000040 bb 79 5e 3f a4 a8 8d 3e 8e af 79 3e f0 3e c3 3e
       0.86904496 0.27667725 0.24383375 0.38133955
000050 3b 17 db 3c 46 c3 1a 3b c6 9a dd be 95 95 62 be
       0.026744476 0.0023614927 -0.43282145 -0.22127374
000060 df 65 3b 3f e9 41 eb 3b c4 e5 8b 3b 76 e7 60 bd
       0.7320232 0.007179488 0.0042693336 -0.05490824
000070 86 00 e3 bb 00 8d 16 be df 56 84 3e af 0e 22 3f
       -0.0069275526 -0.14702225 0.25847527 0.63303655
000080 cc f9 07 bf 26 8c 7c 3c 73 cb 96 39 ef 98 39 be
       -0.53115535 0.015414273 0.0002876181 -0.18124746
000090 79 f1 63 3e 11 a4 c3 be d2 93 f5 be b9 b0 ee 3e
       0.22260083 -0.3821111 -0.4796434 0.46619204
0000a0 36 6b 43 bd 72 37 59 bd 21 13 c5 3e b2 b4 07 3d
       -0.047709666 -0.053031392 0.38491157 0.03313131
0000b0 58 30 4b be 7a 86 17 bf eb 58 48 3f b8 82 51 3e
       -0.1984266 -0.5918957 0.7826068 0.20460021
0000c0 4c 1a a4 3d 76 72 ee bb 83 36 67 bf 7c 37 9e 3e
       0.08012828 -0.0072768284 -0.90317553 0.30901706
0000d0 2c c8 23 bf 64 bd b7 3e 62 fa 4e be cf f7 c4 3d
       -0.63977313 0.3588668 -0.20212701 0.09617578
0000e0 11 bf 86 bf f1 d7 11 3f 68 3e a3 3e 09 90 94 3f
       -1.0527059 0.56970125 0.3188355 1.1606456
0000f0 f1 d9 d2 3e 6e c4 2b bf 86 ab 9d bf e8 a5 d1 be
       0.411819 -0.670966 -1.231797 -0.4094689
000100 38 44 05 bf 03 13 81 bf 40 ef 83 3f b8 1b e6 3e
       -0.5205722 -1.0083927 1.0307388 0.44943023
000110 74 02 9f bf c4 2b 8c 3f 21 e0 1a bf 05 2c 52 3f
       -1.2422624 1.0950856 -0.60498244 0.8209842
000120 5d be ad 3f 06 c6 2f 3e 1c ed 8c 3f 60 94 3c 3f
       1.3573719 0.17165384 1.100986 0.736639
000130 73 3c 5f 3f c3 0d 68 be c2 27 5d bf 52 e5 6a bf
       0.87201613 -0.226615 -0.8638879 -0.91756165
000140 7b 1a 43 be 1e 11 5a 3f e0 b9 04 bf c9 88 bd be
       -0.1905307 0.8518237 -0.5184612 -0.3701842
000150 37 3e 72 3e a0 35 94 3f f3 4b 1a bf 6c c1 56 bf
       0.23656546 1.1578865 -0.6027214 -0.8388889
000160 74 b7 2b bf 99 ce 86 3f d0 2e 1e 3f 10 85 85 3f
       -0.670768 1.0531799 0.6179018 1.0431232
000170 b7 c7 a7 3e db a7 5a be 2d 92 4e 3f 33 eb 69 be
       0.32769558 -0.21353094 0.80691797 -0.22843628
000180 d4 52 bf bd 04 e3 65 bf ff 04 32 3f 87 94 8a 3f
       -0.0934197 -0.89799523 0.69538873 1.0826577

fc4.bias f4 [2]
000000 46 a9 f4 3d c4 0d e3 bd
       0.11946349 -0.1108661
