Results/BS_256_EP_6000_TMAX_200_NOISE_0.1_LR_5_TAU_3e3/last_checkpoint_critic.pth (torch_old, 72813 bytes, 7 tensors)

fc1.weight f4 [100, 26]
-0.123477735 7.2575793 -0.13914481 3.1012301 -0.67174447 -0.62426656 0.01838122 3.401163
-0.63121134 11.842679 0.037227303 1.8856343 2.8256404 -21.011274 0.015652545 1.9314497
-0.24438818 12.228106 -0.1760235 -5.6555786 2.0328767 5.1179934 -0.08342982 -5.423436
-2.5471652 -1.5236901 1.2997409 5.583999 -0.38514626 1.535039 -1.9390143 -1.0118425
-0.38880134 1.4944142 7.9837008 7.6868925 -0.6099894 0.26852423 -1.4784567 -0.67822903
-0.48519686 -0.0006017736 6.6280212 6.9200025 -0.48581252 -1.1042176 -0.3652342 -4.881663
-0.43107888 -1.0101992 19.651842 0.36375389 2.0093715 0.42071387 0.030513622 0.09870327
0.033762135 -1.7756274 -0.2369055 0.11286621 1.7626146 0.5976676 -0.17626022 -0.26845595
0.07179998 -1.603957 -0.05260263 -0.2822634 1.7442206 0.6526136 -0.23046122 -0.2815379
-0.09165422 -1.1023735 0.09133318 -0.03662911 0.12610054 -0.92339236 -0.5608564 5.222079
0.06674848 -0.24833661 0.6621346 4.2583656 0.28622988 -0.45560756 0.50862235 0.3873615
0.015844123 -0.032411315 3.0221915 -3.1955523 0.08081644 0.15707782 3.4376004 0.055564214
0.9207985 0.12539713 -2.965916 -14.358597 1.0073539 0.21650003 5.8052907 3.2318382
-3.4920382 2.2704666 -0.14822201 -0.32099482 -0.32897633 -1.6143757 -0.0808424 -0.053345107
3.8032596 4.964499 0.17195238 -0.39757675 2.5076623 -7.108387 0.06616511 -0.18568677
4.937057 6.041181 -0.4285734 0.52479386 -1.6137075 -10.706123 -0.38198093 0.33644816
-14.444161 -6.3353534 0.6243861 -1.1744708 -0.034917466 -0.40591237 1.0035328 3.6038637
0.098291285 -0.41276586 4.5993366 0.28833312 0.44295764 -0.33455732 3.9265358 -16.852116
0.08101332 -0.5520441 4.424419 0.07832744 0.18369281 -0.5873201 -2.892923 -1.5323625
0.24139039 -0.32948282 -0.87456053 -2.2653608 1.0008999 6.648204 0.009165959 0.8044661
0.5532455 6.14153 -0.12535572 0.7146614 0.22495618 4.373825 -0.08097853 0.9451003
-0.7669942 6.8600883 0.18057407 0.7912453 -1.0542237 6.8334823 -0.18884325 2.1257963
-0.11526168 -39.0641 0.14497152 1.8432243 -3.0376742 -1.1155155 1.3295013 5.287178
0.17406471 1.3293614 0.49991754 2.5522816 -0.08180077 1.3663656 2.2165923 7.207089
0.043216668 1.0434624 -2.8548324 -4.394425 0.06727425 1.1017385 4.0929995 11.537643
0.29272082 1.2349625 -7.113673 -22.593142 0.17059779 1.2458084 -0.20421705 -0.17985256
2.5814874 6.9221196 0.7065973 0.117966734 -1.0088283 -2.5754464 0.7066791 0.18173268
6.5912642 6.7974877 0.17775175 -1.2203541 -1.1541513 -7.130472 0.09023079 -1.0556393
5.7465196 6.1684194 0.32916516 -0.94506747 -2.7650328 -17.882132 0.47101876 -0.7276432
4.996567 -6.672292 -0.36570773 1.9293301 -0.003156504 -0.09273123 1.8300827 -10.97916
-0.026359865 0.19304141 -0.073792756 4.084285 -0.019129116 0.0885286 2.2651005 4.1426234
-0.11739087 0.244856 0.707681 3.90903 0.14468206 1.0510513 -0.8529938 9.028722
00000000: e5e1 fcbd 173e e840 fa7b 0ebe 8e7a 4640
00000010: 72f7 2bbf efcf 1fbf 3694 963c a8ac 5940
00000020: 1197 21bf 9d7b 3d41 a87b 183d 775c f13f
00000030: 4bd7 3440 1717 a8c1 c439 803c be39 f73f
00000040: e540 7abe 52a6 4341 813f 34be 80fa b4c0
00000050: a71a 0240 9ac6 a340 41dd aabd ca8c adc0
00000060: c104 23c0 4708 c3bf e95d a63f 1fb0 b240
00000070: e431 c5be 287c c43f 9f31 f8bf 0e84 81bf
00000080: f810 c7be f748 bf3f 7a7a ff40 06fb f540
00000090: 4428 1cbf 027c 893e 123e bdbf 6ba0 2dbf
000000a0: b96b f8be 58c0 1dba c018 d440 a970 dd40
000000b0: 6bbc f8be 0157 8dbf faff babe 9536 9cc0
000000c0: 5fb6 dcbe 354e 81bf f936 9d41 f33d ba3e
000000d0: 8b99 0040 cf67 d73e b4f7 f93c f124 ca3d
000000e0: 2a4a 0a3d c247 e3bf 5b97 72be 6626 e73d
000000f0: 5b9d e13f be00 193f 8f7d 34be 0f73 89be
00000100: de0b 933d 774e cdbf db75 57bd d484 90be
00000110: 9f42 df3f af11 273f 07fe 6bbe bc25 90be
00000120: 35b5 bbbd 931a 8dbf e40c bb3d 6808 16bd
00000130: 8020 013e 7163 6cbf 4994 0fbf 451b a740
00000140: 6db3 883d f44b 7ebe a781 293f 8844 8840
00000150: b98c 923e 6545 e9be 1335 023f 3f54 c63e
00000160: 89cb 813c bac1 04bd 966b 4140 ee83 4cc0
00000170: 1783 a53d 02d9 203e a501 5c40 4d97 633d
00000180: 73b9 6b3f 1b68 003e 91d1 3dc0 d0bc 65c1
00000190: f9f0 803f 2fb2 5d3e f1c4 b940 70d6 4e40
000001a0: 8e7d 5fc0 534f 1140 83c7 17be 6f59 a4be
000001b0: 966f a8be dda3 cebf b390 a5bd 6680 5abd
000001c0: 9b68 7340 2ddd 9e40 4914 303e 2e8f cbbe
000001d0: 8a7d 2040 e877 e3c0 9381 873d ac24 3ebe
000001e0: 5ffc 9d40 5b51 c140 f96d dbbe e458 063f
000001f0: f88d cebf 484c 2bc1 0193 c3be ef42 ac3e
00000200: 491b 67c1 37bb cac0 c4d7 1f3f 0f55 96bf
00000210: 9e05 0fbd bfd3 cfbe c373 803f b4a5 6640
00000220: f14c c93d 0c56 d3be c42d 9340 66a0 933e
00000230: 58cb e23e 194b abbe 5d4c 7b40 22d1 86c1
00000240: 50ea a53d c352 0dbf d794 8d40 236a a03d
00000250: f819 3c3e 9c5a 16bf a725 39c0 7424 c4bf
00000260: 0b2f 773e f9b1 a8be 33e3 5fbf acfb 10c0
00000270: 7d1d 803f 16be d440 d22c 163c 7ef1 4d3f
00000280: 7fa1 0d3f 6a87 c440 405d 00be 0df4 363f
00000290: ea5a 663e 60f6 8b40 12d8 a5bd 18f2 713f
000002a0: bb59 44bf d885 db40 69e8 383e 0d8f 4a3f
000002b0: cdf0 86bf e3ab da40 2060 41be 0c0d 0840
000002c0: 510e ecbd a341 1cc2 6a73 143e c6ee eb3f
000002d0: 4169 42c0 36c9 8ebf 192d aa3f 9030 a940
000002e0: 053e 323e 8428 aa3f 31f5 ff3e 9558 2340
000002f0: 2987 a7bd 11e5 ae3f a6dc 0d40 79a0 e640
00000300: f603 313d 2d90 853f 93b5 36c0 219f 8cc0
00000310: 15c7 893d c405 8d3f daf9 8240 309a 3841
00000320: 81df 953e 4013 9e3f 36a3 e3c0 c1be b4c1
00000330: 30b1 2e3e a676 9f3f 461e 51be 452b 38be
00000340: 1737 2540 0182 dd40 90e3 343f 8b98 f13d
00000350: 4921 81bf 1dd4 24c0 ece8 343f 2218 3a3e
00000360: a3eb d240 0585 d940 8e04 363e 9034 9cbf
00000370: 3bbb 93bf d42c e4c0 ecca b83d 301f 87bf
00000380: 7de3 b740 b163 c540 5688 a83e f1ef 71bf
00000390: 4cf6 30c0 9b0e 8fc1 5f29 f13e d346 3abf
000003a0: e0e3 9f40 6b83 d5c0 0b3e bbbe 4af4 f63f
000003b0: 59dd 4ebb dfe9 bdbd 2640 ea3f a4aa 2fc1
000003c0: a5f0 d7bc a6ac 453e a820 97bd 76b2 8240
000003d0: aab4 9cbc 7c4e b53d 68f7 1040 5f90 8440
000003e0: a06a f0bd 88bb 7a3e 952a 353f 8c2d 7a40
000003f0: 8927 143e d988 863f cd5d 5abf a575 1041

fc1.bias f4 [100]
-4.9366717 -3.9516459 -1.2765723 -0.15478253 1.4152515 1.8470618 0.80997986 2.136709
-2.438903 -8.583073 -11.303242 -3.959412 -13.461376 7.9809947 -7.9874444 -3.9380333
-12.73514 -9.32712 -11.257211 8.880486 -6.2209973 -2.0607178 -2.823631 -5.8992105
-1.8186817 -7.5876756 -14.245795 -5.6432343 -5.040924 -8.967569 -11.511825 -3.4221942
-2.7313688 -9.380019 -6.2335157 -6.1384926 -6.7554994 -32.49088 -0.6574008 -19.81046
-0.89287317 -5.7912493 -1.0057108 -2.493426 3.5261898 -6.796699 -0.7080997 -7.506463
-8.646544 -6.516627 -7.2910376 9.023935 14.087741 -4.603777 3.1151302 1.8896799
-5.2319083 -36.396584 -6.32024 -22.026669 1.6926178 -2.824676 -7.346935 -1.3781685
21.875044 -13.628814 -13.531632 -23.10988 -28.889349 -0.7180863 -2.8198645 -15.537836
-5.344899 -12.399306 1.6160008 -10.207605 -27.070053 -9.33243 -0.66074026 -2.3128948
-14.677971 -23.237429 -6.120754 -5.7293453 -5.450829 -6.4491997 -2.306207 0.86440295
-9.7288885 -1.5210359 -16.14741 -13.247718 -2.5733554 -6.677136 -1.4331429 -7.8787045
-1.3198574 5.9799395 -5.6594267 -9.848697
00000000: 37f9 9dc0 c4e7 7cc0 b966 a3bf 507f 1ebe
00000010: f626 b53f 856c ec3f d75a 4f3f d7bf 0840
00000020: fd16 1cc0 4454 09c1 14da 34c1 0267 7dc0
00000030: cc61 57c1 4f64 ff40 2599 ffc0 bd08 7cc0
00000040: 22c3 4bc1 e23b 15c1 891d 34c1 7816 0e41
00000050: 6912 c7c0 cde2 03c0 5fb6 34c0 55c6 bcc0
00000060: 90ca e8bf 3dce f2c0 c7ee 63c1 6095 b4c0
00000070: 404f a1c0 2a7b 0fc1 6f30 38c1 3b05 5bc0
00000080: bfce 2ec0 8f14 16c1 f678 c7c0 886e c4c0
00000090: 0d2d d8c0 a9f6 01c2 6b4b 28bf d27b 9ec1
000000a0: 5693 64bf ea51 b9c0 22bb 80bf 4b94 1fc0
000000b0: 18ad 6140 8f7e d9c0 0646 35bf f234 f0c0
000000c0: 3f58 0ac1 3588 d0c0 2e50 e9c0 0a62 1041
000000d0: 6367 6141 2452 93c0 4b5e 4740 08e1 f13f
000000e0: cb6b a7c0 1a96 11c2 683f cac0 9e36 b0c1
000000f0: b3a7 d83f 7ec7 34c0 171a ebc0 d367 b0bf
00000100: 1700 af41 9f0f 5ac1 9181 58c1 09e1 b8c1
00000110: 631d e7c1 81d4 37bf a978 34c0 fa9a 78c1
00000120: 6a09 abc0 8f63 46c1 1dd9 ce3f 5a52 23c1
00000130: 788f d8c1 a251 15c1 4626 29bf 7806 14c0
00000140: f8d8 6ac1 41e6 b9c1 37dd c3c0 cc56 b7c0
00000150: 316d aec0 d85f cec0 e598 13c0 8349 5d3f
00000160: 87a9 1bc1 4eb1 c2bf e52d 81c1 a7f6 53c1
00000170: dbb1 24c0 19ab d5c0 3a71 b7bf 591e fcc0
00000180: 16f1 a8bf aa5b bf40 061a b5c0 4394 1dc1

fc2.weight f4 [100, 100]
-0.12511848 -0.23515236 -0.1667245 -0.12131608 -0.55096567 -0.53999966 -3.6741304 -1.4812081
-0.7793814 -0.30844426 -1.1318145 -0.77153623 -0.35137647 4.1943083 -1.6694286 -0.11981339
-0.36002913 -2.6260033 1.3701669 0.07492942 -1.2022879 -0.5467977 -3.8142123 -2.4905114
-0.109761156 -2.2969825 0.13005778 -9.943248 -0.59086484 -1.8384339 -2.1302285 0.023939757
-0.5807659 -0.85061383 -0.36474317 -0.8958467 -3.9539144 -6.1384044 -0.48573315 0.31570992
0.12911105 -0.23920009 -0.29753667 -3.1369054 -0.085436866 -3.9190946 -0.6044176 -5.213925
-0.4269172 -0.09732084 -0.9418695 -13.285846 -0.016646532 0.50104964 -1.7267303 0.18647327
-1.9426323 -1.7215265 0.23593248 -1.0341815 -0.11962011 -0.7408511 -3.4041855 -0.2184134
-0.39992556 -0.21349719 0.298402 0.15027715 1.0234967 -0.22333671 -0.60282385 -3.2889197
-2.2151322 0.12771016 2.6028972 -12.5750065 -0.028289657 -1.5380749 0.35108262 -0.5337886
-0.88590634 -2.1243346 -3.3480642 -0.9866355 -1.0136033 -2.159875 -0.14838327 0.40978956
2.2446835 -1.4837831 -4.647798 -1.0962216 -0.27949607 -5.8100142 -3.635633 -5.134069
-2.3369598 1.5706115 0.16663635 0.67402154 -0.1749737 -0.07789829 -0.01291294 -0.182335
-0.031671766 -0.083649635 -0.07070455 -0.1286298 -0.022361213 -0.015224524 0.0021286234 -0.1469428
-0.10939791 -0.310713 -0.034217898 -0.061533973 -0.36537507 -0.12091467 -0.016696386 -0.009811234
-0.31406364 0.076965645 -0.12839203 -0.15463518 0.055927996 -0.18164234 -0.0690167 -0.11436929
-0.03690873 -0.08344089 -0.18849699 -0.026187235 -0.17503628 0.054038152 0.10497394 -0.05875724
-0.34404954 -0.014468078 -0.22945713 -0.051612206 -0.014231059 -0.10412535 -0.25853294 -0.20675631
-0.12361625 -0.13692753 -0.3460822 0.03849652 -0.027193353 -0.07889492 -0.07868962 -0.45326382
-0.1380467 -0.030935803 -0.036131028 -0.193363 -0.17744829 -0.09280573 -0.29473454 0.027710285
-0.48413566 -0.10913841 -0.017587626 -0.14474794 -0.66668785 -0.079872124 0.0347726 -0.23052569
-0.062682405 -0.1681507 -0.40786693 -0.09298425 -0.21070187 -0.11088562 -0.36228412 -0.112556815
-0.06749289 -0.15126038 0.0051500765 -0.10539668 -0.08491662 -0.011163978 0.06590086 -0.018697668
-0.04697269 -0.06046765 -0.034641206 0.026113532 0.056631427 -0.20859946 -0.0015452662 0.033426438
-0.26676393 0.033041704 -0.07030568 0.00037539453 -0.16958311 -0.3620477 -0.29017046 0.016469635
-2.6356573 0.34144208 -0.13086373 -3.7579398 -1.9996132 -1.047614 1.0022117 -0.43664867
-0.108430095 -3.7954144 0.28906137 0.5697718 -0.77069926 1.6912013 -0.82910025 -0.83839023
-3.034689 0.5305676 -0.29152665 -2.2759824 -3.2577882 -1.0794969 -4.7976427 -0.0267249
0.43224308 -0.19401872 -0.6163673 1.2791468 -0.39579156 -2.7833135 0.053651985 -2.2283895
-0.39611816 -0.32733458 -6.3220153 -1.4031509 -12.857955 -0.029716253 -3.6042166 -4.9941936
-0.13193291 -0.7654282 -4.6371303 0.19351235 -21.559126 -1.1558491 0.16686358 -1.8493376
0.013609398 -3.6179233 -1.2919408 -0.4319137 -0.36710438 -0.29807252 -4.3901463 -3.2525551
00000000: 0f1f 00be c8cb 70be d4b9 2abe 9174 f8bd
00000010: 160c 0dbf 6b3d 0abf f424 6bc0 3a98 bdbf
00000020: 8a85 47bf 68ec 9dbe 4cdf 90bf 6683 45bf
00000030: 9ee7 b3be c637 8640 d6af d5bf b960 f5bd
00000040: bd55 b8be 7010 28c0 a161 af3f 9974 993d
00000050: 92e4 99bf effa 0bbf 0e1c 74c0 8a64 1fc0
00000060: 75ca e0bd c301 13c0 de2d 053e 8b17 1fc1
00000070: eb42 17bf cd51 ebbf aa55 08c0 4f1d c43c
00000080: 13ad 14bf d4c1 59bf 9ebf babe 3656 65bf
00000090: ef0c 7dc0 cf6d c4c0 04b2 f8be bba4 a13e
000000a0: b035 043e def0 74be ba56 98be 0fc3 48c0
000000b0: 86f9 aebd 72d2 7ac0 1dbb 1abf 79d8 a6c0
000000c0: e494 dabe 2650 c7bd 5c1e 71bf d392 54c1
000000d0: 4f5e 88bc ca44 003f 8005 ddbf d9f2 3e3e
000000e0: 2da8 f8bf fb5a dcbf 4998 713e 0f60 84bf
000000f0: 63fb f4bd 6ba8 3dbf 2dde 59c0 c3a7 5fbe
00000100: 0bc3 ccbe 029f 5abe 26c8 983e 41e2 193e
00000110: f101 833f 61b2 64be aa52 1abf a97d 52c0
00000120: bac4 0dc0 74c6 023e de95 2640 3a33 49c1
00000130: b6bf e7bc a3df c4bf 1ac1 b33e 5fa6 08bf
00000140: c2ca 62bf 19f5 07c0 af46 56c0 2594 7cbf
00000150: c1bd 81bf 643b 0ac0 c9f1 17be f0cf d13e
00000160: e5a8 0f40 9bec bdbf c3ba 94c0 fd50 8cbf
00000170: 1c1a 8fbe a3eb b9c0 36ae 68c0 4b4a a4c0
00000180: c090 15c0 cc09 c93f b8a2 2a3e ad8c 2c3f
00000190: 4e2c 33be 2389 9fbd cc90 53bc 07b6 3abe
000001a0: 41ba 01bd 8050 abbd 8ccd 90bd 88b7 03be
000001b0: dd2e b7bc 4870 79bc 6080 0b3b 2c78 16be
000001c0: 030c e0bd c615 9fbe 1128 0cbd 0c0b 7cbd
000001d0: 7112 bbbe 1ca2 f7bd dcc6 88bc 4cbf 20bc
000001e0: f3cc a0be 2aa0 9d3d 3379 03be af58 1ebe
000001f0: c114 653d 7300 3abe a158 8dbd 723a eabd
00000200: 9c2d 17bd 0fe3 aabd 5b05 41be 9d86 d6bc
00000210: b63c 33be 1c57 5d3d 94fc d63d 6fab 70bd
00000220: 4327 b0be 840b 6dbc cff6 6abe 5267 53bd
00000230: 6329 69bc ac3f d5bd 6e5e 84be edb7 53be
00000240: 842a fdbd bb36 0cbe b031 b1be 87ae 1d3d
00000250: 98c4 debc a993 a1bd 0628 a1bd 3212 e8be
00000260: 1d5c 0dbe 156d fdbc 21fe 13bd f300 46be
00000270: 01b5 35be ee10 bebd 72e7 96be ae00 e33c
00000280: a1e0 f7be f583 dfbd ed13 90bc ce38 14be
00000290: 0eac 2abf ff93 a3bd b76d 0e3d ed0e 6cbe
000002a0: a25f 80bd b22f 2cbe efd3 d0be 876e bebd
000002b0: 3bc2 57be 0018 e3bd 4e7d b9be 3084 e6bd
000002c0: b639 8abd 00e4 1abe f9c1 a83b 37da d7bd
000002d0: c4e8 adbd 1ee9 36bc 08f7 863d da2b 99bc
000002e0: 6f66 40bd edac 77bd f0e3 0dbd 0cec d53c
000002f0: 5bf6 673d 199b 55be 888a caba 29ea 083d
00000300: 4895 88be bd56 073d 6dfc 8fbd 9ad0 c439
00000310: 32a7 2dbe 515e b9be 3991 94be 54eb 863c
00000320: 9cae 28c0 7fd1 ae3e 2401 06be 1682 70c0
00000330: 53f3 ffbf 3718 86bf 7948 803f 6a90 dfbe
00000340: 9910 debd 12e8 72c0 daff 933e 91dc 113f
00000350: 8c4c 45bf 4979 d83f ea3f 54bf bea0 56bf
00000360: 5838 42c0 47d3 073f fb42 95be b2a9 11c0
00000370: 9a7f 50c0 f42c 8abf 4a86 99c0 2dee dabc
00000380: f74e dd3e d8ac 46be 3fca 1dbf 15bb a33f
00000390: 31a5 cabe cf21 32c0 2fc2 5b3d ef9d 0ec0
000003a0: 00d0 cabe 6698 a7be f34d cac0 739a b3bf
000003b0: 2fba 4dc1 806f f3bc 7cab 66c0 6fd0 9fc0
000003c0: 6c19 07be 1af3 43bf 5f63 94c0 1a28 463e
000003d0: 1779 acc1 ddf2 93bf 49de 2a3e 18b7 ecbf
000003e0: f4f9 5e3c 0e8c 67c0 515e a5bf cb23 ddbe
000003f0: 1bf5 bbbe f69c 98be 147c 8cc0 dd29 50c0

fc2.bias f4 [100]
-23.658121 -0.30322078 -9.312458 -1.1935388 -0.38212326 -0.6029061 -20.403921 -0.5129755
-0.4698153 -0.20442054 7.69756 17.002254 -0.9241389 -2.1794858 -0.5993904 -0.36761838
-0.056537703 11.6318 -0.47447377 0.38379547 -0.34924307 -0.31828687 -0.78242093 -0.103054404
-0.24643028 -0.18841046 -0.22027627 -0.34853885 -0.43873602 -0.28111526 -0.14591107 -0.30613038
-0.50396043 -11.365347 -1.1085505 0.0726189 -0.625108 -1.9885049 -0.6341157 -1.4810765
-0.4492459 -0.30278608 -0.5095927 -3.6289635 26.414375 -0.6245393 -3.1480393 -0.52997947
-0.27036265 -0.30052477 -0.32522348 -0.5474162 -0.06553108 13.055759 -1.2203643 -0.62679
-27.503363 3.5677214 -13.195333 -0.38832697 -0.45600057 -16.91955 -7.225213 -1.1548202
-0.3394743 -1.1956161 -2.0376267 0.15361214 -0.40382653 -0.40805048 -0.41137052 -0.026076447
-0.07176228 -0.24408439 -0.9463357 -0.19031057 -1.0705105 -1.1361477 -0.3424994 -0.21842977
-0.51771325 -0.9272716 -0.2902423 -5.958074 -0.18421227 8.773657 -13.108118 -0.18845326
-0.41092953 -0.28649437 -41.828648 -0.18897271 -4.757958 -0.41293263 -2.476278 -0.19771476
-23.542625 -0.82731134 -0.5460816 9.619468
00000000: d543 bdc1 c13f 9bbe d4ff 14c1 e1c5 98bf
00000010: a9a5 c3be 0e58 1abf 3b3b a3c1 5d52 03bf
00000020: a28b f0be 9e53 51be 6952 f640 9e04 8841
00000030: 5e94 6cbf b27c 0bc0 a671 19bf 7a38 bcbe
00000040: 1494 67bd da1b 3a41 3aee f2be d780 c43e
00000050: fdcf b2be 7ff6 a2be bd4c 48bf 300e d3bd
00000060: 3858 7cbe acee 40be 1a90 61be af73 b2be
00000070: 02a2 e0be 57ee 8fbe b669 15be 1fbd 9cbe
00000080: 8d03 01bf 76d8 35c1 fce4 8dbf 38b9 943d
00000090: 1407 20bf 5487 febf 6855 22bf ea93 bdbf
000000a0: 8f03 e6be c706 9bbe ab74 02bf f040 68c0
000000b0: a450 d341 cfe1 1fbf 7a79 49c0 bcac 07bf
000000c0: f96c 8abe 62de 99be b183 a6be 7823 0cbf
000000d0: 2935 86bd 64e4 5041 e634 9cbf 4f75 20bf
000000e0: e306 dcc1 8c55 6440 1520 53c1 cbd2 c6be
000000f0: e878 e9be 3d5b 87c1 f234 e7c0 26d1 93bf
00000100: 93cf adbe f309 99bf 7a68 02c0 804c 1d3e
00000110: 5ac2 cebe feeb d0be 289f d2be 469e d5bc
00000120: 1af8 92bd 42f1 79be 0e43 72bf c6e0 42be
00000130: 7d06 89bf 4a6d 91bf 155c afbe 0eac 5fbe
00000140: db88 04bf ac61 6dbf a49a 94be 8ba8 bec0
00000150: 24a2 3cbe e660 0c41 daba 51c1 e4f9 40be
00000160: 5b65 d2be 64af 92be 8950 27c2 1082 41be
00000170: 3141 98c0 e86b d3be 577b 1ec0 bd75 4abe
00000180: 4c57 bcc1 adca 53bf 01cc 0bbf 57e9 1941

fc3.weight f4 [50, 100]
-0.15608066 -0.11291439 -0.103844166 -0.095160484 0.08251955 0.010317766 -0.12302962 -0.076881565
-0.038278785 0.095617495 -0.07978079 -0.116613865 -0.12030855 -0.0930186 -0.026206356 0.08947874
0.020123405 -0.016897127 0.008325607 -0.061315313 -0.06190555 -0.033802897 0.06874906 0.08850888
0.09894877 0.07805571 0.028461985 -0.017952636 0.02170793 0.037558354 -0.10478492 -0.05976324
-0.089991786 -0.31343707 -0.022715053 0.03909224 -0.0070245266 -0.5318057 -0.12179395 -0.14829284
-0.015970781 -0.09267654 0.14193082 -0.056004006 -0.0766287 -0.10814096 -0.058530197 -0.0006766406
-0.04384351 -0.007915758 -0.08063993 -0.08087673 0.02213784 -0.43259284 -0.091066286 0.004580185
-0.10726206 -0.08210623 -0.8200138 -0.07150292 -0.04324398 -0.33755806 -0.15115687 -0.07699846
-0.063329265 -0.13189141 -0.14379999 -0.04617023 0.036255404 -0.0271886 0.07324954 -0.02453442
0.0419883 0.06917325 -0.033905983 0.010696784 0.0033818495 0.04113579 0.022069156 0.06415528
-0.052746303 0.15156282 -0.04227049 -0.1208213 -0.00021211058 -0.106566556 -0.19339432 0.045920376
0.10495569 0.06462044 -0.1807792 -0.06347236 -0.0067369686 0.080161884 -0.09068119 0.011287561
-0.36439332 0.07563274 0.06189798 -0.40486208 -0.22242643 0.10367346 -0.14396273 -0.010265906
-0.060444128 0.027869262 -0.19492668 0.024516419 0.048202045 0.033823512 -0.16035146 -0.06538057
-0.0155069 -0.44556263 -0.14103429 -0.008867302 -0.11067856 -0.2854673 -0.04237395 -0.097791426
-0.051041078 0.01125869 -0.043949723 0.064503334 0.037853464 -0.07330389 -0.032573324 -0.09264295
0.029782245 0.06874742 0.041907806 0.0257115 -0.09326305 -0.03959147 -0.2887229 -0.18874364
-0.12412095 -0.28511012 -0.24302913 -0.016305618 -0.16194202 0.086271815 0.031986814 -0.054059774
-0.18057594 -0.043957047 -0.10475454 -0.06900441 -0.0075995913 -0.18183775 0.036991544 0.10069931
0.08771171 -0.27208287 0.18424857 -0.033883344 -0.14437605 -0.14145598 -0.35414675 -0.073770784
0.08235513 -0.35916594 -0.3735985 0.047232557 -0.08968378 -0.022816692 -0.1292864 -0.10669225
-0.024349563 0.024250492 -0.0128964335 0.005785578 0.082766846 0.08408836 -0.109308355 -0.14677806
-0.04830401 -0.08098067 0.07333224 -0.021249117 -0.06286688 0.005805265 0.053244527 -0.04337652
0.02897948 -0.5926619 -0.052221525 -0.050320406 0.011828638 0.07793611 -0.20116875 -0.36344245
-0.1938157 0.0233663 -0.077804536 -0.07034323 -0.36305192 0.029947076 -0.15554827 -0.32511818
-0.19530725 0.027242182 -0.18194264 -0.13500586 -0.041449208 -0.10642746 -0.0436395 -0.013998869
-0.056430627 -0.07172369 -0.073296905 -0.1809808 -0.040863886 -0.11036473 -0.04628986 0.05070121
0.21772763 -0.0242493 -0.06422468 -0.21575831 -0.0806528 0.035440493 0.092584126 -0.048806526
-0.06209859 0.1104293 -0.030505965 -0.028565243 -0.07248892 0.09885424 0.0066523515 -0.07177305
0.07909571 -0.14467396 0.001783359 -0.16384791 0.050770476 -0.48897484 -0.011418906 0.0316938
-0.16733581 0.014390754 -0.02722213 -0.121001445 -0.31008494 0.02761549 -0.16422303 -0.008429515
0.0486014 0.02328761 0.024592703 -0.0576763 -0.03278838 -0.46454516 -0.051039122 -0.07119627
00000000: 9cd3 1fbe a93f e7bd 40ac d4bd 80e3 c2bd
00000010: 0300 a93d d90b 293c f4f6 fbbd 1574 9dbd
00000020: 37ca 1cbd 1bd3 c33d 1c64 a3bd 40d3 eebd
00000030: 5464 f6bd 8980 bebd b6ae d6bc a140 b73d
00000040: d7d9 a43c d86b 8abc 2068 083c c425 7bbd
00000050: ad90 7dbd e874 0abd 4fcc 8c3d 2544 b53d
00000060: a7a5 ca3d acdb 9f3d 1c29 e93c 6811 93bc
00000070: d4d4 b13c cad6 193d 7a99 d6bd 4dca 74bd
00000080: 9d4d b8bd d37a a0be eb14 babc 2f1f 203d
00000090: 002e e6bb 6b24 08bf 1b6f f9bd 14da 17be
000000a0: 28d5 82bc 33cd bdbd 5056 113e 7564 65bd
000000b0: 82ef 9cbd 0279 ddbd 5cbd 6fbd 9560 31ba
000000c0: 4195 33bd 18b1 01bc 8c26 a5bd b3a2 a5bd
000000d0: 6a5a b53c cf7c ddbe f680 babd 6015 963b
000000e0: 36ac dbbd 5027 a8bd 6dec 51bf 1f70 92bd
000000f0: 9920 31bd 69d4 acbe dec8 1abe 5eb1 9dbd
00000100: c6b2 81bd 8b0e 07be 4e40 13be ff1c 3dbd
00000110: 8c80 143d a0ba debc db03 963d 68fc c8bc
00000120: ecfb 2b3d b4aa 8d3d 00e1 0abd 9041 2f3c
00000130: 05a2 5d3b 017e 283d 60ca b43c d863 833d
00000140: 820c 58bd 4933 1b3e d223 2dbd 2871 f7bd
00000150: 006a 5eb9 913f dabd 2909 46be 0117 3c3d
00000160: 02f3 d63d b957 843d 2f1e 39be ccfd 81bd
00000170: cac1 dcbb ea2b a43d 0fb7 b9bd 76ef 383c
00000180: c391 babe 57e5 9a3d bc88 7d3d 154a cfbe
00000190: c1c3 63be c052 d43d f76a 13be 5532 28bc
000001a0: 4394 77bd 144e e43c dc9a 47be a8d6 c83c
000001b0: 826f 453d 868a 0a3d 2c33 24be 40e6 85bd
000001c0: a710 7ebc c920 e4be 4b6b 10be 2948 11bc
000001d0: 71ab e2bd c528 92be 4f90 2dbd df46 c8bd
000001e0: 7310 51bd 5e76 383c a004 34bd 531a 843d
000001f0: 3c0c 1b3d 5a20 96bd 9b6b 05bd 96bb bdbd
00000200: e5f9 f33c 73cb 8c3d 85a7 2b3d eca0 d23c
00000210: b300 bfbd aa2a 22bd 7dd3 93be 0346 41be
00000220: 2033 febd f4f9 91be a1dc 78be 5c93 85bc
00000230: 21d4 25be 47af b03d 9b04 033d c86d 5dbd
00000240: e6e8 38be 4e0c 34bd 8c89 d6bd 2f52 8dbd
00000250: fe05 f9bb ad33 3abe 7284 173d 713b ce3d
00000260: 32a2 b33d 724e 8bbe a8ab 3c3e 43c9 0abd
00000270: 51d7 13be d6d9 10be b952 b5be 2315 97bd
00000280: cea9 a83d 99e4 b7be 4d48 bfbe ed76 413d
00000290: 21ac b7bd 12ea babc a763 04be 7781 dabd
000002a0: bc78 c7bc f8a8 c63c 904b 53bc f294 bd3b
000002b0: aa81 a93d 8536 ac3d 0fdd dfbd fd4c 16be
000002c0: 6dda 45bd 32d9 a5bd 372f 963d a112 aebc
000002d0: 5ac0 80bd 183a be3b ef16 5a3d 94ab 31bd
000002e0: 6066 ed3c b1b8 17bf 3de6 55bd c51c 4ebd
000002f0: e7cc 413c f89c 9f3d 2eff 4dbe 2115 babe
00000300: 9f77 46be af6a bf3c fc57 9fbd 1d10 90bd
00000310: f1e1 b9be 9253 f53c 0c48 1fbe e475 a6be
00000320: a0fe 47be ff2a df3c 2c4f 3abe fa3e 0abe
00000330: a5c6 29bd a4f6 d9bd 55bf 32bd 835b 65bc
00000340: cd23 67bd dfe3 92bd b01c 96bd 0853 39be
00000350: e460 27bd e706 e2bd 709a 3dbd 12ac 4f3d
00000360: fef3 5e3e 78a6 c6bc 3b88 83bd bfef 5cbe
00000370: 4c2d a5bd 0d2a 113d bf9c bd3d 5ae9 47bd
00000380: 175b 7ebd c228 e23d a5e7 f9bc a801 eabc
00000390: 1275 94bd 1774 ca3d f8fb d93b c0fd 92bd
000003a0: eefc a13d 6925 14be 99bf e93a bfc7 27be
000003b0: b4f4 4f3d e95a fabe 5d16 3bbc 5cd1 013d
000003c0: 145a 2bbe 32c7 6b3c f200 dfbc 9bcf f7bd
000003d0: 74c3 9ebe e139 e23c 152a 28be f31b 0abc
000003e0: 4312 473d a8c5 be3c a376 c93c fc3d 6cbd
000003f0: 1c4d 06bd ddd8 edbe 660e 51bd 5acf 91bd

fc3.bias f4 [50]
-1.0351853 -0.43240222 -0.5321328 -0.5316106 -0.1629129 -0.5145399 -0.937117 -0.2311914
-0.7945077 -0.7008569 -0.7824779 -0.73781127 -0.5559353 -1.3893471 -0.5573296 -0.8164336
-0.46578845 -0.33892062 -0.6711931 -1.0656813 -0.33753198 -0.5721812 -0.7140258 -0.6056722
-0.4080877 -0.98101026 -0.372662 -0.66808647 3.9391558 -1.1314954 -0.8888907 -0.7222688
1.584526 -0.9333074 -1.0521493 -0.68308467 -0.9452582 -0.5673417 -0.9708645 -0.2526747
-0.48256087 -0.7876163 -0.37455177 -0.53758204 -0.29441288 4.200379 -0.44436342 -0.970993
-0.5718337 -0.7987758
00000000: f480 84bf d363 ddbe db39 08bf a217 08bf
00000010: a4d2 26be e3b8 03bf e6e6 6fbf 70bd 6cbe
00000020: db64 4bbf 5c6b 33bf 7950 48bf 33e1 3cbf
00000030: c751 0ebf 20d6 b1bf 27ad 0ebf cb01 51bf
00000040: d37b eebe 0187 adbe 50d3 2bbf 3f68 88bf
00000050: fed0 acbe 787a 12bf 65ca 36bf 550d 1bbf
00000060: dff0 d0be 7d23 7bbf 8ecd bebe b707 2bbf
00000070: 211b 7c40 d7d4 90bf 578e 63bf 9ce6 38bf
00000080: bfd1 ca3f 3ced 6ebf d4ac 86bf a3de 2ebf
00000090: 71fc 71bf 4e3d 11bf 938a 78bf 945e 81be
000000a0: 3812 f7be 39a1 49bf 40c5 bfbe fa9e 09bf
000000b0: 49bd 96be 8169 8640 9a83 e3be ff92 78bf
000000c0: b263 12bf 927c 4cbf

fc4.weight f4 [1, 50]
-0.1499828 -0.06619499 -0.013516597 -0.10914054 0.11427407 -0.054535538 0.0835374 -0.07895096
-0.08698731 0.028722448 0.112547375 0.13829286 -0.06266289 0.06479631 0.063918084 -0.09073657
-0.074907556 0.08189282 0.0893494 -0.11336081 0.09042505 -0.09241132 -0.06757252 0.04811062
-0.073951766 -0.03957963 0.048964206 0.08467816 -0.0136414645 0.0043754913 -0.04440562 -0.040170655
0.009404941 0.12008098 -0.015185876 0.048022788 -0.014827477 -0.1080365 0.03590087 0.117004685
-0.006367232 0.17531675 -0.019772366 -0.12498694 0.10602561 0.013253342 -0.04902922 0.11240046
0.07719355 0.07569422
00000000: 1795 19be 3d91 87bd b874 5dbc 1385 dfbd
00000010: 8608 ea3d a860 5fbd a815 ab3d 0ab1 a1bd
00000020: 6726 b2bd 574b eb3c 3d7f e63d a59c 0d3e
00000030: 6755 80bd eeb3 843d 7ce7 823d 18d4 b9bd
00000040: 2269 99bd 6cb7 a73d d1fc b63d b629 e8bd
00000050: c530 b93d 2542 bdbd 7663 8abd a40f 453d
00000060: 0674 97bd 401e 22bd b18e 483d be6b ad3d
00000070: 7380 5fbc 4860 8f3b abe2 35bd fc89 24bd
00000080: 2f17 1a3c 04ed f53d 2ece 78bc 8bb3 443d
00000090: f2ee 72bc 3e42 ddbd ca0c 133d 27a0 ef3d
000000a0: 37a4 d0bb 3c86 333e a8f9 a1bc 27f9 ffbd
000000b0: f423 d93d 8c24 593c ddd2 48bd 3632 e63d
000000c0: a717 9e3d 9205 9b3d
