Results/BS_1024_EP_2000_TMAX_1000_NOISE_0.01/checkpoint_critic.pth (torch_old, 72817 bytes, 7 tensors)

fc1.weight f4 [100, 26]
0	0x3e409612	0.18807247
1	0x3e87796d	0.26459828
2	0xbe243854	-0.16037112
3	0xbdbd07fc	-0.092300385
4	0xbeaf2864	-0.34210503
5	0xbe1fb5c7	-0.15596686
6	0xbb3a5525	-0.0028432098
7	0x3e5481be	0.20752618
8	0x3e0f56a5	0.13997896
9	0x3e49c068	0.19702303
10	0xbd9fc9ad	-0.078021385
11	0xbe0f16e1	-0.13973571
12	0xbe8da2ad	-0.27663174
13	0xbe52dd25	-0.20592172
14	0xbdcbf90a	-0.0995961
15	0xbdc059ec	-0.09392151
16	0x3e230433	0.1591957
17	0x3d93d6de	0.07218717
18	0xbdf31f17	-0.11871164
19	0xbdfc5724	-0.12321308
20	0x3e67754b	0.22603337
21	0x3eb1e23b	0.34742913
22	0xbcd5f5ab	-0.02611812
23	0x3ddf1e4c	0.108944505
24	0x3e31ef1c	0.17376369
25	0x3eb051e4	0.34437478
26	0x3e9d611e	0.30738157
27	0xbe126c00	-0.14299011
28	0xbdb4cd2b	-0.08828195
29	0xbecdfcee	-0.40232033
30	0xbe929ec8	-0.28636765
31	0x3ebfb334	0.3744141
32	0xbdbc4a0b	-0.0919381
33	0xbee2ca35	-0.44294897
34	0x3dca89c5	0.09889559
35	0xbdaef446	-0.08542685
36	0xbe0116ef	-0.12606405
37	0x3c0ea840	0.008707106
38	0xbc862c96	-0.016378682
39	0x3e8a41f7	0.27003452
40	0xbaa66d47	-0.0012697362
41	0xbe8555a8	-0.26041913
42	0x3e96c028	0.2944348
43	0xbab8f191	-0.0014110078
44	0xbdbe85ac	-0.0930284
45	0xbe24b0e3	-0.16083102
46	0x3a66b477	0.0008800695
47	0x3eeb8e15	0.46006837
48	0xbd1cde17	-0.03829774
49	0xbd88d06a	-0.06680377
50	0x3e2856cd	0.16439362
51	0x3e434bb1	0.19071843
52	0x3dab9cb1	0.08379496
53	0xbef9ab0b	-0.48763308
54	0x3de3f83e	0.11131333
55	0x3df8db2d	0.121511795
56	0xbbb009ac	-0.0053722467
57	0xbe8dc51f	-0.27689454
58	0xbe1fd9e1	-0.15610458
59	0x3e0aee42	0.1356745
60	0x3e5ecea1	0.2175851
61	0xbeb9a9cd	-0.3626236
62	0xbdffa124	-0.12481907
63	0x3e19f316	0.15034136
64	0x3e76fb6b	0.24119346
65	0xbe12bbfe	-0.14329526
66	0xba982b4b	-0.0011609582
67	0x3e0bcfc8	0.13653481
68	0x3ee1fbdd	0.4413747
69	0xbd51090c	-0.05103402
70	0xbe14bbec	-0.14524812
71	0x3d8fca72	0.07021035
72	0x3f13effe	0.57788074
73	0x3cfe3929	0.031033115
74	0x3e34c84b	0.1765453
75	0x3ea15801	0.31512454
76	0xbd835cd0	-0.06414187
77	0xbe2bc01e	-0.16772506
78	0x3e80702b	0.25085577
79	0xbe74f74f	-0.23922466
80	0xbe17000d	-0.14746113
81	0x3e5f34b3	0.21797447
82	0x3e46da00	0.19419098
83	0xbe801217	-0.250138
84	0x3d937d63	0.0720165
85	0x3c2f1e47	0.010688371
86	0x3d590bc2	0.05298973
87	0xbedaa20f	-0.42701766
88	0xbd0115b4	-0.03151484
89	0xbe2913fb	-0.16511528
90	0x3dd7ffc5	0.10546831
91	0x3d0f6d38	0.03501627
92	0x3d090f8e	0.0334621
93	0x3cc7acc5	0.024374375
94	0xbe5bd30d	-0.21467228
95	0xbf064487	-0.52448314
96	0x3cfee8cf	0.031116871
97	0x3e719448	0.23591721
98	0xbe19ddbc	-0.15025991
99	0xbeed5016	-0.46350163
100	0x3df107b7	0.117690496
101	0x3ea76ee9	0.32701805
102	0x3ec53fc4	0.38525212
103	0x3e4b6955	0.198644
104	0xbe801326	-0.2501461
105	0x3c2dc30a	0.010605583
106	0xbdcdf941	-0.10057307
107	0xbe345142	-0.17609122
108	0x3ec4efae	0.3846411
109	0xbd850191	-0.064944394
110	0xbd0800b8	-0.03320381
111	0x3dbb8150	0.09155524
112	0xbe347109	-0.17621244
113	0x3e9982b6	0.29982537
114	0x3d898638	0.06715053
115	0xbe384892	-0.17996433
116	0x3dec0e52	0.11526169
117	0xbe5bc284	-0.2146092
118	0xbd1e3f40	-0.03863454
119	0x3d02ca1d	0.03193103
120	0x3d659bdf	0.056056853
121	0x3e6c16ef	0.23055623
122	0xbd8661f2	-0.0656165
123	0x3c95234f	0.018205313
124	0xbf19abd9	-0.60027844
125	0xbe77e2e3	-0.24207644
126	0xbc9bcfb7	-0.019019945
127	0xbe2e358f	-0.17012618
128	0x3e814f7d	0.25255957
129	0xbdc9c7a9	-0.09852535
130	0x3da5a793	0.08088603
131	0x3ef9fba7	0.48824808
132	0xbde04207	-0.10950094
133	0x3ec2f219	0.3807533
134	0x3df9df0e	0.122007474
135	0x3e96090e	0.29303783
136	0x3cc242cc	0.023713492
137	0x3ebf6fbd	0.37389937
138	0x3dc7eb5b	0.09761687
139	0x3f3835cf	0.71957105
140	0x3e39f997	0.18161617
141	0x3e0bbbfd	0.1364593
142	0x3e1c3e40	0.15258121
143	0x3d456543	0.048192274
144	0xbe38a847	-0.18032943
145	0xbda6029e	-0.08105968
146	0x3e61f881	0.22067453
147	0x3f20ec2c	0.6286037
148	0xbd826820	-0.063675165
149	0xbded1f93	-0.11578288
150	0xbe90944e	-0.28238147
151	0xc010798b	-2.2574184
152	0xbbc3d40b	-0.005976205
153	0x3e117671	0.14205338
154	0x3e4188cc	0.1889984
155	0x3efcebde	0.49398702
156	0x3d76a17d	0.0602126
157	0xbd337d57	-0.043820705
158	0x3bffe412	0.0078091705
159	0xbe005262	-0.12531427
160	0xbbd3beee	-0.0064619696
161	0xbdddb446	-0.108254
162	0xbe01c167	-0.12671433
163	0xbe5c4aec	-0.21512955
164	0x3dfb6400	0.12274933
165	0x3e839763	0.25701436
166	0xbdd5a0da	-0.104310706
167	0xbd2f40d3	-0.04278643
168	0xbe8f126c	-0.27943742
169	0xbe2004b7	-0.15626799
170	0x3e2105ea	0.15724912
171	0xbe4960b1	-0.19665791
172	0x3ed94efa	0.42443067
173	0x3ea22660	0.31669903
174	0xbe11de3a	-0.14244929
175	0x3dee2e2d	0.11629901
176	0xbecee207	-0.4040682
177	0xbda29ede	-0.07940458
178	0x3e43f499	0.19136275
179	0xbe2a40ec	-0.16626328
180	0x3e79c2b7	0.24390684
181	0x3e9b1822	0.3029185
182	0x3e90d18c	0.28284872
183	0xbe6d7608	-0.23189557
184	0x3db3e8a3	0.08784606
185	0x3e7422d2	0.23841408
186	0xbd97d90a	-0.07414444
187	0xbe30d7b8	-0.1726979
188	0xbe2c0932	-0.16800383
189	0x3e8d0392	0.27541786
190	0x3e85a7c3	0.26104555
191	0x3cf78431	0.030214401
192	0xbde50916	-0.11183374
193	0x3e76e068	0.24109042
194	0xbe129253	-0.14313631
195	0xbecd428d	-0.40089837
196	0xbdb3c3c0	-0.08777571
197	0x3e99465e	0.29936498
198	0xbb0e078b	-0.0021671976
199	0x3c8cb67a	0.017176855
200	0x3d86f4d9	0.0658967
201	0x3ecf770d	0.40520516
202	0xbe79c2b3	-0.24390678
203	0xbf250025	-0.64453346
204	0xbd66533b	-0.05623172
205	0x3ed504e1	0.41605285
206	0x3d8eb1fc	0.069675416
207	0x3dd13f0a	0.10217102
208	0x3e1082fc	0.14112467
209	0x3ddcfe98	0.107907474
210	0xbcc9eda0	-0.024649441
211	0xbd112772	-0.03543801
212	0xbda94f1a	-0.082670406
213	0xbe51d137	-0.20489965
214	0xbcc941ea	-0.024567563
215	0x3ce8458f	0.02835348
216	0xbdae63fa	-0.08515163
217	0xbdd1fa4d	-0.10252819
218	0x3daafcdf	0.083490126
219	0xbe73a2cf	-0.23792575
220	0xbd032bb7	-0.03202411
221	0x3e555a6c	0.20835274
222	0xbb8404ce	-0.004028893
223	0xbd95f2b3	-0.07321682
224	0xbdc970c2	-0.0983596
225	0x3d875bc8	0.06609303
226	0xbdcc928d	-0.0998889
227	0xbc7aef01	-0.015315772
228	0x3d40f4fc	0.047108635
229	0x3e70f898	0.23532331
230	0x3d2bcf63	0.041945826
231	0x3e4ef68c	0.20211238
232	0x3e9101a2	0.28321558
233	0x3ddfbea0	0.10925031
234	0x3e9356cd	0.2877716
235	0x3f12b32a	0.5730463
236	0x3d2741bd	0.040834177
237	0xbdb5016f	-0.08838164
238	0x3da736b3	0.0816473
239	0x3e3ed7e8	0.18637049
240	0x3c906ea0	0.017630875
241	0x3e4a1ee4	0.19738346
242	0xbc611e3d	-0.0137401195
243	0x3f2e21e7	0.6802048
244	0x3cf394ff	0.029734133
245	0xbe634bb5	-0.22196849
246	0x3e6ba79f	0.23013161
247	0xbe66aa1f	-0.22525834
248	0xbd8c5875	-0.06852809
249	0xbd8672ef	-0.065648906
250	0xbbd1901c	-0.006395353
251	0x3f17f9a6	0.5936531
252	0x3e277fd0	0.1635735
253	0x3d8fba6b	0.07017978
254	0xbe61f3f6	-0.2206572
255	0xbeb433ed	-0.35195866

fc1.bias f4 [100]
0	0x3e3c6a90	0.18400025
1	0xbea96174	-0.33082163
2	0xbf1d0275	-0.61331874
3	0xbe18d96a	-0.14926687
4	0xbe12709f	-0.14300774
5	0x3ebd00f4	0.3691479
6	0xbe0d8946	-0.13821897
7	0xbe6dbffb	-0.23217766
8	0xbe9ae1d6	-0.30250424
9	0xbe4e7814	-0.20162994
10	0xbe8ee7a7	-0.27911112
11	0xbe3949a6	-0.18094501
12	0xbe7f6af8	-0.24943149
13	0xbe325c35	-0.17417987
14	0xbe880ed7	-0.26573822
15	0xbeb663e6	-0.3562309
16	0xbe01d898	-0.1268028
17	0xbec71198	-0.3888061
18	0xbd6561e4	-0.05600156
19	0x3dc299e3	0.09502008
20	0xbda978b8	-0.082749784
21	0x3db74378	0.089484155
22	0x3e0288b1	0.12747456
23	0x3e1ddbce	0.1541588
24	0xbe3b2802	-0.1827698
25	0xbe80e900	-0.25177765
26	0x3bac231b	0.0052532083
27	0xbde17921	-0.11009432
28	0xbd8e44aa	-0.069466904
29	0xbc960592	-0.018313203
30	0xbe4978e2	-0.1967502
31	0xbe2a39f8	-0.16623676
32	0xbe936f85	-0.2879602
33	0xbe53ff3b	-0.20702831
34	0xbe5b68b6	-0.21426663
35	0x3e5608e5	0.2090183
36	0x3c94c6a4	0.018161125
37	0x3d89de0c	0.06731805
38	0x3cdfca1d	0.027318055
39	0x3da29213	0.07938018
40	0xbe6a693a	-0.22891703
41	0xbd36133d	-0.04445194
42	0xbe050f1c	-0.12994045
43	0xbd617b75	-0.05504938
44	0x3c082e3e	0.008311806
45	0x3e4c8389	0.19972052
46	0xbd8e751a	-0.06955929
47	0xbcb78af8	-0.022405133
48	0x3d8ed28e	0.06973754
49	0x3ccfdc55	0.025373617
50	0xbc750037	-0.0149536645
51	0xbd5f0367	-0.054446604
52	0xbd221ebd	-0.039580096
53	0xbe640a68	-0.22269595
54	0x3e1c3dc6	0.1525794
55	0xbd970dbb	-0.07375666
56	0xbd257245	-0.04039218
57	0xbe0d4af5	-0.13798125
58	0x3e1865a8	0.14882529
59	0x3e28eaa3	0.16495757
60	0xbe358084	-0.17724806
61	0xbd1e5236	-0.03865262
62	0xbee77a52	-0.4521051
63	0xbe02e5d4	-0.12782985
64	0xbcf23838	-0.029567823
65	0xbc23da56	-0.010000786
66	0xbe22cb9a	-0.1589798
67	0x3d62bc9d	0.055355657
68	0xbde7384d	-0.112900354
69	0x3e06d172	0.13165835
70	0x3daa71bd	0.08322475
71	0x3d4ad7b7	0.049522128
72	0xbdfc1c33	-0.12310066
73	0x3dbeab63	0.09310033
74	0xbec5ed2e	-0.38657516
75	0x3d2e5145	0.042557973
76	0x3e356a38	0.177163
77	0xbd911f9c	-0.07086107
78	0xbd2035bc	-0.039113745
79	0x3ba1ff7b	0.0049437857
80	0x3c12ca4f	0.008959367
81	0xbed5abd5	-0.4173266
82	0xbdc8da16	-0.098072216
83	0xbd962e7b	-0.07333084
84	0xbe9ec510	-0.31009722
85	0xbe0aede3	-0.13567309
86	0xbec5868f	-0.38579223
87	0xba020533	-0.0004959881
88	0x3e105789	0.14095892
89	0xbe5412f9	-0.20710362
90	0x3e51ca93	0.20487432
91	0xbd0a9f42	-0.033843286
92	0xbdaaad0f	-0.083337896
93	0xbdeb7875	-0.11497585
94	0xbdbf1cab	-0.0933164
95	0x3cf1ec9d	0.029531771
96	0x3e27e453	0.16395693
97	0xbe0bc447	-0.13649093
98	0xbc7e723d	-0.015530166
99	0x3d7f8dfb	0.062391263

fc2.weight f4 [100, 100]
0	0x3d3e9763	0.046531092
1	0x3e09156a	0.13387075
2	0xbd8d894e	-0.069109544
3	0xbedc9e85	-0.4308969
4	0xbe7d8ffb	-0.24761955
5	0xbf45c1f3	-0.7724907
6	0xbe2edc2c	-0.17076176
7	0x3c4f4cae	0.012652559
8	0x3d534a23	0.051584374
9	0x3c93ae74	0.018027522
10	0xbd1cecf6	-0.03831192
11	0xbdea2f4b	-0.11434802
12	0x3d57aa29	0.05265251
13	0xbd83f72e	-0.0644363
14	0xbe638e4f	-0.22222255
15	0xbe582e47	-0.21111403
16	0xbd54f6af	-0.05199307
17	0xbd9bac53	-0.076012276
18	0xbcf6cb0c	-0.030126117
19	0xbcf1f196	-0.029534142
20	0xbdd5247a	-0.10407348
21	0x3e1b9eee	0.15197346
22	0xbe8fa636	-0.28056496
23	0x3e953ed3	0.29149494
24	0x3dcf22a2	0.101140276
25	0xbd755896	-0.059898935
26	0xbd948b89	-0.07253177
27	0x3d76f858	0.060295433
28	0x3d21b1f8	0.039476365
29	0x3ed1e95c	0.40998352
30	0xbf335735	-0.7005494
31	0x3d823323	0.0635741
32	0xbea85f0b	-0.32885012
33	0xbdbeca0f	-0.09315883
34	0x3d0b3f7e	0.033996098
35	0xbeb8d095	-0.36096635
36	0xbdc62aa6	-0.09676103
37	0xbe1d59ef	-0.15366338
38	0x3cd0b761	0.025478067
39	0x3c3a8b17	0.011385701
40	0x3dac01b0	0.08398759
41	0xbdf241a3	-0.118289255
42	0xbe398831	-0.18118359
43	0x3edf7196	0.43641347
44	0x3d486471	0.048923913
45	0x3dbd30c0	0.09237814
46	0xbd0ad8ca	-0.033898152
47	0xbc30fda1	-0.010802657
48	0x3d98088e	0.07423507
49	0xbe3595dd	-0.1773295
50	0xbd4dd9c0	-0.05025649
51	0x3d990f16	0.074735805
52	0xbd9d7410	-0.07688153
53	0x3df2f958	0.11863965
54	0xbe56d59e	-0.20979926
55	0x3c324383	0.010880354
56	0xbf304c20	-0.6886616
57	0x3e0df7b4	0.13864022
58	0xbd2908f8	-0.04126832
59	0xbe91e569	-0.2849534
60	0xb9ccb1ce	-0.00039042387
61	0xbea259ca	-0.3170913
62	0x3d781564	0.060567275
63	0x3d864470	0.06556022
64	0x3dbc2ecc	0.09188613
65	0x3d305f08	0.04305938
66	0xbec306b0	-0.3809104
67	0x3c54f67f	0.012998222
68	0xbe20d6fb	-0.15707009
69	0x3d861b19	0.06548137
70	0xbe2df812	-0.16989163
71	0x3dc17e6b	0.094479404
72	0xbe5ad2f4	-0.21369535
73	0x3c2af455	0.01043423
74	0x3d93348d	0.07187758
75	0x3bc4dd1b	0.006007803
76	0x3d9a4f4a	0.075346544
77	0x3d97c0f3	0.07409849
78	0x3c66f642	0.014096798
79	0x3e301a1d	0.17197461
80	0x3a44f3ea	0.00075131527
81	0x3e69ed46	0.22844419
82	0x3db23571	0.087015994
83	0xbf375cc0	-0.716259
84	0xbe79dac7	-0.24399863
85	0xbded4d85	-0.11587051
86	0xbe6f0df8	-0.23345172
87	0xbf0d6a88	-0.5524068
88	0xbea19f17	-0.31566688
89	0x3d45ebfe	0.048320763
90	0xbe51a838	-0.20474327
91	0x3e1a18f0	0.15048575
92	0xbd9254cc	-0.0714508
93	0xbde76d69	-0.11300165
94	0x3e4a006b	0.19726722
95	0x3d4eb82f	0.05046862
96	0x3d295fde	0.04135119
97	0xbce455ee	-0.027873006
98	0x3e437219	0.19086494
99	0xbed7b766	-0.4213211
100	0x3c7e6214	0.015526313
101	0xbe61ee47	-0.22063552
102	0x3e784358	0.2424444
103	0xbdeaf919	-0.11473293
104	0xbe379e7e	-0.17931554
105	0xbe3eb1de	-0.18622538
106	0xbd93bbe2	-0.0721357
107	0xbbe1e6af	-0.0068939547
108	0xbc354206	-0.0110631045
109	0xbdbe8495	-0.09302632
110	0x3c23c517	0.00999572
111	0xbda7a9da	-0.081866935
112	0x3dd64d77	0.10463994
113	0xbc9f07d9	-0.019412922
114	0xbe85f855	-0.26166025
115	0xbc963b59	-0.018338846
116	0xbf3dbe8e	-0.7411889
117	0xbe24a000	-0.1607666
118	0x3da72783	0.08161833
119	0xbd123e79	-0.03570411
120	0x3c9c04f5	0.019045332
121	0x3ddad3a0	0.106848955
122	0xbdd95ad1	-0.10613025
123	0x3ea62aa6	0.32454413
124	0x3e4f68d8	0.20254838
125	0x3d761ef7	0.060088124
126	0xbda1fadc	-0.07909176
127	0xbd1ad4bd	-0.03780054
128	0xbe0f8c6c	-0.1401841
129	0xbd045b7e	-0.032313816
130	0xbd086708	-0.033301383
131	0x3d79cc26	0.060985707
132	0x3d73bea4	0.05950798
133	0x3e10bd7e	0.14134786
134	0xbda9bde6	-0.082881734
135	0xbc336a71	-0.010950671
136	0xbdb4dc16	-0.088310406
137	0x3ce27049	0.027641432
138	0x3cef2085	0.029190311
139	0x3e59cd62	0.21269754
140	0xbdd3345c	-0.10312721
141	0xbe969397	-0.29409477
142	0xbf5af229	-0.8552576
143	0x3d815c53	0.063164376
144	0xbe03b5a5	-0.1286226
145	0xbe408e91	-0.18804385
146	0xbdb2d92f	-0.08732831
147	0xbce387f8	-0.027774796
148	0xbe4bd7ec	-0.19906586
149	0xbe5fc101	-0.21850969
150	0xbbe04966	-0.0068446873
151	0x3e256453	0.16151552
152	0xbecdbc35	-0.40182653
153	0xbe161972	-0.14658144
154	0xbe1393bc	-0.14411825
155	0xbd217694	-0.039419726
156	0xbcb65211	-0.02225593
157	0xbe769ad0	-0.24082494
158	0xbd810704	-0.06300166
159	0x3ddeb412	0.108741894
160	0x3e108ca3	0.14116149
161	0x3e1e9684	0.15487105
162	0x3e0a0cf3	0.13481502
163	0x3ea5fff8	0.3242185
164	0x3dec3c5c	0.1153495
165	0xbdcaf650	-0.09910262
166	0x3e35607f	0.17712592
167	0xbd82bbac	-0.06383452
168	0xbd5eee39	-0.054426406
169	0x3d29a833	0.041420173
170	0x3c4d1276	0.012516608
171	0xbf8835f9	-1.0641471
172	0x3dbfaf2f	0.093595855
173	0xbeb9c080	-0.36279678
174	0xbe21fe1c	-0.15819591
175	0xbdf4b8da	-0.1194932
176	0x3ce4e8f4	0.027943112
177	0x3d8b39ed	0.06798158
178	0x3d9524f5	0.072824396
179	0xbe0e11cb	-0.13873975
180	0xbe303555	-0.17207845
181	0xbe1e94d3	-0.1548646
182	0x3d76669f	0.06015646
183	0x3d66432d	0.056216408
184	0x3d890770	0.06690872
185	0x3d1b47fc	0.037910447
186	0xbcc1f145	-0.023674617
187	0x3e8e670d	0.27812997
188	0xbc1c926b	-0.009556393
189	0x3dafe54e	0.08588658
190	0x3e0873a0	0.13325357
191	0x3dff4a2e	0.124653205
192	0x3e60ef77	0.21966349
193	0x3d82780c	0.063705534
194	0x3d3858d9	0.045006607
195	0x3e4b0965	0.19827802
196	0xbca95619	-0.020670937
197	0xbe26349f	-0.16231011
198	0x3d5c2ba7	0.053752568
199	0xbc87d578	-0.016581282
200	0x3e0b4a56	0.13602576
201	0x3d1f7dad	0.038938213
202	0xbdd5506e	-0.10415731
203	0x3d4d59c1	0.050134424
204	0xbe13c374	-0.14430028
205	0xbddd759e	-0.10813449
206	0x3d1e7ff6	0.03869625
207	0x3e067249	0.13129534
208	0xbde5e09d	-0.11224482
209	0xbdddba44	-0.10826543
210	0x3dcd9265	0.10037688
211	0xbe116992	-0.14200428
212	0x3c823930	0.01589641
213	0xbd8fd84a	-0.07023676
214	0xbe10bd4d	-0.14134713
215	0x3d227f6e	0.039672308
216	0xbccddabd	-0.025128717
217	0x3e43ed3a	0.19133464
218	0xbd8d770b	-0.06907471
219	0xbd96b1ef	-0.07358157
220	0xbdd23278	-0.102635324
221	0x3cdadec3	0.02671755
222	0xbe88ddf0	-0.26731825
223	0xbd0f0007	-0.034912135
224	0x3cf40fbb	0.029792657
225	0xbe319c1a	-0.17344704
226	0x3e481505	0.19539268
227	0x3ddb9c05	0.10723118
228	0x3e6fdee1	0.23424865
229	0x3ea429f1	0.3206325
230	0x3c1b1fd8	0.009468041
231	0xbdec3456	-0.1153342
232	0x3dd4cd6d	0.10390744
233	0x3d44104e	0.04786711
234	0xbe1495fe	-0.14510342
235	0xbbd08517	-0.006363522
236	0x3e08bf5f	0.13354252
237	0xbdd9cee1	-0.10635162
238	0x3e323c4d	0.17405815
239	0x3d7df54d	0.062001515
240	0xbe08c8dc	-0.13357872
241	0x3df18f52	0.11794914
242	0x3d217774	0.03942056
243	0x3e1fa2d8	0.15589464
244	0x3d86c9cf	0.06581461
245	0x3d6de10c	0.05807595
246	0x3d153958	0.03643164
247	0x3e17eb41	0.14835836
248	0xbe2dc42f	-0.1696937
249	0x3df4d653	0.119549416
250	0xbd9e38b4	-0.07725659
251	0xbe21b3b9	-0.15791215
252	0xbb9730fe	-0.0046139946
253	0xbe5106ed	-0.20412798
254	0xbe201711	-0.15633799
255	0xbd953f2b	-0.07287439

fc2.bias f4 [100]
0	0x3ddcf431	0.10788763
1	0xbcf35dd4	-0.029707827
2	0x3de431df	0.11142325
3	0xbe1d3abd	-0.15354438
4	0xbe19c9cc	-0.15018386
5	0x3dd2a501	0.10285378
6	0x3ae915f5	0.0017783033
7	0x3e2f57f1	0.1712339
8	0xbded07ee	-0.11573778
9	0xbd5603e9	-0.052249823
10	0x3c09f347	0.008419818
11	0x3e22e32a	0.15906969
12	0xbddcedc0	-0.10787535
13	0xbc271f6a	-0.010200361
14	0x3c4af9c1	0.0123886475
15	0xbe2d0bde	-0.16899058
16	0x3b78e5f7	0.0037978867
17	0xbdff54ee	-0.12467371
18	0xbcfc1241	-0.030770423
19	0x3c7daf72	0.015483724
20	0x3cfc5ebc	0.030806892
21	0xbd405dc2	-0.046964414
22	0xbcda218b	-0.026627323
23	0xbe0759f9	-0.13217916
24	0x3d8fdc75	0.07024471
25	0xbc2789e6	-0.010225749
26	0x3c5edd72	0.013602601
27	0x3e2e435a	0.1701788
28	0x3b8b5eed	0.0042532594
29	0xbd394ca7	-0.045239117
30	0xbe04ad72	-0.12956789
31	0x3c425b5a	0.0118626
32	0x3e11a1fa	0.14221945
33	0x3dd43a44	0.10362676
34	0xbda6c3b1	-0.08142794
35	0x3da2ad3c	0.07943198
36	0xbdc5a647	-0.096508555
37	0x3c51bd45	0.012801473
38	0xbddee3d0	-0.108832955
39	0xbdac0531	-0.08399428
40	0x3e3219e8	0.17392695
41	0xbcf1751f	-0.029474793
42	0xbdcd3041	-0.10018969
43	0xbd1b0ce0	-0.037854075
44	0xbd55836d	-0.05212729
45	0xbca16f9a	-0.019706536
46	0x3db68460	0.08911967
47	0x3deb40d5	0.11486975
48	0xbc3ab083	-0.011394623
49	0xbd81c4b1	-0.06336344
50	0x3cee326c	0.029076777
51	0x3c973ba4	0.018461056
52	0x3d263487	0.040577438
53	0x3e0eef11	0.13958384
54	0xbe2bc27a	-0.16773406
55	0xbdfadd88	-0.12249285
56	0x3daea1a0	0.08526921
57	0xbd0cf48c	-0.034412906
58	0xbe160fd8	-0.14654481
59	0x3d816a95	0.06319157
60	0xbd6e3085	-0.05815174
61	0xbd335ae0	-0.043787837
62	0x3df46f49	0.119352885
63	0x3e18af5c	0.14910644
64	0x3e0643fb	0.1311187
65	0x3dbe9dce	0.093074426
66	0x3c868442	0.016420487
67	0x3e66ccff	0.22539137
68	0x3dd079a8	0.10179454
69	0xbd9a56e0	-0.07536101
70	0x3d54ffbb	0.052001696
71	0x3d8658aa	0.0655988
72	0x3e3d6585	0.18495758
73	0x3df6bf04	0.12048152
74	0xbe6623ee	-0.22474644
75	0xbd1ebc92	-0.038754053
76	0x3c956cd9	0.01824038
77	0xbdcfd722	-0.10148455
78	0xbd9df7cc	-0.07713279
79	0xbd3da62d	-0.046301056
80	0xbd0f32db	-0.03496061
81	0xbd8231e0	-0.06357169
82	0x3ce84d83	0.028357273
83	0xbe818c70	-0.25302458
84	0xbd89ba2c	-0.067249626
85	0x3ca62a5d	0.020283872
86	0xbd943813	-0.07237258
87	0xbd88a57c	-0.06672189
88	0x3c37538d	0.011189354
89	0xbdcf64f1	-0.10126675
90	0xbc71304c	-0.0147209875
91	0xbc6b263c	-0.0143523775
92	0xbc658df8	-0.014010899
93	0x3c7585b1	0.014985488
94	0xbd042fdd	-0.03227221
95	0xba1835f1	-0.0005806378
96	0x3dd890dd	0.105745055
97	0xbd8b0215	-0.067875065
98	0xbdedccdc	-0.116113394
99	0x3d6c5cac	0.057705566

fc3.weight f4 [50, 100]
0	0xbd0d53ce	-0.03450375
1	0xbd98d5c1	-0.07462645
2	0x3d9eb7e0	0.07749915
3	0xbd5a05bb	-0.05322812
4	0x3df86952	0.12129463
5	0xbe849045	-0.2589132
6	0xbe87279f	-0.26397416
7	0xbdc351eb	-0.09537109
8	0xbce9aac2	-0.028523806
9	0x3d54b405	0.051929493
10	0xbd8ef032	-0.06979407
11	0x3ddd22a2	0.10797621
12	0xbd0fdbac	-0.035121605
13	0xbdbe8ee0	-0.09304595
14	0x3cecbacc	0.028897665
15	0xbe9e7d59	-0.30955008
16	0x3e140c8a	0.14457908
17	0xbe378cb7	-0.17924772
18	0x3c965e53	0.018355524
19	0xbeb4d725	-0.35320392
20	0xbed2c858	-0.41168475
21	0xbce66c55	-0.028127829
22	0x3db1d1fe	0.08682631
23	0xbf6a840d	-0.91607744
24	0x3e8d9961	0.2765608
25	0x3d30cd9d	0.043164838
26	0x3dda9f42	0.10674907
27	0xbeefacd9	-0.4681156
28	0x3cb34a57	0.021886034
29	0xbd8e0682	-0.06934835
30	0xbdd17f1e	-0.10229324
31	0x3dbc172c	0.09184107
32	0xbca27935	-0.019833187
33	0x3cf2389e	0.029568013
34	0x3d588f6e	0.05287116
35	0xbd89d2eb	-0.067296825
36	0xbeb9b276	-0.36268967
37	0xbdbfb281	-0.09360219
38	0x3e33f7a9	0.17574944
39	0xbd436771	-0.04770607
40	0x3d2d57cd	0.04232006
41	0xbef99ee1	-0.48754027
42	0x3dabf94b	0.08397158
43	0xbdf254c8	-0.11832577
44	0xbd3401ab	-0.043946903
45	0xbf492120	-0.7856617
46	0x3da54456	0.08069675
47	0xbeb7a3f7	-0.35867283
48	0xbeb09ce8	-0.3449471
49	0xbf0cba8a	-0.54972136
50	0xbf374b3e	-0.71599185
51	0xbe0eb016	-0.13934359
52	0x3e5e9914	0.21738082
53	0xbe1021db	-0.14075415
54	0xbd9ea220	-0.07745767
55	0x3cac92f0	0.021066159
56	0xbe510db9	-0.20415391
57	0xbe37fef7	-0.17968355
58	0xbe18acc2	-0.14909652
59	0x3d13106d	0.035904337
60	0xbe4eb557	-0.20186363
61	0xbc74f0a9	-0.014949956
62	0x3e21668e	0.15761778
63	0xbe10f573	-0.14156131
64	0x3ddcec35	0.107872404
65	0x3dcb608f	0.099305265
66	0xbed4549f	-0.4147081
67	0xbef22db5	-0.47300497
68	0x3e110143	0.14160638
69	0x3dfff5a6	0.124980256
70	0x3db6c7ca	0.089248255
71	0x3e0eb97c	0.13937944
72	0x3deb4ecc	0.11489639
73	0xbdb6be4a	-0.089230135
74	0xbe696b3c	-0.22794813
75	0x3c2f4190	0.010696784
76	0x3df3050c	0.11866197
77	0xbf207c29	-0.62689453
78	0x3cb4ca60	0.022069156
79	0x3d22bb01	0.039729122
80	0x3d028402	0.031864174
81	0xbe4c235e	-0.19935367
82	0xbc2726a8	-0.010202087
83	0xbd0e8223	-0.034792077
84	0xbf17403f	-0.59082407
85	0xbdc93c45	-0.098259486
86	0xbd868c79	-0.06569762
87	0x3dd06e8f	0.101773374
88	0x3daabd4c	0.08336887
89	0x3d4be6e5	0.049780745
90	0x3ce2b36d	0.027673448
91	0xbcfab3b3	-0.030603265
92	0xbe4e4824	-0.20144707
93	0x3d5020fe	0.050812714
94	0xbe4214da	-0.18953267
95	0xbe00c497	-0.12574993
96	0xbca93f80	-0.020660162
97	0x3d9ae557	0.07563274
98	0x3d2dff4e	0.042479806
99	0xbecd7624	-0.40129197
100	0x3dad1a7e	0.084523186
101	0x3e030e96	0.12798533
102	0x3dfac87e	0.12245272
103	0x3c4b670d	0.012414706
104	0x3d83475c	0.06410095
105	0x3dce06e4	0.10059908
106	0xbdc42ce3	-0.09578874
107	0x3e155958	0.14584863
108	0x3da09730	0.07841337
109	0xbe226497	-0.15858684
110	0x3def770d	0.11692629
111	0xbe1ec49f	-0.15504692
112	0xbd0aec60	-0.03391683
113	0xbe950817	-0.29107735
114	0xbdcd7d63	-0.10033681
115	0x3e1046a7	0.14089452
116	0xbf4aa05f	-0.79150957
117	0xbe077b78	-0.13230693
118	0xbda1c752	-0.078993455
119	0x3e53c558	0.2068075
120	0x3c9a21c9	0.018814938
121	0xbe430f27	-0.19048749
122	0xbf9bfc2d	-1.2186333
123	0x3e96302f	0.29333636
124	0xbba4bb0d	-0.005027181
125	0x3bd14dd2	0.0063874507
126	0xbe3d9ce5	-0.18516882
127	0xbb870290	-0.0041201785
128	0xbd807f8a	-0.06274326
129	0xbdc45163	-0.09585836
130	0x3d284fa6	0.041091584
131	0x3d43164a	0.04762868
132	0xbb2c5e5f	-0.0026301367
133	0xbbd67d84	-0.0065457243
134	0x3d1625aa	0.036657013
135	0xbcd4ece9	-0.025991874
136	0xbea398d1	-0.31952527
137	0xbcb7a945	-0.022419581
138	0xbf193dfe	-0.5986022
139	0xbd8617c9	-0.065475054
140	0xbd96bf65	-0.07360724
141	0x3f00ebb5	0.5035966
142	0xbc9a2f1c	-0.018821292
143	0x3c94fa3c	0.018185727
144	0x3b06f218	0.0020591076
145	0x3e051371	0.12995698
146	0x3c6ff04d	0.0146446945
147	0x3d614892	0.05500085
148	0x3d8d78e4	0.06907824
149	0x3eca928c	0.3956493
150	0x3e63f31d	0.22260709
151	0x3d9ca592	0.076487675
152	0x3df18d64	0.11794546
153	0xbd70aee8	-0.058760554
154	0x3d89f0fb	0.067354165
155	0xbf1dec8f	-0.61689085
156	0xbd245948	-0.040124208
157	0x3e10e28f	0.14148925
158	0xbd808e32	-0.062771216
159	0x3cd3c224	0.02584941
160	0x3e8b99ac	0.2726568
161	0xbdb520fb	-0.08844181
162	0xbe13bd29	-0.14427628
163	0xbedddf4a	-0.4333442
164	0xbd2e34c1	-0.04253078
165	0xbdce6e45	-0.10079626
166	0xbe03ea18	-0.12882268
167	0x3cc2050e	0.02368405
168	0x3e286652	0.16445282
169	0xbfa766ec	-1.3078284
170	0xbd2b6d6a	-0.041852392
171	0x3ea22a46	0.31672877
172	0x3d842897	0.064530544
173	0x3e723fda	0.2365717
174	0x3d84ab0a	0.064779356
175	0x3d59ab02	0.0531416
176	0xbd5a1ba1	-0.053249005
177	0x3c1b1a1b	0.009466673
178	0x3d954e13	0.07290282
179	0xbea2d193	-0.31800517
180	0xbd937479	-0.0719995
181	0xbe2b1985	-0.16708954
182	0x3dc0c3ae	0.09412323
183	0xbd5dce48	-0.054151803
184	0x3c6ecb43	0.014574829
185	0xbd2290b6	-0.03968879
186	0x3de62946	0.11238341
187	0xbdb8ea33	-0.09029045
188	0x3ba1fabd	0.0049432204
189	0x3ca3d3e0	0.01999849
190	0xbe0f9c63	-0.140245
191	0x3db5a532	0.08869399
192	0xbdc4f024	-0.09616116
193	0x3e027566	0.12740096
194	0xbe27e6d9	-0.16396655
195	0xbed7adfc	-0.42124927
196	0xbe0b3683	-0.13595013
197	0x3c996c0c	0.018728279
198	0xbc955d19	-0.018232869
199	0x3d9488af	0.07252633
200	0xbe33c9d0	-0.17557454
201	0xbdc9ef43	-0.09860089
202	0xbf18bf4e	-0.5966691
203	0xbe06629f	-0.13123558
204	0x3e37bccf	0.17943119
205	0xbe63e455	-0.2225507
206	0xbe3bb1f8	-0.18329608
207	0xbc87b7cd	-0.016567135
208	0x3d1e5554	0.038655594
209	0x3ed7ce77	0.42149708
210	0x3e374501	0.17897417
211	0xbdc7bc66	-0.09752731
212	0xbe3e0921	-0.1855817
213	0x3e422b4f	0.18961833
214	0xbc030172	-0.00799595
215	0xbcddac18	-0.0270596
216	0x3d98b1b9	0.07455773
217	0xbd4e826d	-0.050417352
218	0xbe41748c	-0.18892115
219	0xbe87cb03	-0.26522073
220	0x3da4e102	0.08050729
221	0x3e305c28	0.17222655
222	0x3d89d5c7	0.06730228
223	0xbf4369e6	-0.76333463
224	0xbe45d05e	-0.19317767
225	0xbe9634fa	-0.29337293
226	0xbe8cdee9	-0.27513817
227	0xbf5d65d5	-0.8648351
228	0x3b8ab3b2	0.004232847
229	0x3e1a7569	0.15083851
230	0x3d5a3613	0.053274225
231	0xbce3b988	-0.02779843
232	0x3e21db86	0.15806398
233	0x3dc471a5	0.095919885
234	0x3d15e260	0.03659284
235	0x3e9ada55	0.302447
236	0xbea163d2	-0.3152147
237	0xbd2162a9	-0.03940073
238	0xbe0158e6	-0.12631568
239	0x3dd18b78	0.1023168
240	0x3ce5cce6	0.028051805
241	0x3e78efed	0.24310274
242	0xbce1db6f	-0.027570454
243	0x3e0b8c0d	0.13627644
244	0xbda1f523	-0.07908084
245	0xba0d6754	-0.000539412
246	0xbe04ab4a	-0.12955967
247	0x3c65816e	0.014007909
248	0xbcd9ac97	-0.026571555
249	0xbe2635e9	-0.16231503
250	0xbcb160c4	-0.021652587
251	0x3dfb47ce	0.12269555
252	0xbe831fd1	-0.25610211
253	0xbd988493	-0.074471615
254	0xbd781597	-0.060567465
255	0xbea278ab	-0.31732687

fc3.bias f4 [50]
0	0x3e716c6c	0.23576516
1	0xbe09bac3	-0.1345015
2	0x3d841865	0.064499654
3	0x3dcf285a	0.10115118
4	0x3e222ed1	0.15838172
5	0x3e0ac3f7	0.13551317
6	0xbcb1c979	-0.021702515
7	0xbd4f42ec	-0.05060093
8	0xbbbde848	-0.0057955123
9	0x3d4fba71	0.050714914
10	0xbc9f11a5	-0.019417593
11	0xbd38d7d3	-0.0451277
12	0xbd62de38	-0.055387706
13	0x3d4b25b1	0.049596492
14	0x3df6499c	0.120257586
15	0x3daa91a5	0.08328561
16	0x3c6d664d	0.014489722
17	0xbd9944ee	-0.074838504
18	0xbdd88b54	-0.1057345
19	0xbd78debb	-0.060759287
20	0x3df9b935	0.121935286
21	0x3db983a2	0.0905831
22	0x3ced37b5	0.028957227
23	0x3d440274	0.047853902
24	0x3c3f9e2f	0.011695429
25	0xbe47a492	-0.19496372
26	0x3de379fd	0.11107252
27	0x3e730a6f	0.23734449
28	0x3ba6f0cf	0.0050946246
29	0x3da8ee89	0.08248622
30	0x3dd419d7	0.10356491
31	0x3cd1f29b	0.025628379
32	0x3ddf7e0a	0.10912712
33	0x3dc0bb47	0.0941072
34	0x3d0fe4a4	0.035130158
35	0xbda3ab16	-0.079916164
36	0x3d91d68a	0.07120998
37	0x3e08e1dc	0.13367409
38	0x3de4471b	0.11146375
39	0xbc6fba4b	-0.014631818
40	0x3e6cf0c0	0.23138714
41	0xbe760df9	-0.24028768
42	0xbdd005c5	-0.101573505
43	0x3e047875	0.12936576
44	0xbe10b719	-0.14132346
45	0x3e6c9b71	0.23106171
46	0x3d57caf7	0.052683797
47	0x3caf4d22	0.021399084
48	0x3db9003e	0.09033249
49	0xbd81151c	-0.063028544

fc4.weight f4 [1, 50]
0	0x3d408f3b	0.047011595
1	0x3ce016c4	0.027354605
2	0xbd505a23	-0.05086721
3	0x3cb56fd1	0.022148045
4	0x3d194b85	0.037425537
5	0x3d5556ae	0.052084617
6	0x3d0946a7	0.033514645
7	0xbced292f	-0.028950302
8	0xbce9d2e2	-0.02854294
9	0xbca859c9	-0.020550625
10	0x3d3f5646	0.046713136
11	0x3b67152d	0.0035260424
12	0xbd270c31	-0.04078311
13	0xbd93065d	-0.07178948
14	0xbd53e4c9	-0.05173186
15	0x3da30772	0.079604045
16	0xbcf70a99	-0.03015642
17	0x3ced4810	0.028965026
18	0xbd9fd109	-0.07803542
19	0xbd8a1110	-0.06741536
20	0x3d9ec921	0.07753206
21	0x3cf041d7	0.02932827
22	0x3d2ef2b3	0.042711925
23	0x3da93876	0.08262722
24	0x3d01cb55	0.031688053
25	0xba2ebe69	-0.00066659466
26	0x3cf9dc93	0.030500686
27	0x3d894794	0.067031056
28	0xbcc0b4b0	-0.023523659
29	0xbce4507f	-0.027870415
30	0xbc9744eb	-0.01846548
31	0xbd59cca4	-0.053173676
32	0x3d31283c	0.04325126
33	0xbd2c16ca	-0.04201392
34	0x3d3becde	0.04588019
35	0x3c9a37b9	0.018825399
36	0x3d78f646	0.06078174
37	0x3dcc4776	0.099745676
38	0x3ca0956e	0.019602504
39	0xbd5c4d44	-0.053784624
40	0xbd441edd	-0.047880996
41	0xbd6f86de	-0.05847823
42	0x3d7bf096	0.061508738
43	0x3e112be0	0.14176893
44	0xbdae54bc	-0.085122555
45	0x3d4c1b65	0.049830813
46	0x3d25e01f	0.04049694
47	0xbd269638	-0.040670604
48	0xbcacc73c	-0.021091096
49	0xbce4716a	-0.027886111
