Results/BS_1024_EP_2000_TMAX_1000_NOISE_0.01/checkpoint_actor.pth (torch_old, 72217 bytes, 8 tensors)

fc1.weight f4 [100, 24]
-0.10225976 0.028434584 -0.23894647 -0.09675674 -0.11976586 0.22126605 -0.074985676 0.21531282
-0.07423815 0.036592126 -0.03909631 -0.07964039 -0.1731959 -0.040573146 -0.06155241 -0.031954803
0.010659033 0.12631036 -0.20801447 -0.11573816 0.12703003 0.13672584 -0.11164062 0.12590052
-0.10050045 -0.04278172 0.20057602 -0.20632134 -0.18546566 0.049901467 -0.06382024 0.15940258
-0.1360648 -0.13506384 -0.18131295 -0.1482919 -0.18549417 0.1798295 0.05237926 0.1418146
-0.0064367587 -0.09581822 0.010926162 -0.1764627 -0.22480845 -0.1398488 0.10518118 0.13380915
-0.0055151028 -0.20365039 0.11490011 0.3354171 0.23167342 0.042162616 0.12121299 0.01229759
0.167888 -0.31343874 -0.1482688 0.040643558 0.20878635 0.124080025 -0.12770651 0.2077584
0.21049725 0.02216214 0.022740895 0.1515961 0.22470805 0.18834683 -0.14235622 0.029493807
0.07478505 0.3870065 0.23997496 0.19917427 0.07462624 -0.25837064 0.081122205 -0.108636454
-0.23190266 0.38642412 0.09277323 -0.19264036 0.07678346 -0.12754647 -0.096025564 -0.08246027
0.024952274 -0.0001260668 0.08957681 0.14357176 0.19390987 0.07921081 -0.18728185 -0.09206868
0.10877423 0.33479214 -0.12367429 -0.14224884 0.13635102 0.11769727 -0.053442955 -0.07608493
-0.24206981 0.15775128 -0.17348647 -0.23844327 -0.1383252 0.04216548 -0.103365354 0.04013246
-0.16024739 0.1432915 0.09792038 -0.29508898 -0.1172404 0.068817765 -0.012184449 -0.07453921
0.029123116 -0.031832978 -0.09567482 0.1721505 -0.1912455 -0.09024132 -0.04717518 -0.0238706
-0.17908727 -0.22912453 -0.075644 0.050413217 -0.13960868 0.09233658 0.11389906 -0.01420318
-0.10305566 0.052318346 0.054185323 0.15621935 0.2218774 0.13242349 0.20667256 0.011666301
-0.27877066 -0.30257857 0.16634132 -0.05749991 -0.076548584 -0.024667157 -0.1636779 -0.22846001
-0.10717993 -0.048689842 0.041637424 -0.29647785 0.17203169 -0.08636182 -0.11187469 -0.18238105
-0.052282605 -0.07290374 -0.17356555 -0.24202898 0.00020688155 -0.01729644 -0.083124265 0.011111247
-0.09205253 -0.23463184 0.18824835 -0.12691633 0.19678822 0.02761687 -0.17547646 0.08549311
0.060435075 -0.3495792 0.15089782 -0.1879694 -0.02000136 -0.07386399 0.1334369 0.033962846
0.1380663 -0.005636507 -0.07488606 0.05839205 -0.19036299 0.09906588 0.13627054 0.24098745
-0.21214543 -0.05960375 -0.15507628 -0.1266697 -0.10417122 0.13021132 -0.13282251 -0.018755341
-0.04015431 0.07765071 -0.13875252 -0.11200133 -0.11422463 0.12895711 -0.057827435 0.20030847
0.0432339 0.046515554 0.096521474 0.1969173 0.0006549305 -0.09883373 0.09660661 0.26331416
-0.22365156 -0.21483895 0.17253391 -0.14092176 0.037535474 0.20600155 0.08144146 0.030513303
-0.23912005 -0.020840006 -0.14024499 -0.0265291 -0.040344317 0.023048522 0.0073814793 0.19977666
-0.044743262 0.18725188 0.14933117 -0.10748167 0.1423743 -0.13477312 -0.06204684 0.08160615
0.015576251 0.20224032 0.029347742 -0.14713603 0.23157811 -0.101645984 0.24263561 -0.31625482
-0.058842003 -0.044879586 -0.096262194 -0.08981678 0.17968471 0.07286833 -0.109943055 -0.1922887
00000000: 916d d1bd a5ef e83c 62ae 74be 6628 c6bd
00000010: ce47 f5bd 9193 623e 1792 99bd f77a 5c3e
00000020: 2c0a 98bd a0e1 153d 7423 20bd 801a a3bd
00000030: 445a 31be 0730 26bd 611e 7cbd 0ae3 02bd
00000040: 3aa3 2e3c 8157 013e bf01 55be 2108 edbd
00000050: 2914 023e dc01 0c3e d6a3 e4bd 11ec 003e
00000060: 2ed3 cdbd e33b 2fbd cd63 4d3e e745 53be
00000070: b6ea 3dbe 7b65 4c3d 30b4 82bd 6e3a 233e
00000080: 9254 0bbe 2d4e 0abe 1aaa 39be d5d9 17be
00000090: 2ff2 3dbe 3925 383e a38b 563d d937 113e
000000a0: 72eb d2bb 583c c4bd a503 333c a3b2 34be
000000b0: 3034 66be 8634 0fbe 3b69 d73d 4405 093e
000000c0: 09b8 b4bb ba89 50be c050 eb3d cabb ab3e
000000d0: cc3b 6d3e b5b2 2c3d 843e f83d d57b 493c
000000e0: d5ea 2b3e 0b7b a0be c7d3 17be dc79 263d
000000f0: 17cc 553e ab1d fe3d 7fc5 02be 9ebe 543e
00000100: 978c 573e 608d b53c 1d4b ba3c 023c 1b3e
00000110: de19 663e fedd 403e d4c5 11be ff9c f13c
00000120: e728 993d b725 c63e ffbb 753e 57f4 4b3e
00000130: a4d5 983d 2849 84be 6623 a63d ca7c debd
00000140: e477 6dbe 62d9 c53e e4ff bd3d 8443 45be
00000150: a640 9d3d 8b9b 02be 0da9 c4bd eee0 a8bd
00000160: b668 cc3c cd30 04b9 0c74 b73d 7a04 133e
00000170: 4f90 463e 4739 a23d d0c6 3fbe 818e bcbd
00000180: 06c5 de3d e069 ab3e f248 fdbd aea9 11be
00000190: 9a9f 0b3e 440b f13d 00e7 5abd 6ad2 9bbd
000001a0: 26e1 77be 8d89 213e 70a6 31be 792a 74be
000001b0: 1fa5 0dbe b6b5 2c3d 37b1 d3bd ef61 243d
000001c0: e417 24be 02bb 123e 7b8a c83d e715 97be
000001d0: bc1b f0bd 54f0 8c3d 48a1 47bc 03a8 98bd
000001e0: 9a93 ee3c 4c63 02bd 29f1 c3bd 3848 303e
000001f0: dcd5 43be 71d0 b8bd c33a 41bd 478c c3bc
00000200: a762 37be 9f9f 6abe 3eeb 9abd 177e 4e3d
00000210: 94f5 0ebe f61a bd3d e943 e93d 74b4 68bc
00000220: d90e d3bd c34b 563d 6ef1 5d3d f7f7 1f3e
00000230: d433 633e 069a 073e f9a1 533e 0324 3f3c
00000240: 07bb 8ebe 94eb 9abe 6155 2a3e 0785 6bbd
00000250: 81c5 9cbd c712 cabc 2e9b 27be 6cf1 69be
00000260: 2781 dbbd 006f 47bd 018c 2a3d f2cb 97be
00000270: 1329 303e 77de b0bd 8f1e e5bd 19c2 3abe
00000280: 4926 56bd 8e4e 95bd 2bbb 31be 72d6 77be
00000290: 58ee 5839 44b1 8dbc 0e3d aabd f30b 363c
000002a0: 0986 bcbd 5443 70be 2dc4 403e 5bf6 01be
000002b0: da82 493e c63c e23c 1ab0 33be 0317 af3d
000002c0: c58a 773d 0bfc b2be f584 1a3e 0d7b 40be
000002d0: e4d9 a3bc 0146 97bd afa3 083e a01c 0b3d
000002e0: 4161 0d3e 73b2 b8bb dd5d 99bd 812c 6f3d
000002f0: 84ee 42be 0de3 ca3d 818a 0b3e 6ac5 763e
00000300: a73c 59be 1023 74bd 51cc 1ebe b4b5 01be
00000310: b857 d5bd 1e56 053e a002 08be cda4 99bc
00000320: d978 24bd 5607 9f3d 2415 0ebe f460 e5bd
00000330: 9aee e9bd 550d 043e 76dc 6cbd aa1d 4d3e
00000340: 0816 313d 1887 3e3d 0dad c53d b0a4 493e
00000350: a4af 2b3a 5769 cabd b0d9 c53d 1dd1 863e
00000360: ea04 65be befe 5bbe bbac 303e cb4d 10be
00000370: ccbe 193d 12f2 523e c8ca a63d 09f7 f93c
00000380: e3db 74be a9b8 aabc 629c 0fbe 8e53 d9bc
00000390: 1540 25bd 41d0 bc3c 56e0 f13b 4192 4c3e
000003a0: b644 37bd f5be 3f3e 45ea 183e 5a1f dcbd
000003b0: 92ca 113e f701 0abe d424 7ebd 2021 a73d
000003c0: 8833 7f3c 1618 4f3e ad6a f03c d4aa 16be
000003d0: d022 6d3e c52b d0bd 7875 783e 27ec a1be
000003e0: 5004 71bd a8d3 37bd 1d25 c5bd dcf1 b7bd
000003f0: 45ff 373e fe3b 953d d329 e1bd 54e7 44be

fc1.bias f4 [100]
0.15302975 0.0072904206 -0.22735564 0.17084445 0.02681324 -0.011457699 -0.13729051 -0.18316385
-0.16182785 -0.06429447 -0.061526798 0.20907275 0.041420523 -0.13107447 0.10256347 -0.170474
-0.048384145 0.10878547 -0.10360697 0.05792621 0.08232169 -0.17486186 -0.22683917 0.07769699
0.14255369 -0.058585674 -0.20777777 -0.1083219 -0.061919775 0.034893256 0.106973864 0.06287187
0.058975253 0.08239051 0.28408775 0.19330613 0.25640714 -0.07648274 -0.0765683 -0.042733997
0.057703838 0.019234935 0.0056711207 -0.20015825 -0.13562752 0.30155748 0.018677032 -0.013356813
-0.10084245 -0.09762473 -0.029764397 0.10507171 -0.10433412 -0.034119558 0.15558244 -0.13445476
-0.117366396 0.0238652 0.16707432 0.054765586 0.019665457 -0.08174497 0.08782549 -0.012709516
0.09397106 -0.0023972949 0.09701229 -0.008706526 -0.112708285 0.09371846 0.13344705 -0.21773423
-0.1813501 -0.02992295 0.18341444 -0.13674854 0.17946756 -0.02183139 -0.23008607 0.11312973
-0.07443677 0.07656653 0.0013157708 0.013657639 -0.18117142 -0.18644595 0.07233616 -0.061026428
-0.13882656 0.020832466 -0.12309535 -0.009504004 0.17606421 0.30038676 -0.15053213 0.01609702
0.109422214 0.14411637 -0.113079466 0.12653497
00000000: d5b3 1c3e 7be4 ee3b ebcf 68be d9f1 2e3e
00000010: 71a7 db3c 13b9 3bbc e295 0cbe 4e8f 3bbe
00000020: 33b6 25be d2ac 83bd 8603 7cbd 2b17 563e
00000030: 91a8 293d 6338 06be cc0c d23d bc90 2ebe
00000040: 742e 46bd ebca de3d e42f d4bd 0944 6d3d
00000050: 4698 a83d fd0e 33be 8748 68be 991f 9f3d
00000060: 98f9 113e 88f7 6fbd b2c3 54be dfd7 ddbd
00000070: 979f 7dbd 3bec 0e3d 1d15 db3d f8c2 803d
00000080: 0990 713d 5bbc a83d f373 913e 0bf2 453e
00000090: cc47 833e fca2 9cbd d7cf 9cbd d809 2fbd
000000a0: dc5a 6c3d 9592 9d3c cfd4 b93b 49f6 4cbe
000000b0: f1e1 0abe be65 9a3e 9300 993c 89d6 5abc
000000c0: 7d86 cebd 79ef c7bd 77d4 f3bc d62f d73d
000000d0: 21ad d5bd f3c0 0bbd 0151 1f3e 82ae 09be
000000e0: cb5d f0bd f480 c33c 8815 2b3e e151 603d
000000f0: 7419 a13c e869 a7bd dadd b33d 933b 50bc
00000100: e673 c03d ef1b 1dbb 61ae c63d d1a5 0ebc
00000110: 9ad3 e6bd 77ef bf3d 58a6 083e b9f5 5ebe
00000120: d7b3 39be f920 f5bc ffd0 3b3e cf07 0cbe
00000130: 58c6 373e bed7 b2bc af9b 6bbe 8fb0 e73d
00000140: 4e72 98bd eace 9c3d f175 ac3a 4ac4 5f3c
00000150: 0085 39be b0eb 3ebe fb24 943d d9f6 79bd
00000160: 8d28 0ebe d9a8 aa3c 6a19 fcbd afb6 1bbc
00000170: 2d4a 343e 4bcc 993e 1825 1abe e6dd 833c
00000180: c118 e03d 3e93 133e 3596 e7bd 6292 013e

fc2.weight f4 [100, 100]
0.025340598 -0.045390505 0.011527583 0.118315935 -0.0017696195 -0.116845496 0.055384133 0.068601735
-0.066142276 0.13339871 0.012871701 0.07052027 0.037532393 0.05953429 -0.07255617 0.016245106
0.13357456 -0.031495627 0.049557522 -0.10488984 -0.03047965 -0.031418983 -0.093311824 -0.027669983
0.037623085 -0.1768505 0.040123586 -0.09411386 -0.060525615 0.0008109768 0.0072684544 -0.06354484
0.064085476 0.07897369 0.13549374 -0.087881476 0.016588949 0.04387414 -0.17298397 -0.066650435
-0.061043907 -0.05644617 0.00066694873 0.0020660483 -0.29366317 -0.028148348 0.07939745 0.14352888
-0.0015453727 -0.109190784 0.05191708 0.10956313 -0.06313939 0.05889481 0.076422445 -0.0021620032
-0.049135428 -0.057573147 0.04624788 -0.057189837 -0.034241866 -0.18156345 0.06830822 0.18122654
-0.018827185 0.11145821 -0.045930825 0.0018500972 0.073590256 0.018996594 0.105317205 -0.022209087
0.0145057775 0.053457484 0.067212224 0.030537562 -0.06398101 -0.018050792 0.10239706 -0.017129058
-0.071952745 0.14483733 -0.026633967 0.023754671 -0.05344583 0.11279733 0.07388707 0.046676952
-0.04632736 0.075267516 0.03262976 -0.021626666 -0.0141526945 0.036275126 -0.08209952 0.13481468
0.103062935 0.00846698 0.08010315 0.10413892 0.16401295 -0.041367125 -0.047505364 -0.14102308
0.05655923 0.014438945 0.032534435 -0.066735506 -0.0027305582 -0.053647686 -0.16256924 0.0044315383
-0.10964846 0.007446859 -0.1856958 -0.15262716 0.011157052 -0.10062203 0.13077353 0.093714565
-0.046423953 0.025553564 0.06109032 0.1148922 0.0042758957 -0.09049249 -0.0006189731 -0.4423179
-0.05152055 0.020305373 -0.10246272 -0.054789964 -0.19051223 0.07466057 -0.10410661 0.074432835
-0.023415068 0.09420415 -0.038005073 -0.09251531 -0.04569155 -0.085016966 -0.14609958 0.096998416
0.012396854 0.034111 0.038230892 0.062145468 0.07529183 0.16741402 0.059932802 0.04160603
0.10134029 -0.08636352 0.049017597 -0.08698467 -0.09041904 -0.03793583 0.123027384 0.122538544
-0.11009915 0.079610765 0.07789032 -0.019546313 0.0017980004 0.06549106 0.016087716 -0.050384283
-0.096142285 0.13634364 0.055534918 -0.0076920018 0.05926181 -0.18123856 -0.18105051 0.044383254
0.07501679 0.005825827 0.010127142 0.09486203 -0.17927359 0.037604123 -0.08542339 0.038478937
-0.07056035 -0.08842891 -0.16146119 -0.041870985 -0.17242773 -0.069757484 0.068172365 -0.06887977
-0.09996393 -0.0010836362 0.09498455 -0.009707955 0.07602787 -0.116037026 0.054229707 -0.019323222
-0.022811403 -0.0029597725 -0.04625038 -0.13675089 -0.0494634 0.01625204 -0.160641 0.058172166
0.19006123 0.096395336 -0.060753066 -0.1529637 0.010247927 0.026664292 -0.122605756 -0.04247073
-0.047256347 -0.044289384 -0.044510454 -0.074588254 -0.040843505 0.076303475 -0.1773881 0.06329861
0.015189251 0.00040227716 -0.10276224 0.10971863 -0.1449345 0.08404021 0.008196118 -0.15053806
0.12796873 -0.020566523 -0.05396273 -0.08434815 -0.14609975 -0.08284038 0.10275807 0.19557215
-0.10020191 -0.09807153 0.018486353 -0.21681502 0.008246085 0.015387577 -0.07493227 -0.047772557
-0.0055174315 -0.08528514 -0.014764141 -0.0025013064 -0.14659505 0.05415986 -0.13314559 0.116490826
00000000: 1697 cf3c 65eb 39bd 30de 3c3c a04f f23d
00000010: 94f2 e7ba b14c efbd 79da 623d 117f 8c3d
00000020: 9a75 87bd ac99 083e d4e3 523c ee6c 903d
00000030: 91bb 193d 3ada 733d 5498 94bd 7514 853c
00000040: c5c7 083e 8f01 01bd d4fc 4a3d 7cd0 d6bd
00000050: 75b0 f9bc 31b1 00bd 451a bfbd 29ac e2bc
00000060: aa1a 1a3d 4c18 35be a158 243d c4be c0bd
00000070: b5e9 77bd bb97 543a 372c ee3b cc23 82bd
00000080: 3f3f 833d f5bc a13d dfbe 0a3e 34fb b3bd
00000090: 8ce5 873c 5fb5 333d b622 31be 0680 88bd
000000a0: 2d09 7abd 1934 67bd 2cd6 2e3a 8a66 073b
000000b0: 055b 96be 5d97 e6bc 219b a23d 3cf9 123e
000000c0: 1a8e caba 6b9f dfbd 01a7 543d a262 e03d
000000d0: 394f 81bd af3b 713d 5f83 9c3d 65b0 0dbb
000000e0: 3b42 49bd d2d1 6bbd 6b6e 3d3d e43f 6abd
000000f0: 3341 0cbd c5eb 39be 2ee5 8b3d 7393 393e
00000100: 783b 9abc 3444 e43d f621 3cbd f67e f23a
00000110: 7db6 963d bf9e 9b3c 8cb0 d73d d5ef b5bc
00000120: a4a9 6d3c 3cf6 5a3d 90a6 893d e929 fa3c
00000130: 7a08 83bd 41df 93bc 8db5 d13d 3d52 8cbc
00000140: f65b 93bd 3d50 143e 7a2f dabc 2899 c23c
00000150: 04ea 5abd 4902 e73d 1b52 973d 5530 3f3d
00000160: c2c1 3dbd db25 9a3d c9a6 053d 682a b1bc
00000170: b4e0 67bc 3a95 143d cb23 a8bd dc0c 0a3e
00000180: a912 d33d 17b9 0a3c 1f0d a43d c946 d53d
00000190: 03f3 273e 9370 29bd fc94 42bd 5b68 10be
000001a0: a7aa 673d 5391 6c3c d442 053d a0ac 88bd
000001b0: 2af3 32bb adbd 5bbd 8d78 26be 7036 913b
000001c0: 5f8f e0bd c804 f43b 0a27 3ebe 4b4a 1cbe
000001d0: 11cc 363c ec12 cebd 7fe9 053e 6ced bf3d
000001e0: 0b27 3ebd b555 d13c d839 7a3d 9a4c eb3d
000001f0: d01c 8c3b 2054 b9bd 9542 22ba 7e77 e2be
00000200: 3607 53bd 7457 a63c f9d7 d1bd 716b 60bd
00000210: a315 43be a4e7 983d d935 d5bd 3e70 983d
00000220: f5d0 bfbc 1bee c03d 35ab 1bbd ab78 bdbd
00000230: 1027 3bbd 601d aebd 219b 15be 1ba7 c63d
00000240: 2d1c 4b3c fab7 0b3d ff97 1c3d 3f8c 7e3d
00000250: 9a32 9a3d 956e 2b3e 197c 753d 166b 2a3d
00000260: 7f8b cf3d 5bdf b0bd adc6 483d 0525 b2bd
00000270: 9e2d b9bd 9a62 1bbd c8f5 fb3d 7df5 fa3d
00000280: aa7b e1bd f80a a33d f684 9f3d 971f a0bc
00000290: e2aa eb3a 2d20 863d 63ca 833c c05f 4ebd
000002a0: 3fe6 c4bd ab9d 0b3e 9578 633d 300d fcbb
000002b0: 83bc 723d 9a96 39be 4e65 39be 37cb 353d
000002c0: 67a2 993d 94e6 be3b 50ec 253c 0647 c23d
000002d0: 7f93 37be c806 1a3d 75f2 aebd 179c 1d3d
000002e0: f281 90bd 371a b5bd 1556 25be e980 2bbd
000002f0: e590 30be 03dd 8ebd f49d 8b3d d610 8dbd
00000300: e4b9 ccbd cc08 8eba 4287 c23d 1d0e 1fbc
00000310: 80b4 9b3d d2a4 edbd f81f 5e3d bc4b 9ebc
00000320: fbde babc bef8 41bb 0a71 3dbd 6d08 0cbe
00000330: 229a 4abd 0023 853c 137f 24be f045 6e3d
00000340: 699f 423e eb6a c53d 35d8 78bd 84a2 1cbe
00000350: ece6 273c 136f da3c ba18 fbbd caf5 2dbd
00000360: df8f 41bd c968 35bd 9850 36bd bac1 98bd
00000370: 854b 27bd ff44 9c3d 3aa5 35be b4a2 813d
00000380: 56dc 783c bae8 d239 0275 d2bd 29b4 e03d
00000390: b669 14be 461d ac3d 0349 063c a626 1abe
000003a0: 3c0a 033e 207b a8bc 0608 5dbd b9be acbd
000003b0: 2c9b 15be 38a8 a9bd d372 d23d 1144 483e
000003c0: a936 cdbd bad9 c8bd b170 973c c204 5ebe
000003d0: 961a 073c 2d1c 7c3c 1776 99bd 28ad 43bd
000003e0: 92cb b4bb faa9 aebd 4ce5 71bc f5ec 23bb
000003f0: 031d 16be bbd6 5d3d 5157 08be be92 ee3d

fc2.bias f4 [100]
0.118729405 0.032687265 -0.015490891 0.1679656 -0.07964762 0.08558792 -0.019908782 -0.10955162
0.11620607 -0.034105763 -0.06439906 0.022068664 0.1275654 -0.0266384 -0.063069314 0.034016296
0.139658 -0.10759171 -0.074314184 0.10398544 0.03029566 -0.10911624 -0.050659973 -0.0017789495
0.070566185 0.11782311 0.05021321 -0.012961856 0.10109857 -0.056133606 -0.049245182 0.01514355
-0.08382918 -0.027958807 -0.060154486 -0.11577001 0.059243742 0.14781944 -0.062807664 0.007724193
-0.043527115 -0.11734928 0.08340567 -0.05218402 0.053222526 -0.121372685 -0.040637486 -0.048086133
-0.07390227 0.104192816 -0.00890678 0.039710395 -0.03625545 -0.029131843 -0.06513096 0.12305827
-0.11576551 -0.00062409515 0.13372675 -0.0049147345 -0.019330379 0.04483093 0.15151128 -0.036297776
-0.015145293 -0.04053025 0.073435985 0.06621849 -0.07204012 -0.039896768 -0.12472056 -0.042068716
0.035004932 0.09216195 -0.010714169 -0.008879647 0.0020098125 0.02921338 0.017697075 0.029266438
0.015211308 -0.09855096 -0.13913773 0.06777174 0.018349065 -0.03809525 0.068522915 0.04678796
0.029920002 -0.057263713 -0.00018104466 0.041336305 -0.0013079386 -0.038031034 -0.04962829 0.1392717
-0.04638551 0.13561125 -0.053103685 -0.07645332
00000000: 6728 f33d 15e3 053d 82cd 7dbc 2dff 2b3e
00000010: 4b1e a3bd b848 af3d be17 a3bc 9a5c e0bd
00000020: 73fd ed3d 7cb2 0bbd a8e3 83bd 58c9 b43c
00000030: 81a0 023e c638 dabc 7c2a 81bd ac54 0b3d
00000040: 8202 0f3e 0b59 dcbd 0932 98bd 52f6 d43d
00000050: 9b2e f83c 5678 dfbd d580 4fbd a42b e9ba
00000060: 0185 903d 3e4d f13d 5eac 4d3d f75d 54bc
00000070: c40c cf3d 5aec 65bd 51b5 49bd a71c 783c
00000080: a2ae abbd de09 e5bc 8d64 76bd d418 edbd
00000090: 91a9 723d fb5d 173e 4ea1 80bd 3a1b fd3b
000000a0: 7d49 32bd d254 f0bd 98d0 aa3d e9be 55bd
000000b0: ddff 593d 3e92 f8bd 7e73 26bd f7f5 44bd
000000c0: 135a 97bd 0b63 d53d beed 11bc 5ea7 223d
000000d0: 9880 14bd e7a5 eebc 6163 85bd f905 fc3d
000000e0: 7816 edbd 519a 23ba aaef 083e c80b a1bb
000000f0: be5a 9ebc a3a0 373d c625 1b3e faac 14bd
00000100: f723 78bc 0c03 26bd 9b65 963d 8f9d 873d
00000110: c589 93bd cb6a 23bd 7e6d ffbd 3f50 2cbd
00000120: 5561 0f3d 68bf bc3d 7b8a 2fbc f07b 11bc
00000130: 0fb7 033b e650 ef3c 75f9 903c 2bc0 ef3c
00000140: da38 793c 16d5 c9bd 1f7a 0ebe e9cb 8a3d
00000150: c750 963c c409 1cbd be55 8c3d bba4 3f3d
00000160: cb1a f53c 5b8d 6abd ced6 3db9 4250 293d
00000170: 236f abba 6ec6 1bbd 0947 4bbd 3e9d 0e3e
00000180: bcfe 3dbd addd 0a3e 4083 59bd 8f93 9cbd

fc3.weight f4 [50, 100]
0.11178781 0.08657537 0.11003823 0.011610897 0.26992443 0.0639307 0.037590407 0.04880027
0.16853008 0.028915117 0.047956042 0.15171672 0.15363333 0.1019793 0.108210385 0.086930156
0.065083385 0.053690117 -0.037388083 0.011858195 -0.030961944 0.015069594 0.015501193 -0.063609004
0.026809731 0.045773916 0.026645161 -0.051207192 0.015765635 -0.039873015 -0.12197003 0.2623171
0.027909435 0.066500954 0.09143689 0.0691332 -0.010799065 0.0069553885 0.027504131 0.025896795
0.089892216 -0.056619342 0.12272506 -0.045046493 -0.08504875 0.04379909 -0.09693744 -0.003600343
0.0025662303 -0.052096516 -0.05306677 -0.055378746 0.09614797 -0.19378445 0.088543266 0.034952566
0.023453861 0.12769666 -0.020426225 0.017986907 0.02932742 0.024144134 0.044855352 0.071061976
0.13618691 0.122593276 0.19036955 0.15635298 0.06497956 0.11176348 -0.04083331 0.08338164
0.14949767 -0.13882409 0.13746077 -0.081788406 0.13216592 -0.012451206 0.16432801 -5.3038562e-05
0.1470139 -0.13112508 -0.025925212 0.13717017 -0.026831761 0.007537163 -0.10768584 -0.10574955
0.0012989523 -0.12560461 -0.076257944 -0.10621368 0.04724407 0.0035123725 0.07599615 -0.012270704
0.15136945 -0.022381762 0.12286231 -0.05760245 0.03872481 -0.0059993067 -0.006351744 -0.030540183
-0.219958 0.048330817 0.05900373 0.20783624 -0.19674107 -0.10977888 -0.020434687 0.035280447
-0.24031404 -0.21612042 0.034584794 0.07198843 -0.13333626 0.03653505 0.014555951 0.04430538
0.11470318 0.02402883 0.07649102 0.07775319 0.04516341 -0.10670247 0.033743534 0.09239833
-0.06363763 -0.079374604 0.035521723 -0.55869913 0.04523447 0.15016341 0.00484935 0.121444
-0.13671476 0.08443788 -0.062737145 -0.21941458 0.13391379 0.06710942 -0.013493336 0.11783581
0.0075852633 -0.014134408 0.06545458 0.14413965 0.0031979477 -0.09504912 -0.12863491 0.112214506
0.09455973 0.17853922 -0.009996333 -0.02641911 0.06740449 -0.22077867 -0.13523944 0.06173068
-0.06503602 -0.17310911 -0.017155943 0.049495716 -0.009270219 0.0046470347 -0.12673727 -0.15788706
0.08370611 -0.12740159 0.15323377 0.051734403 0.066867195 0.1160669 -0.05305208 0.0825125
-0.015937613 -0.044874594 -0.14106458 -0.2137863 -0.043428507 0.03776884 0.14602639 -0.12324359
0.10766446 0.07316435 0.031095054 -0.00015811314 -0.011837669 0.121211335 0.0311436 0.031173773
-0.052105643 -0.057421613 -0.022072846 -0.095632546 0.062292352 -0.037778594 -0.085071534 0.060954023
-0.02040974 -0.1320098 0.08069722 -0.06716717 0.16097148 0.03520449 -0.102837026 -0.059757438
-0.033839725 0.100917324 0.14585306 0.0800153 0.15947361 0.08237945 0.011921265 0.092116974
0.049878873 0.03739138 0.069949545 0.013260424 -0.002995663 0.021521458 0.07881123 0.053595036
0.054580104 0.09181188 0.044274345 -0.043351963 0.007903081 -0.0122246 -0.09075451 0.002277095
-0.08041356 -0.054514 0.093196794 0.05895336 -0.022220664 -0.059366975 0.05158642 0.060812846
0.023104861 -0.12969486 0.11422152 -0.0030762495 -0.067801304 0.08936399 -0.06945636 -0.13946417
-0.08037453 -0.007593063 -0.029374374 -0.1347792 0.04078583 -0.033805702 -0.05948733 0.029995771
00000000: 02f1 e43d 6d4e b13d b95b e13d a23b 3e3c
00000010: 8933 8a3e 19ee 823d 66f8 193d cbe2 473d
00000020: 2693 2c3e 65df ec3c 8e6d 443d a15b 1b3e
00000030: 0e52 1d3e 86da d03d 689d dd3d 7008 b23d
00000040: 704a 853d 2bea 5b3d 3f24 19bd e048 423c
00000050: e7a3 fdbc 75e6 763c b7f8 7d3c 7045 82bd
00000060: 15a0 db3c 6e7d 3b3d f446 da3c a2be 51bd
00000070: ef26 813c e351 23bd 6ccb f9bd 6d4e 863e
00000080: 54a2 e43c a731 883d 4443 bb3d b595 8d3d
00000090: 90ee 30bc 07ea e33b 5850 e13c 8425 d43c
000000a0: 6919 b83d afe9 67bd 4757 fb3d ac82 38bd
000000b0: 0a2e aebd ad66 333d 2387 c6bd bbf3 6bbb
000000c0: 332e 283b 2863 55bd 8b5c 59bd d3d4 62bd
000000d0: 3ae9 c43d 6e6f 46be 2c56 b53d 6c2a 0f3d
000000e0: 5022 c03c eac2 023e e654 a7bc 4759 933c
000000f0: 0f40 f03c ebc9 c53c 3fba 373d f188 913d
00000100: 9574 0b3e 2f12 fb3d 3cf0 423e ff1a 203e
00000110: 0114 853d 40e4 e43d d440 27bd fec3 aa3d
00000120: eb15 193e e727 0ebe 84c2 0c3e ae80 a7bd
00000130: 8156 073e 2500 4cbc 9a45 283e b975 5eb8
00000140: d08a 163e a745 06be 1c61 d4bc 5676 0c3e
00000150: 48ce dbbc 4efa f63b 658a dcbd 3893 d8bd
00000160: 9b41 aa3a 7f9e 00be 202d 9cbd 8f86 d9bd
00000170: ff82 413d d52f 663b dfa3 9b3d 100b 49bc
00000180: 9800 1b3e f559 b7bc 3c9f fb3d 8cf0 6bbd
00000190: e89d 1e3d d595 c4bb 4a22 d0bb 682f fabc
000001a0: ac3c 61be 89f6 453d e5ad 713d 06d3 543e
000001b0: 7e76 49be c0d3 e0bd a566 a7bc 3b82 103d
000001c0: e214 76be ac4e 5dbe c9a8 0d3d ac6e 933d
000001d0: 4d89 08be c7a5 153d 157c 6e3c 8f79 353d
000001e0: 80e9 ea3d 1cd8 c43c 53a7 9c3d 113d 9f3d
000001f0: 45fd 383d d386 dabd a936 0a3d 563b bd3d
00000200: 7254 82bd 278f a2bd 3a7f 113d e806 0fbf
00000210: c847 393d 70c4 193e 4ce7 9e3b a2b7 f83d
00000220: f4fe 0bbe c4ed ac3d 557c 80bd 37ae 60be
00000230: b220 093e aa70 893d 2713 5dbc e753 f13d
00000240: cd8d f83b 0194 67bc 0d0d 863d 5899 133e
00000250: a994 513b 1da9 c2bd dfb8 03be b8d0 e53d
00000260: 88a8 c13d fcd2 363e a9c7 23bc e46c d8bc
00000270: 5e0b 8a3d ce13 62be 357c 0abe 4fd9 7c3d
00000280: 9b31 85bd 8443 31be 9f8a 8cbc 05bc 4a3d
00000290: 1ee2 17bc 2746 983b 6ac7 01be 25ad 21be
000002a0: 1c6e ab3d 9075 02be 50e9 1c3e 74e7 533d
000002b0: abf1 883d 7cb4 ed3d 234d 59bd 50fc a83d
000002c0: 998f 82bc 6cce 37bd 3c73 10be ccea 5abe
000002d0: 17e2 31bd 80b3 1a3d f187 153e 2367 fcbd
000002e0: 2f7f dc3d 31d7 953d 0ebb fe3c 2ccb 25b9
000002f0: c8f2 41bc a63d f83d dd20 ff3c 2460 ff3c
00000300: ba6c 55bd ed32 6bbd 1dd2 b4bc ffda c3bd
00000310: 4426 7f3d babd 1abd fc39 aebd edaa 793d
00000320: 5432 a7bc 942d 07be 9644 a53d f18e 89bd
00000330: b5d5 243e 9532 103d 389c d2bd 37c4 74bd
00000340: 869b 0abd bead ce3d 815a 153e 10df a33d
00000350: 0d4d 233e 8fb6 a83d 6951 433c d3a7 bc3d
00000360: ca4d 4c3d b427 193d b541 8f3d 4042 593c
00000370: e352 44bb c54d b03c c867 a13d 7886 5b3d
00000380: 638f 5f3d de07 bc3d 0459 353d d491 31bd
00000390: ed7b 013c b049 48bc 80dd b9bd 513b 153b
000003a0: ddaf a4bd 124a 5fbd f6dd be3d 1479 713d
000003b0: 1c08 b6bc c92a 73bd 484c 533d e416 793d
000003c0: 6846 bd3c bbce 04be f9ec e93d e79a 49bb
000003d0: 69db 8abd 7804 b73d 233f 8ebd b2cf 0ebe
000003e0: 679b a4bd 3bcf f8bb 87a2 f0bc 8f03 0abe
000003f0: 0b0f 273d d977 0abd fda8 73bd b1b9 f53c

fc3.bias f4 [50]
2.525354e-05 -0.008784588 -0.052317865 -0.087412134 -0.047447406 0.06456674 0.07727548 0.021037752
-0.026216077 -0.043367013 0.09463126 0.10688293 -0.09074163 0.089981414 -0.0658886 -0.059012398
-0.09631423 -0.01808302 0.012559859 0.0059311753 -0.026900172 -0.066636845 0.042067498 0.10969009
-0.09870885 0.009329803 -0.026721733 0.030718865 0.08762822 -0.02287281 0.02391221 -0.04530191
0.09723531 0.003381897 0.04921601 -0.059941247 -0.09897289 0.15034567 -0.001879509 -0.018354947
0.029671883 0.059466884 0.017471803 -0.097629614 -0.091473885 0.084023245 0.014951416 0.1053869
-0.03766749 -0.0943372
00000000: 90d7 d337 3ced 0fbc 424b 56bd 2205 b3bd
00000010: 3658 42bd 913b 843d 9b42 9e3d 5d57 ac3c
00000020: 19c3 d6bc 9ca1 31bd 09ce c13d 70e5 da3d
00000030: bfd6 b9bd 2d48 b83d 9af0 86bd fcb6 71bd
00000040: 6540 c5bd d722 94bc dec7 4d3c 4e5a c23b
00000050: c05d dcbc e678 88bd f84e 2c3d 33a5 e03d
00000060: de27 cabd 08dc 183c 89e7 dabc 21a6 fb3c
00000070: 6d76 b33d c25f bbbc 8ae3 c33c 7f8e 39bd
00000080: 4e23 c73d d1a2 5d3b ba96 493d f484 75bd
00000090: 4cb2 cabd 37f4 193e db59 f6ba 1d5d 96bc
000000a0: 7312 f33c 8c93 733d 0721 8f3c 09f2 c7bd
000000b0: a956 bbbd 6114 ac3d c9f6 743c 16d5 d73d
000000c0: 3a49 1abd dd33 c1bd

fc4.weight f4 [2, 50]
-0.10672714 0.29053622 0.17322282 -0.23742647 -0.078414515 0.2778087 0.24572474 0.14344928
0.25080764 0.15957864 -0.10377619 -0.17048213 -0.10183793 -0.46658823 0.23430501 0.17382364
0.19164357 -0.013981329 -0.14786486 0.07375872 0.09036547 0.14601669 -0.111829594 -0.22570969
0.038755827 -0.038889315 0.22083862 0.073196165 0.020619646 0.16638918 -0.11232331 0.22480485
-0.03545344 -0.22624417 0.16126691 -0.10649621 0.20577034 0.16736308 -0.06578569 -0.11713224
0.10005683 0.24734779 0.19479321 0.34198573 -0.14991184 -0.18636204 0.06536856 -0.02608273
0.041129094 0.39373952 -0.04476344 0.3387566 -0.18455754 -0.21572451 0.15178584 0.16649756
-0.10648059 0.021705922 0.060196105 0.12664272 -0.16616577 -0.20577337 0.08502407 -0.20723419
-0.12881319 -0.18465702 0.10804065 0.20592229 -0.20368661 0.2678471 -0.17257662 0.29008755
0.14062437 -0.08068631 0.24821238 0.31252977 0.17390065 -0.23698448 -0.16213697 -0.20401599
0.23855242 0.098372884 -0.13824531 -0.063128784 0.16419119 0.1834381 0.027830366 -0.21553262
-0.1214289 0.18305418 0.11206732 0.24741462 0.29988495 -0.04128051 0.2972973 -0.06108738
-0.11385064 -0.19119744 0.059758827 0.05419563
00000000: c293 dabd 2ac1 943e 5361 313e ed1f 73be
00000010: ca97 a0bd f13c 8e3e 449f 7b3e 5ee4 123e
00000020: dc69 803e 9568 233e 9c88 d4bd de92 2ebe
00000030: 6890 d0bd a7e4 eebe a7ed 6f3e d3fe 313e
00000040: 363e 443e f211 65bc e369 17be d00e 973d
00000050: 8811 b93d 6685 153e ea06 e5bd 7120 67be
00000060: 6ebe 1e3d 674a 1fbd 8523 623e dfe7 953d
00000070: 88ea a83c ed61 2a3e c309 e6bd 3e33 663e
00000080: a037 11bd 8dac 67be 2723 253e af1a dabd
00000090: 76b5 523e 3a61 2b3e a6ba 86bd 07e3 efbd
000000a0: 98ea cc3d bd48 7d3e df77 473e c118 af3e
000000b0: 7d82 19be b1d5 3ebe f4df 853d 73ab d5bc
000000c0: fb76 283d 3a98 c93e de59 37bd 8171 ad3e
000000d0: a7fc 3cbe e3e6 5cbe bf6d 1b3e 567e 2a3e
000000e0: 7f12 dabd 9ed0 b13c 3190 763d a1ae 013e
000000f0: 5c27 2abe 41b6 52be 1a21 ae3d 3335 54be
00000100: 9be7 03be bb16 3dbe 6b44 dd3d 4bdd 523e
00000110: 3993 50be 4123 893e edb7 30be 5b86 943e
00000120: d6ff 0f3e dd3e a5bd 632b 7e3e e703 a03e
00000130: 0313 323e 0fac 72be 3c07 26be 91e9 50be
00000140: 1647 743e b977 c93d 2e90 0dbe aa49 81bd
00000150: bc21 283e 33d7 3b3e 82fc e33c 95b4 5cbe
00000160: b7af f8bd 8e72 3b3e 8d83 e53d 425a 7d3e
00000170: 858a 993e c115 29bd 5a37 983e c336 7abd
00000180: 862a e9bd 43c9 43be acc5 743d 3dfc 5d3d

fc4.bias f4 [2]
0.07716592 0.10729038
00000000: 2a09 9e3d 0fbb db3d
