Results/BS_1024_EP_2000_TMAX_1000_NOISE_0.01/last_checkpoint_actor.pth (torch_old, 72217 bytes, 8 tensors)

fc1.weight f4 [100, 24]
000000 71 ac be bd 17 59 cc 3d c4 42 6d be a2 cf fb bd
       -0.09310234 0.0997793 -0.2317 -0.12295462
000010 ff c9 e7 bd b7 19 55 3e f3 ba 8a bd 79 a7 41 3e
       -0.113178246 0.2081059 -0.06773939 0.18911542
000020 17 94 7d bd 3e 25 09 3e 5b 45 32 bd 8e 96 b2 bd
       -0.061908808 0.13393113 -0.043523174 -0.08720122
000030 c1 e1 26 be 59 bc 51 bd 3c 20 87 bd 31 db 21 bd
       -0.16297056 -0.051205013 -0.06597945 -0.039515678
000040 d7 40 24 3c 36 8a 4c 3e a9 3d 5d be f6 fb 30 be
       0.010025225 0.19974598 -0.21605553 -0.17283615
000050 0a 2d 10 3e 5d a0 08 3e dd 1b f5 bd f9 e7 8c 3d
       0.14079681 0.13342424 -0.11968205 0.06880183
000060 38 f4 e9 bd 69 12 bf bd 7a 6f 45 3e 9d 5b 67 be
       -0.11423534 -0.09329683 0.19280806 -0.22593541
000070 b0 94 1a be 22 90 27 3d 2e 9d 92 bd b8 24 0f 3e
       -0.15095782 0.04090894 -0.07158886 0.13978851
000080 f7 28 0c be 0a 85 38 be 75 2f 25 be 98 c0 1b be
       -0.13687502 -0.180195 -0.16131385 -0.15210187
000090 ee 31 4c be e3 3b 25 3e 1b 3b 94 3d 23 51 0d 3e
       -0.19940922 0.16136126 0.07237836 0.13800482
0000a0 f9 e3 d6 bb d5 00 02 be 22 44 a7 3c f9 98 47 be
       -0.006557938 -0.1269563 0.02041823 -0.19491948
0000b0 5c 22 83 be 57 7a 27 be e8 d9 ea 3d 13 3e ec 3d
       -0.25612152 -0.16355263 0.114673436 0.11535277
0000c0 8d 16 a1 bb 0c 4a 45 be 63 38 04 3e ad 3d 9e 3e
       -0.0049160183 -0.19266528 0.12912135 0.3090643
0000d0 59 65 66 3e 8b ba c4 3c 4c af 0a 3e 4b 46 66 bc
       0.22499599 0.024014732 0.13543433 -0.014054845
0000e0 e5 89 35 3e bd ee 9b be a7 c2 f5 bd 58 fc d1 3c
       0.17728384 -0.3045558 -0.120000176 0.025633022
0000f0 b5 67 61 3e d3 d0 ec 3d f6 a5 cb bd ae 5f 45 3e
       0.22012217 0.115632676 -0.09943764 0.1927478
000100 9c b3 5b 3e 7a 35 6a 3c a8 ef 06 3c 28 b4 9f 3d
       0.21455234 0.014294976 0.008235849 0.07798034
000110 20 d1 77 3e 39 5b 3e 3e 2c a0 20 be 93 b9 34 bd
       0.24200869 0.18589486 -0.156861 -0.04412229
000120 56 21 a1 3d b2 30 ca 3e 20 83 79 3e e0 d2 59 3e
       0.078676865 0.39490277 0.24366426 0.21271849
000130 0c ae 37 3d 98 6d 7a be 8a b1 ad 3d cf bf c2 bd
       0.04484372 -0.24455869 0.084811285 -0.09509241
000140 63 e2 6a be 47 a5 c5 3e 87 df b9 3d 13 7a 47 be
       -0.22937922 0.3860266 0.090758376 -0.19480161
000150 b7 2e 8f 3d db ac f6 bd 6a c9 c8 bd 78 4e ad bd
       0.06991332 -0.12044688 -0.09804042 -0.08462232
000160 fd b3 f6 3c 04 f4 86 bc e2 fb c6 3d 03 8f f7 3d
       0.030115122 -0.016473778 0.097160116 0.12087824
000170 c4 c8 4d 3e 3c 24 b6 3d a5 02 38 be 52 08 eb bd
       0.20096117 0.0889363 -0.17969759 -0.11476196
000180 08 c0 b2 3d 81 e2 f7 3e 3b 97 e8 bd 35 67 25 be
       0.08728033 0.48414996 -0.1135697 -0.16152652
000190 f4 c0 13 3e 8b 25 0a 3e 74 83 31 bd 39 4d c3 bd
       0.14429075 0.13490884 -0.043338254 -0.095362134
0001a0 fb e1 84 be 0b ad 90 3e d3 4c 2e be 24 6e 96 be
       -0.2595366 0.2825702 -0.17021494 -0.29380906
0001b0 84 86 cf bd c3 8a 7f 3d bf fd cc bd c3 96 79 bc
       -0.10133079 0.062388193 -0.10009336 -0.015233698
0001c0 03 f2 27 be e7 58 26 3e eb 72 d4 3d 87 05 d6 be
       -0.16400914 0.16244851 0.10373481 -0.41801092
0001d0 30 42 e3 bd fe fc 94 3d 5d bc d0 bb 92 33 4a be
       -0.11096609 0.07274817 -0.006370111 -0.19746235
0001e0 49 a1 92 3d e4 0e 99 bd fb 28 e8 bd 05 3f 1d 3e
       0.07159669 -0.07473543 -0.113359414 0.15356071
0001f0 19 c9 54 be 6f c9 0f bd 77 d5 84 bd 6b eb 2d bd
       -0.20779838 -0.03510421 -0.06486028 -0.04246084
000200 a5 ea 02 be 44 8b 89 be 0d 94 3e bd 3a 25 ad 3d
       -0.12784822 -0.26864064 -0.04652791 0.08454366
000210 b5 22 19 be f6 ec d7 3d 84 72 12 3e d8 3e a3 3c
       -0.14954646 0.105432436 0.14301497 0.019927427
000220 fe 6b 91 bd d3 c2 84 bb 77 93 66 3d 5e 65 0d 3e
       -0.07100676 -0.004051545 0.056292977 0.138082
000230 ae 2b 60 3e 6a 92 f1 3d 58 ca 55 3e ae 08 d4 bb
       0.21891662 0.117955044 0.2087797 -0.0064707613
000240 13 bf 8c be 48 09 89 be 06 47 26 3e da 83 a4 bd
       -0.27489528 -0.26764894 0.16238031 -0.08032961
000250 24 00 66 bd 79 b1 db bc 89 a9 2b be f6 a8 80 be
       -0.056152478 -0.026818024 -0.16763891 -0.25128907
000260 98 54 d8 bd a0 ce ba 3b d5 52 1c 3d 6d 31 8f be
       -0.1056301 0.005700901 0.038164932 -0.27967396
000270 cc 56 2b 3e 18 bd a8 bd 78 3b ec bd 56 8d 29 be
       0.16732329 -0.08239192 -0.1153478 -0.16557822
000280 71 16 54 bd 56 f0 71 bc 69 cd 34 be e3 47 73 be
       -0.051779214 -0.014766773 -0.17656483 -0.23757891
000290 99 16 b9 bc 94 68 95 bc e9 61 b0 bd 88 f6 7e 3c
       -0.022593783 -0.018238343 -0.08612425 0.015561707
0002a0 fe fe bd bd 0e 79 8c be 45 45 38 3e 8f 1b 37 be
       -0.092771515 -0.27436107 0.17995174 -0.17881607
0002b0 72 ed 5d 3e bc 71 0a 3d 02 2f 3c be 0b 9a 09 3d
       0.2167261 0.03379987 -0.18377307 0.033594172
0002c0 16 29 80 3d f4 8d d2 be be a1 15 3e 99 8a 66 be
       0.062578365 -0.41123927 0.14612481 -0.22513808
0002d0 ac 76 93 bc 55 a6 89 bd 73 c0 03 3e bb 02 52 bb
       -0.018000923 -0.067211784 0.12866382 -0.0032045085
0002e0 be 67 0b 3e 52 02 a5 bc af 5a a0 bd 47 c1 53 bd
       0.13613793 -0.020142708 -0.078297965 -0.051697996
0002f0 91 bb 4d be 63 bd be 3d 2c 0c 08 3e 26 0a 06 3e
       -0.20091082 0.093134664 0.13285893 0.13089809
000300 cd 0c 69 be fb 4e b8 bd 62 be 31 be e5 37 2b be
       -0.2275879 -0.08999439 -0.17357782 -0.16720541
000310 33 0d 96 bd 5b 16 08 3e b1 f4 1a be 86 da 72 bd
       -0.07326736 0.13289778 -0.15132405 -0.05929043
000320 71 0c 80 bd cc 00 41 3c 5d 75 17 be 60 96 22 be
       -0.06252373 0.011779975 -0.14790864 -0.15877676
000330 1e 26 12 be 67 70 ee 3d ba 2e 89 bd ab 37 1d 3e
       -0.14272353 0.11642533 -0.066983655 0.15353267
000340 c4 dd 6e 3b 88 6b e3 bc 53 99 b1 3d 42 f8 3a 3e
       0.00364481 -0.027761236 0.086718224 0.18258765
000350 92 88 6d bd b6 8c 0f be f6 c5 b1 3d 08 f6 7e 3e
       -0.05799157 -0.1401852 0.08680336 0.24898541
000360 6b dc 59 be 64 ff 28 be 71 a6 30 3e 1b be 2b be
       -0.21275489 -0.16503674 0.17250992 -0.16771738
000370 b0 73 8b 3d 82 92 57 3e 79 be a6 3d 55 a2 73 3b
       0.06809175 0.21051982 0.081417985 0.0037175615
000380 29 eb 62 be 5b e6 0c 3d f7 8f 05 be dc 31 1a bd
       -0.22160019 0.03439937 -0.130432 -0.037645206
000390 10 88 40 bd 7d 53 84 3c fc da 8c 3c 46 30 41 3e
       -0.04700476 0.016153092 0.017194264 0.18866071
0003a0 c1 59 12 bd 69 db 79 3e ca 93 1c 3e b0 3f e0 bd
       -0.035730127 0.24400105 0.15290752 -0.109496474
0003b0 63 d2 db 3d 25 2b 21 be 8e 7e 6f bd ca 00 a3 3d
       0.107334875 -0.15739115 -0.0584703 0.07959135
0003c0 96 ad c3 bb d1 98 9e 3e e1 bb 3f 3d bf 8d 48 be
       -0.005971621 0.30975965 0.046810035 -0.19585322
0003d0 e5 fe 23 3e 8f 17 a1 bd 5f 2b 85 3e be dd ba be
       0.16015203 -0.078658216 0.26009652 -0.364973
0003e0 b8 1d 80 bd 55 5a a3 3c 00 90 5e bd 1d dc 23 be
       -0.062556684 0.019940535 -0.054336548 -0.16001935
0003f0 b8 78 d3 3d eb fa cb 3d c4 4c 8b bd 2e 65 86 be
       0.1032576 0.09959968 -0.06801751 -0.2624907

fc1.bias f4 [100]
000000 54 98 12 3e 80 c6 35 3c 55 4b 81 be 09 16 2b 3e
       0.14315921 0.011094689 -0.25252786 0.16707624
000010 35 fc b5 3c b5 b9 cf bc b8 c7 0b be a5 42 41 be
       0.022214988 -0.025357107 -0.13650405 -0.18873079
000020 71 d5 08 be d6 ef 96 bd 06 a3 81 bd cd f1 68 3e
       -0.13362671 -0.07369964 -0.063299224 0.2274849
000030 fb db 16 3d cb 3f 1c be 1f f4 e6 3d b8 d8 34 be
       0.036830883 -0.1525871 0.11277031 -0.17660797
000040 34 36 7f bd e6 04 eb 3d 16 60 c7 bd 39 17 71 3d
       -0.06230755 0.11475544 -0.09735124 0.058860037
000050 c7 66 a0 3d 45 c9 5f be 21 3e 59 be f5 d4 ca 3d
       0.07832103 -0.21854122 -0.21215107 0.099038996
000060 87 e8 01 3e 49 d4 95 bd 43 41 4d be d7 33 dc bd
       0.12686358 -0.07315881 -0.20044427 -0.10752075
000070 d1 35 55 bd cd 6f 2e 3d d9 0f cf 3d ff a3 8b 3d
       -0.052053276 0.04258709 0.101104446 0.06818389
000080 7f 41 76 3d 92 32 ba 3d 2a b7 95 3e f4 81 37 3e
       0.060121056 0.09091677 0.29241306 0.17920667
000090 47 3c 7f 3e ed 29 9d bd b2 7e b3 bd 69 ce 06 bd
       0.24925338 -0.07674012 -0.087643996 -0.03291169
0000a0 8e 3c 46 3d 87 02 31 3d 21 96 9b 3b 9c 61 5c be
       0.048397593 0.0432153 0.0047481214 -0.2152161
0000b0 0d 60 05 be ee ba 8f 3e 7b 60 0c 3c 84 f3 c7 3c
       -0.13024922 0.28072304 0.008567925 0.02440811
0000c0 c0 75 d7 bd bd bd 45 bd 65 8c 01 bd 91 4c cb 3d
       -0.10520506 -0.04827665 -0.03162803 0.09926713
0000d0 4f 36 06 be 46 1a 1d bd 88 5f 17 3e 6c c3 0d be
       -0.13106655 -0.038355134 0.14782536 -0.13844079
0000e0 62 2c e8 bd 2e 77 8f 3c 0c 7e ea 3d 92 d7 96 3d
       -0.1133659 0.017512884 0.11449823 0.073653355
0000f0 7c d4 c7 ba 07 35 80 bd 4a 4a d1 3d ab 2a c9 3b
       -0.001524582 -0.06260114 0.10219248 0.0061391196
000100 bb 09 dd 3d d0 09 4b 3b 49 6b c2 3d e7 4c 58 bc
       0.107928716 0.003098119 0.09493119 -0.013201929
000110 6c 50 ee bd ea 85 dd 3d 8a e2 d7 3d 59 69 52 be
       -0.11636433 0.10816558 0.10541256 -0.20548
000120 f1 71 3b be 6b 35 17 bd bc 6c 44 3e 04 03 0f be
       -0.18305184 -0.036916178 0.19182104 -0.13965994
000130 e4 a9 25 3e c1 66 54 39 70 c2 7b be 61 5a d2 3d
       0.1617809 0.00020256174 -0.24585891 0.10271145
000140 c5 81 a1 bd c7 a8 9c 3d 1f 27 e3 bb c2 ad e8 3c
       -0.0788608 0.07649379 -0.006932154 0.028403167
000150 fb 4b 44 be 46 47 60 be 88 ff 7c 3d aa 23 28 bd
       -0.19169609 -0.21902189 0.06176713 -0.041049637
000160 dd 31 1c be eb f0 b5 3c 6c 50 cb bd 88 f0 da bc
       -0.15253396 0.022209605 -0.09927449 -0.026726022
000170 db 37 29 3e 15 0d 94 3e ca 19 30 be ad cf 80 3a
       0.16525213 0.2891623 -0.17197338 0.0009827517
000180 06 11 eb 3d 0e 68 3a 3e 4f bf ef bd 64 be ff 3d
       0.11477856 0.18203756 -0.11706411 0.12487486

fc2.weight f4 [100, 100]
000000 ab 60 07 3d 5a 87 2e bd 00 ee 26 3c 88 16 ea 3d
       0.033051174 -0.04260955 0.01018858 0.11430079
000010 1e 7e 7f bc 7f 4e 2e be 97 cf 73 3d ed 4c 70 3d
       -0.0155940335 -0.17022131 0.059524145 0.058667112
000020 61 8f de bd 85 3c 0b 3e 4e 6c ce 3b 5b fc 88 3d
       -0.10867191 0.13597305 0.006299532 0.06688758
000030 37 a0 3e 3d 44 3d 89 3d 26 73 a7 bd 8f b2 a1 3c
       0.04653951 0.067011386 -0.0817626 0.019738464
000040 5e 2c 09 3e 6f 8c 2d 39 17 25 38 3d d9 65 bf bd
       0.13395831 0.00016550881 0.044957247 -0.09345598
000050 3b 26 aa bd 9d a2 3b bd aa cb be bd ba a8 11 bd
       -0.08308073 -0.045809377 -0.093161896 -0.0355613
000060 b5 49 a3 3c ae c2 55 be 36 b2 2e 3d 37 26 cb bd
       0.019932607 -0.20875046 0.042650424 -0.09919398
000070 5c 78 2a bd 2a 9e 81 bd 16 b0 01 3d 78 d6 73 bd
       -0.04161869 -0.063289955 0.03166207 -0.059530705
000080 01 30 a4 3d 9b 51 99 3c b7 d1 05 3e e7 67 cb bd
       0.080169685 0.01871567 0.13068281 -0.09931927
000090 23 a9 68 3c 16 b1 17 3d 4b 87 fb bd 71 fe 8c bd
       0.014200482 0.037034117 -0.122816645 -0.06884468
0000a0 bd fe 83 bd d5 e8 40 bd fa d3 2e 3a 1d fa 47 3c
       -0.06445072 -0.047097046 0.000666916 0.012205628
0000b0 4a 50 8b be a6 b7 0d bd ef c3 98 3d 6c 5b 1a 3e
       -0.27209693 -0.03459897 0.07459246 0.15073937
0000c0 66 cb e7 ba c8 2b d1 bd ee 9e 6b 3d 68 b8 ed 3d
       -0.0017684519 -0.10213429 0.057524614 0.11607438
0000d0 c2 f9 80 bd 90 03 81 3d 5e c5 82 3d b2 64 39 bb
       -0.062976375 0.062995076 0.06385301 -0.002828878
0000e0 06 48 07 bd 03 da 86 bd 82 f3 8d 3d 75 1e 55 bd
       -0.03302767 -0.06584551 0.06931211 -0.052031
0000f0 6d 77 09 bd 68 d7 f2 bd 19 8c f6 3c d7 67 2a 3e
       -0.03356116 -0.11857492 0.0300961 0.16641174
000100 d8 98 25 bd 45 14 cd 3d 65 52 96 bd 3d 56 9b 3c
       -0.040428966 0.10013632 -0.07339934 0.01896202
000110 45 f7 39 3d 4a c2 f1 3c 63 54 e1 3d 7b 2d 18 bd
       0.04540183 0.02951159 0.110024236 -0.03715275
000120 a1 92 8c 3c 29 56 5b 3d a1 0b eb 3d 18 fa 4b 3c
       0.017159762 0.053548966 0.114768274 0.012449764
000130 02 28 ce bd b9 ac bf bc 4f a4 d7 3d cd e2 7c bb
       -0.10066225 -0.02339779 0.10529386 -0.0038587332
000140 c7 e7 9a bd 92 82 0b 3e ed b9 2b bc 1a bb 13 bb
       -0.07563739 0.13624027 -0.01048134 -0.002254194
000150 e1 c6 55 bd 68 b4 df 3d 5f 3a b3 3d f2 22 9d 3d
       -0.05219162 0.10923082 0.08751368 0.07672681
000160 74 2f 3f bd d1 36 3d 3d d5 39 17 3d b8 17 08 bc
       -0.046676114 0.046194855 0.036920387 -0.008306436
000170 9e f0 99 bc bb ea fc 3c af c7 e0 bd 79 45 0a 3e
       -0.018791493 0.030873647 -0.109755866 0.13503064
000180 ab 9d ab 3d 12 9e cf bd 56 e4 9d 3d b5 32 d9 3d
       0.08379682 -0.101375714 0.07709567 0.10605375
000190 ea 2c 37 3e 25 65 43 bc 2c f6 c4 bc 84 d2 1d be
       0.17888227 -0.01192597 -0.024043165 -0.15412337
0001a0 23 61 a3 3d a9 41 fb 3b f5 3b a6 3d f8 fb 57 bd
       0.07977512 0.0076677394 0.08116905 -0.05273053
0001b0 53 29 0d 3c 86 53 79 bc 5f c8 7d bd c8 bf ec 3c
       0.0086158095 -0.015217667 -0.061958667 0.028900042
0001c0 82 ed a8 bd 00 08 2d bc 99 e9 7b be 2a b6 11 be
       -0.08248426 -0.010560989 -0.24600829 -0.14229646
0001d0 5a ab bf 3c e7 2c eb bd c8 a5 10 3e 6a e0 ba 3d
       0.023397136 -0.11483174 0.1412574 0.09124835
0001e0 97 54 52 bd f1 68 f5 3c d0 36 a8 3d 1c 5d f1 3d
       -0.051350202 0.029957267 0.0821358 0.11785337
0001f0 f0 50 3a 3c 56 00 b1 bd 5b ce 9d 3c 0a ad 05 bf
       0.011371836 -0.08642642 0.019263437 -0.5221716
000200 89 72 91 bc fd fa 9f 3c f6 04 f3 bd 29 f3 ad bc
       -0.01775481 0.01952886 -0.118661806 -0.021234112
000210 30 2b 48 be 30 43 85 3c a8 d1 04 be c7 2e 9a 3d
       -0.19547725 0.016267389 -0.12970603 0.07528453
000220 86 30 a3 3c 31 3c 0a 3e 61 ad 8f bd fb 15 e9 bd
       0.019920599 0.13499524 -0.07015491 -0.113811456
000230 b5 b0 da bd 31 18 96 3d 6a bd c4 bd e0 7c dc 3d
       -0.106782354 0.07328833 -0.0960644 0.107660055
000240 91 fd 83 3c f0 58 9e 3d f3 1d 94 3d 4f 11 3a 3d
       0.01611212 0.07731807 0.07232275 0.045426663
000250 c4 c5 ef 3d 23 5e 25 3e 05 a9 02 3e bd d2 34 3d
       0.11707643 0.16149192 0.12759788 0.04414629
000260 cb 4c 51 3d 3e c2 a6 bd 3c cc 15 3d dc 2b c0 bc
       0.051098626 -0.081425175 0.036571726 -0.023458414
000270 e4 8a 13 bd c1 33 02 bc 06 2e 00 3e 3e de f7 3d
       -0.03602113 -0.007946909 0.12517557 0.12102936
000280 b5 5f bf bd f2 a7 39 3e 10 1a f4 3d b1 74 f2 bc
       -0.093444265 0.18130472 0.119190335 -0.029596658
000290 cf 77 f3 3c 0e 35 fc 3d 22 9f 97 3c 9c 4f 31 bd
       0.029720215 0.12314807 0.018508498 -0.043288812
0002a0 d0 7b c5 bd e8 34 d4 3d 33 20 7b 3d a9 c6 21 bd
       -0.09642756 0.103616536 0.061310004 -0.039496098
0002b0 49 f0 85 3d 73 8d f1 bd 3a 6f 36 be e3 90 3a 3d
       0.065399714 -0.117945574 -0.17815867 0.04554833
0002c0 5f f4 a4 3d 62 31 2a bc d1 85 09 3d d1 03 e1 3d
       0.080544226 -0.01038775 0.033574883 0.10987056
0002d0 dd e3 11 be fa ee 13 3d 8d b9 b0 bd fa ea 46 3d
       -0.14247079 0.036116578 -0.08629141 0.048563935
0002e0 b0 48 85 bd 5e b2 df bd ea 16 26 be 25 04 e5 bc
       -0.06508005 -0.10922693 -0.16219679 -0.027956078
0002f0 82 e7 33 be 57 8b 54 bd e3 e9 f5 3d a1 ee 83 bd
       -0.17568782 -0.051890697 0.12007501 -0.06441999
000300 e6 82 e6 bd 80 c6 22 3d 34 38 00 3d 5d 41 86 bc
       -0.11255436 0.039740086 0.0313036 -0.01638859
000310 98 8a 9b 3d 75 29 95 bd 6c cf 54 3d cc ce a2 3b
       0.07594794 -0.07283298 0.051955625 0.0049684998
000320 e8 27 da bc 55 59 14 bc bd a1 6c bd 80 90 2c be
       -0.026630357 -0.009054502 -0.057771433 -0.16851997
000330 11 5f 47 bd ef 41 3f 3c ef 5e 36 be 4d 6c 5a 3d
       -0.048674647 0.011673435 -0.17809652 0.05332594
000340 76 d7 33 3e 1c 35 b0 3d 95 0e 23 be ec c2 3d be
       0.1756266 0.0860388 -0.15923531 -0.18531388
000350 bd 00 f3 bc 8c 7c 19 3d b6 3d 81 bd d7 91 58 bd
       -0.029663438 0.037472293 -0.063105986 -0.05287346
000360 41 14 5a bd cd ef 4b bd 6e 0b 9b bd 70 2d 77 bd
       -0.053241972 -0.04978924 -0.075705394 -0.060346067
000370 76 42 4e bd a4 69 9d 3d 2d 91 21 be e2 6c 7d bb
       -0.05035635 0.07686165 -0.15778036 -0.0038669636
000380 72 8b 09 3c c1 9e 1a 3c 9e e7 e4 bd c9 a5 00 3e
       0.008395063 0.009437264 -0.1117699 0.12563242
000390 37 41 8f be 32 4b 8b 3d 9d c4 bc bc 2c 77 34 be
       -0.27979442 0.06801452 -0.023042971 -0.17623585
0003a0 45 ec 11 3e 20 80 18 bd 4a be 05 3d fc 68 87 bd
       0.14250286 -0.037231565 0.032652177 -0.06611821
0003b0 14 37 85 be ab 43 f4 bd f1 32 fd 3d 83 1a 59 3e
       -0.26018584 -0.11926969 0.12363232 0.2120152
0003c0 02 c0 60 be 40 a6 0a be d4 ca ea 3c 4e 25 69 be
       -0.21948245 -0.13539982 0.02866117 -0.22768137
0003d0 bf 91 86 3b d3 88 36 bc 2f 53 a9 bd 3a 91 37 bd
       0.0041067298 -0.01114102 -0.08267819 -0.044816233
0003e0 a7 ad cd bc 28 a0 b4 bd c5 d5 29 bd 7f a0 f3 3b
       -0.025107218 -0.0881961 -0.041463632 0.007434904
0003f0 0e 0c d5 bd e2 35 b6 3d 66 2b 0b be 07 4c 7b 3d
       -0.1040269 0.08896996 -0.13590774 0.061351802

fc2.bias f4 [100]
000000 8d 34 e5 3d b8 5c 05 3d 34 64 9c bc 3a 81 29 3e
       0.11191664 0.032559127 -0.01909075 0.16553202
000010 e4 dd a4 bd ad 1f 9f 3d 34 f1 b2 bc 57 ed dd bd
       -0.08050135 0.077697136 -0.02184353 -0.108362846
000020 39 0c df 3d 41 c1 34 bd 1f 81 a8 bd 01 50 9a 3c
       0.10891003 -0.044129614 -0.08227753 0.018836977
000030 1f d9 05 3e 9d a1 14 bd 62 58 9a bd e8 eb dd 3c
       0.13071106 -0.03628694 -0.07536389 0.027090028
000040 e4 c0 05 3e cf 85 da bd 61 98 94 bd e7 04 c8 3d
       0.13061863 -0.10670053 -0.072556265 0.0976656
000050 e7 68 f6 3c bb f5 fd bd 89 de 4d bd 09 3f c6 bb
       0.030079318 -0.12400385 -0.050261054 -0.006049995
000060 76 da 8f 3d c6 8f c0 3d 12 9a 5a 3d 55 0e 99 bc
       0.0702409 0.094024226 0.05336959 -0.018683592
000070 4b 7a bd 3d 80 1f 57 bd dc 67 42 bd 79 bb d8 3b
       0.09251841 -0.052520275 -0.04746233 0.0066141454
000080 ce 5f a7 bd 50 a7 05 bd db 48 79 bd fe da e7 bd
       -0.0817257 -0.032630265 -0.060860496 -0.11321066
000090 cc 6b 50 3d d9 aa 11 3e 4c 3e 9e bd 07 a7 ed 3a
       0.050884053 0.1422533 -0.07726726 0.0018131443
0000a0 ce de 43 bd 6d af e5 bd 3a d1 ab 3d 62 d1 cb bc
       -0.047819905 -0.112151004 0.08389516 -0.024880115
0000b0 2c 59 4b 3d e5 89 04 be 20 f4 28 bd b7 cc 36 bd
       0.049645588 -0.12943228 -0.04124844 -0.044628825
0000c0 cc 0e 95 bd 79 92 c3 3d f7 40 0e ba 99 87 31 3d
       -0.07278213 0.09549422 -0.00054265506 0.043342207
0000d0 3d e4 54 bd 7d 11 d4 bc cb 99 8b bd ec 74 04 3e
       -0.051975477 -0.025887245 -0.06816443 0.12935227
0000e0 28 ef e9 bd fe 6d 0d bc eb f6 0c 3e be 4d 0d 3d
       -0.114225686 -0.008632181 0.13766067 0.03449797
0000f0 88 b2 0d bd 7f 9a f9 3c 6c e5 1b 3e 4c 50 14 bd
       -0.03459409 0.030469177 0.15224236 -0.03620939
000100 8c c6 b6 bc b4 8a 4a bd 0d 2b 9f 3d af 30 5a 3d
       -0.022311471 -0.049448684 0.07771883 0.053269085
000110 ce 2c 93 bd 02 08 30 bd 9c 13 fd bd d3 a2 3a bd
       -0.0718628 -0.042976387 -0.12357256 -0.045565438
000120 8b f4 f6 3c 0c c0 c3 3d 97 6e a5 bb b4 e0 36 bc
       0.030145904 0.095581144 -0.0050485837 -0.011161972
000130 f8 e1 8a bc cd bc 05 3d 17 3c 85 3c bc 4c ce 3c
       -0.016953453 0.032650758 0.016264005 0.025183074
000140 80 df 13 3c 04 8c b0 bd fc 9c 11 be 38 1f 75 3d
       0.0090254545 -0.08620456 -0.14220041 0.059844226
000150 6c d6 b9 3c b9 cd 08 bd c7 55 93 3d 94 98 3d 3d
       0.022685252 -0.033399317 0.07194095 0.046288088
000160 f6 14 fd 3c 22 fe 4b bd 54 65 59 bb 39 74 48 3d
       0.030893784 -0.049802907 -0.0033171969 0.048938964
000170 ec 22 54 bb c2 ba 22 bd 20 07 80 bd 9d 32 0c 3e
       -0.0032369448 -0.039728887 -0.06251359 0.13691182
000180 35 d3 57 bd 4e cb 0d 3e a4 ea 88 bd 55 b4 93 bd
       -0.052691657 0.13847086 -0.06685379 -0.0721213

fc3.weight f4 [50, 100]
000000 a0 3e e0 3d 4a 43 b6 3d 91 53 01 3e d3 c4 19 3c
       0.10949445 0.08899553 0.12629534 0.009385305
000010 87 2e 95 3e 60 89 69 3d 5a 9a 17 3d 7d d5 52 3d
       0.2913706 0.057015777 0.037012435 0.05147313
000020 1f a1 21 3e da 8f f3 3c ca b0 5f 3d 3c 9b 0f 3e
       0.15784119 0.02973168 0.05461196 0.14024061
000030 2f 5d 26 3e f3 f0 bd 3d 22 7c d4 3d a8 20 b3 3d
       0.16246484 0.09274473 0.10375239 0.08746463
000040 f0 bd ab 3d fe de 00 3d f4 b8 4d bd a0 f2 d6 3b
       0.08385837 0.031462662 -0.050225213 0.006559685
000050 fd d3 15 bd 67 42 52 3c 5f 1a d4 3c 49 8b 77 bd
       -0.03657912 0.012833214 0.025891481 -0.060435567
000060 51 44 f1 3c ff c1 06 3d b0 22 de 3c ec 91 3a bd
       0.029451521 0.032899853 0.02711615 -0.04554932
000070 db 15 ec 3c 51 ae 3a bd b2 bf 48 be 5a 94 91 3e
       0.028819015 -0.045576397 -0.19604376 0.28433496
000080 4b a0 b3 3c 79 3c 98 3d 6c eb c1 3d e4 8b 8a 3d
       0.02192702 0.07433409 0.09468731 0.06764963
000090 b0 e1 88 bc 82 fe ec 3b 61 83 00 3d 39 ad b3 3c
       -0.016709179 0.007232488 0.031375293 0.021933185
0000a0 ff db ba 3d cd b9 7e bd c1 1a e5 3d 07 b8 58 bd
       0.09123992 -0.062188912 0.111867435 -0.052909877
0000b0 2a e5 b0 bd fc 8f 23 3d 2d 95 f4 bd 06 a6 66 3c
       -0.086374596 0.039932236 -0.119425155 0.014077669
0000c0 e5 0a c2 3b 24 73 38 bd 8b 4b 60 bd 86 37 d1 bd
       0.005921709 -0.04503168 -0.054759543 -0.102156684
0000d0 42 0f e7 3d 36 22 4e be 78 38 ac 3d 36 18 87 3b
       0.11282207 -0.20130238 0.08409208 0.004122759
0000e0 ea 9c cd 3c 0d 67 03 3e 74 21 c1 bc c4 80 64 bb
       0.025099237 0.1283228 -0.023575522 -0.003486679
0000f0 93 20 08 3d 5e 3f 1f 3d 17 e3 59 3d f3 de 8d 3d
       0.03323419 0.03887879 0.053195085 0.0692729
000100 44 0f 18 3e 75 05 f0 3d 2e d6 76 3e dc 15 3e 3e
       0.14849573 0.11719791 0.2410514 0.18563026
000110 a7 95 81 3d 1e 38 db 3d 8c 76 3c bd a8 2b a3 3d
       0.06327372 0.10704063 -0.046011493 0.07967311
000120 2e 36 16 3e 94 f2 03 be 0f 83 0c 3e 7d 68 4a be
       0.14669105 -0.12885505 0.1372187 -0.19766422
000130 dd fd b6 3d dc a1 99 bd d2 bb 2f 3e c4 a8 54 3b
       0.08935139 -0.07501575 0.17161492 0.0032449225
000140 59 ee 11 3e 05 48 21 be f4 17 e4 bc 32 a3 0b 3e
       0.14251079 -0.1575013 -0.027843453 0.13636473
000150 e9 f8 01 bd cd b0 26 3c 45 05 db bd d7 13 02 be
       -0.03173152 0.0101739885 -0.106943645 -0.12702881
000160 34 ee 19 bc 15 2b 37 be f2 41 9a bd 16 a4 b6 bd
       -0.009395171 -0.17887528 -0.07532109 -0.08918016
000170 cc 52 19 3d 47 fb c3 3b 53 cc a2 3d 56 f7 5f bc
       0.037432477 0.0059808823 0.07949128 -0.013669809
000180 3b 75 15 3e 9a ab c5 bc 42 54 04 3e a0 f8 91 bd
       0.14595501 -0.024129678 0.12922767 -0.071274996
000190 fd 37 07 3d 41 50 11 3d 16 54 e5 bc 75 f2 ef bc
       0.03301238 0.035476927 -0.027994197 -0.029290417
0001a0 b8 3b 68 be 6a 53 61 3d 52 79 8c 3d ab 5d 49 3e
       -0.22679031 0.05501119 0.068590775 0.19664638
0001b0 93 5f 3e be 5c 16 cf bd 56 ff 4d bd 25 2e 6a 3d
       -0.18591146 -0.101116866 -0.050292335 0.057172913
0001c0 d5 34 6f be 27 97 61 be 4d 27 26 3d 8b 29 9f 3d
       -0.23359998 -0.22030316 0.040564824 0.077715956
0001d0 34 37 2e be 18 69 78 3d 32 86 54 3c d7 cf 30 3d
       -0.17013246 0.0606471 0.012971448 0.04316696
0001e0 45 da ef 3d d7 0f 6a 3d be 74 ae 3d 98 32 b2 3d
       0.117115535 0.057144012 0.085183606 0.08701056
0001f0 a3 f5 8a 3d 29 0f ae bd ff d1 03 3d 64 83 bb 3d
       0.06785133 -0.08498985 0.03218269 0.0915592
000200 1c 7f 74 bd f6 7d a9 bd 61 3d ac 3d fc 46 23 bf
       -0.059691533 -0.08275978 0.084101446 -0.6378019
000210 37 62 47 3d 75 55 36 3e 4f a0 63 3b 85 ca 03 3e
       0.04867765 0.17806037 0.0034733003 0.12870224
000220 51 94 05 be b5 83 a3 3d 0a 21 8d bd 66 9e 7f be
       -0.1304486 0.079841055 -0.06891067 -0.24962768
000230 02 a1 05 3e 5f 4c 92 3d f2 95 cd ba f4 ef 09 3e
       0.13049701 0.07143473 -0.0015684946 0.13470441
000240 8f 09 d6 3b 57 df 8c bc fd 19 bb 3d 0c 98 07 3e
       0.006531901 -0.01719634 0.09135816 0.13241595
000250 b9 67 5a 3c 52 8c d3 bd c8 df 02 be 69 f6 0a 3e
       0.0133303935 -0.10329498 -0.12780678 0.1357056
000260 52 6a c3 3d 8b 26 41 3e 7b 9b 3c 3b 9e bd 81 3b
       0.09541763 0.18862359 0.0028779197 0.0039593717
000270 32 60 03 3e d4 82 6a be fb 19 0a be d6 47 d1 3d
       0.12829664 -0.2290147 -0.13486473 0.1021878
000280 5b ce 66 bd de ea 3d be 5f e4 ce bc 24 3f 48 3d
       -0.05634914 -0.18546626 -0.02525538 0.04888834
000290 eb a3 b3 bc 77 0e 75 3c 94 87 47 be 77 1e 2f be
       -0.021928748 0.014957062 -0.19485313 -0.17101465
0002a0 1b 86 b4 3d 3d 71 f6 bd df 2d 18 3e c4 1e 29 3d
       0.08814641 -0.12033317 0.14861248 0.041289106
0002b0 08 e7 ab 3d af 5b fa 3d 64 94 26 bd 53 57 20 3e
       0.08393675 0.122245185 -0.04066886 0.15658312
0002c0 6f 97 c0 3c b6 64 a6 bc 95 8a 46 be ae 01 6b be
       0.02350971 -0.020311695 -0.19388802 -0.2294986
0002d0 d9 46 f3 bc 0f 63 b9 3d 9e 1f 21 3e f3 18 ec bd
       -0.029696869 0.09052097 0.15734717 -0.11528196
0002e0 b0 61 e6 3d 65 5c 87 3d c6 f1 04 3d 3d 4f 86 3c
       0.11249101 0.0660942 0.032457136 0.016395206
0002f0 6c 02 ae 3c d1 f4 4f 3e 82 90 ad 3c 41 ca f6 3c
       0.02124139 0.20308234 0.02118707 0.030125739
000300 87 43 6e bd 1f f0 52 bd 24 44 9e bc 17 36 d3 bd
       -0.058169868 -0.05149853 -0.019319601 -0.10313051
000310 13 6c 74 3d fe 6d 1a bd 91 fc 8f bd f7 1a 10 3e
       0.05967338 -0.037702553 -0.07030595 0.14072786
000320 c1 1a 6a 39 d9 e7 a4 be e9 cd 5a 3d a2 3e 97 bd
       0.00022325946 -0.32208136 0.053419027 -0.07384993
000330 34 3d 6b 3e 4e dc 39 3d bf 2a a8 bd d1 62 14 bd
       0.22972566 0.045376115 -0.08211278 -0.03622705
000340 6b 6b 47 bd e3 2a 9f 3d ea 7b 39 3e c9 36 b0 3d
       -0.048686426 0.07771852 0.18113676 0.086041994
000350 43 c9 3f 3e 5e aa 8e 3d 4d c2 ce 3b 6e d2 b0 3d
       0.18729119 0.06966089 0.0063097836 0.08633886
000360 7f ea 09 3d 73 db 58 3d 88 2c 6a 3d dd ce 8a 3c
       0.0336709 0.052943658 0.057171375 0.016944343
000370 e4 7b f6 bc 72 41 d3 bb de 6a a1 3d 38 b2 24 3d
       -0.030088373 -0.0064470107 0.078817114 0.040209025
000380 b0 56 60 3d ff 8c c1 3d a7 63 2c 3d 9a 3e 25 bd
       0.05477017 0.09450721 0.042087223 -0.040342905
000390 d0 0c da bc 57 39 12 bd a5 68 b1 bd de 82 cf bc
       -0.026617438 -0.035699215 -0.086625375 -0.025330957
0003a0 e6 c9 81 bd 9a e5 a7 bd ac d3 c8 3d 53 68 81 3d
       -0.06337337 -0.0819809 0.09805998 0.063187264
0003b0 f1 0c dc bc ad df 12 bd 4d 2f 96 3d 79 c7 a8 3d
       -0.02686164 -0.035857845 0.07333241 0.082411714
0003c0 03 2f 0f 3d e1 42 db bd f4 77 d1 3d 12 ab 3c 38
       0.034956943 -0.107061155 0.10227957 4.4982015e-05
0003d0 97 3e 4a bd ef fd d5 3d df cc 6c be 37 7f 16 be
       -0.049376097 0.104488246 -0.23125027 -0.14696966
0003e0 ca 03 e1 bd a0 2b c7 bc 28 9a 03 bd 4b 00 f2 bd
       -0.10987051 -0.024312794 -0.032129437 -0.11816462
0003f0 d4 dc 1c 3d 96 27 9e bd cf b3 7c bd 98 ff fb bc
       0.038296536 -0.07722394 -0.061694916 -0.030761525

fc3.bias f4 [50]
000000 00 81 90 bb 44 10 20 3b 28 5a 65 bd bf b4 b4 bd
       -0.0044099092 0.0024423758 -0.055994183 -0.08823537
000010 73 88 66 bd 8f 4f 81 3d f6 a5 a8 3d f2 fa a6 3c
       -0.056282472 0.06314003 0.082347795 0.020383332
000020 9d e3 b3 bc b9 be 28 bd 72 2e bc 3d 20 8c d5 3d
       -0.02195912 -0.041197512 0.09188546 0.10427117
000030 fe 3b d2 bd 2d 48 b8 3d 2d fe 77 bd 6d 33 65 bd
       -0.10265349 0.089981414 -0.060545135 -0.055957247
000040 2a 60 c0 bd 08 cc b4 bc a6 81 87 3c a6 d6 6f bb
       -0.09393342 -0.022069946 0.016541313 -0.0036596446
000050 69 d0 a8 bc 3e 6e 82 bd 8b 4c 9c 3c 44 b9 d7 3d
       -0.02060719 -0.06368683 0.019079467 0.105333835
000060 4b c0 cf bd 23 ee 0f 3c 63 82 f6 bc f6 8c 0a 3d
       -0.10144099 0.008784804 -0.03009147 0.033825837
000070 16 c8 be 3d f9 ca 86 bc aa dd 7f 3c f4 5e 2e bd
       0.09315507 -0.016454207 0.015616814 -0.042571023
000080 85 fa c6 3d c0 34 71 ba 61 f2 4f 3d 94 d0 92 bd
       0.097157516 -0.0009201281 0.05076826 -0.07168689
000090 d4 1d be bd b8 0e 20 3e 49 a2 76 bb 35 8b e2 bc
       -0.09283033 0.15630615 -0.003763335 -0.02765427
0000a0 25 44 0e 3d ce 1f 63 3d 4b f4 b7 3c 48 14 be bd
       0.034732956 0.055450253 0.022455355 -0.09281212
0000b0 d5 7a c2 bd ae ff a2 3d 6c 9e ef 3b e5 8b da 3d
       -0.094960846 0.07958923 0.0073125865 0.10671214
0000c0 2b 60 e2 bc 77 b3 b8 bd
       -0.027633747 -0.09018605

fc4.weight f4 [2, 50]
000000 1f 00 e5 bd 77 49 b3 3e b6 26 92 3e 48 c5 70 be
       -0.11181664 0.35016987 0.2854516 -0.23512757
000010 81 56 9b bd f2 9c ac 3e a8 82 87 3e 0e ba 12 3e
       -0.07584859 0.3371349 0.2646687 0.14328787
000020 ed 6e 9d 3e ad 45 54 3e 4a 12 e7 bd 5b c4 34 be
       0.30748692 0.20729704 -0.11282785 -0.17653029
000030 17 06 ed bd a7 e4 ee be 91 f8 80 3e 15 ef 6d 3e
       -0.11573427 -0.46658823 0.2518964 0.23235734
000040 d6 f8 57 3e 01 09 27 3b 17 37 29 be 5f 9e b7 3d
       0.21091017 0.0025487544 -0.16524921 0.08965754
000050 08 4a c9 3d 2c 45 5e 3e 49 e2 ee bd dd fd 6e be
       0.098285735 0.21706074 -0.11664254 -0.23339029
000060 31 e1 6c 3d 50 95 1e bb ff 55 86 3e f9 12 99 3d
       0.057831947 -0.0024197884 0.26237485 0.07474322
000070 9d b4 f7 3b fe f0 2b 3e 57 83 d6 bd 1e 08 80 3e
       0.0075593726 0.1679115 -0.1047427 0.25006193
000080 bf 21 2b bd 8f f1 70 be 6e fd 43 3e 70 88 c0 bd
       -0.04178023 -0.23529647 0.19139645 -0.094010234
000090 ad 4c 6a 3e 00 4f 29 3e 6f 25 8d bd 8b 4b 00 be
       0.22880812 0.16534042 -0.068919055 -0.12528817
0000a0 d5 e3 02 3e b0 89 92 3e 7d 24 6a 3e 8b 2b c0 3e
       0.12782224 0.28620672 0.22865482 0.3753322
0000b0 f2 f5 17 be 5c 15 47 be d5 b4 b7 3d 50 70 08 bd
       -0.14839914 -0.19441742 0.08970038 -0.033310235
0000c0 cf 54 ec 3d e2 9f e8 3e 33 08 4d bd d2 58 cb 3e
       0.115396135 0.4543448 -0.050056648 0.39716202
0000d0 3c 6c 4a be 86 9f 6c be fe eb 23 3e cc ac 4e 3e
       -0.1976785 -0.23107728 0.16007993 0.20183104
0000e0 5d ad d5 bd 9e d0 b1 3c 37 bf e2 3d a1 0c 2b 3e
       -0.10433457 0.021705922 0.110716276 0.16704036
0000f0 24 15 31 be 95 a7 58 be 4e 7b b3 3d 33 35 54 be
       -0.17293221 -0.21157677 0.08763753 -0.20723419
000100 3e 31 f9 bd 56 5d 49 be 5c a9 04 3e 40 4f 5d 3e
       -0.12167595 -0.19664511 0.1295523 0.21612263
000110 75 9a 8b be 11 ae a3 3e df 69 40 be 61 ce a6 3e
       -0.2726628 0.3196874 -0.18790387 0.3257933
000120 15 da 21 3e 8f 80 b1 bd 1f b3 87 3e 65 d9 b5 3e
       0.15805848 -0.08667099 0.26503846 0.3551742
000130 ab 60 4c 3e d6 c7 78 be 59 52 31 be 16 94 52 be
       0.19958751 -0.24294981 -0.1731657 -0.20564303
000140 d5 18 7a 3e b4 09 1c 3e bf eb 1a be 18 6f 8a bd
       0.24423535 0.15238076 -0.15128992 -0.06759471
000150 66 60 3e 3e 04 1b 44 3e b0 d0 67 3d 74 4a 61 be
       0.1859146 0.1915093 0.056595504 -0.22001058
000160 a9 fc 06 be 3e 59 43 3e d2 3a 43 3e ce 46 8c 3e
       -0.1318232 0.19077012 0.19065407 0.2739777
000170 35 94 a4 3e 1f b7 86 bc 35 6a a8 3e 9d ed 93 bd
       0.32144323 -0.01644474 0.3289353 -0.072230555
000180 5b 8a 1d be 64 a5 4a be 1f cc 66 3e fc 60 b7 3d
       -0.1538481 -0.19789654 0.22538804 0.08954045

fc4.bias f4 [2]
000000 53 e4 a7 3d a7 3c d3 3d
       0.08197846 0.10314303
