Results/BS_1024_EP_2000_TMAX_1000_NOISE_0.01/last_checkpoint_critic.pth (torch_old, 72817 bytes, 7 tensors)

fc1.weight f4 [100, 26]
0	0x3e43ac7a	0.19108763
1	0x3ea47f83	0.32128534
2	0xbe2dec4c	-0.16984671
3	0xbe02e71b	-0.12783472
4	0xbf124385	-0.57134277
5	0xbe855a27	-0.26045343
6	0xbc49d66a	-0.012319187
7	0x3e301e92	0.17199162
8	0x3e1485f5	0.14504226
9	0x3e865974	0.26240122
10	0xbd94be2b	-0.07262834
11	0xbe0d7c36	-0.13816914
12	0xbeb6cb50	-0.3570199
13	0xbe81e24e	-0.2536797
14	0xbdc0ed88	-0.094203055
15	0xbdbd242a	-0.09235413
16	0x3e17574d	0.14779396
17	0x3db79c9f	0.0896542
18	0xbe06f0ae	-0.1317775
19	0xbdd2ee93	-0.10299411
20	0x3e9ada8c	0.30244863
21	0x3ebcb266	0.36854857
22	0xbd207f45	-0.039183874
23	0x3e04436b	0.12916343
24	0xbd96ede5	-0.073695935
25	0x3e12300f	0.14276145
26	0x3ea06ba2	0.31332117
27	0xbe4d83e3	-0.20069842
28	0xbd99d954	-0.07512155
29	0xbeda853b	-0.42679772
30	0xbebe6c3b	-0.37191948
31	0x3eca8657	0.39555618
32	0xbda15634	-0.0787777
33	0xbeef5282	-0.46742636
34	0x3e0ee8aa	0.13955942
35	0xbd5d19b5	-0.053979594
36	0xbdfb077b	-0.12257286
37	0x3db7a2b2	0.089665785
38	0xbd35c80b	-0.04438023
39	0x3e8181da	0.2529438
40	0x3b1199c1	0.0022216889
41	0xbe37c444	-0.17945963
42	0x3eae5506	0.34049243
43	0xbc51d9f2	-0.01280831
44	0xbd9a4767	-0.0753315
45	0xbe19db0c	-0.15024966
46	0xbd413c64	-0.047176734
47	0x3efccd7b	0.4937552
48	0xbca8c29e	-0.020600613
49	0xbd664982	-0.056222446
50	0x3e461c6b	0.19346778
51	0x3dec3a4e	0.11534558
52	0x3e016a22	0.12638143
53	0xbee866e3	-0.45390996
54	0x3df3af27	0.11898642
55	0x3ce845a1	0.028353514
56	0xbd125141	-0.03572202
57	0xbe908614	-0.28227293
58	0xbe17fec2	-0.14843276
59	0x3d2e256e	0.042516164
60	0x3e7657e2	0.24056962
61	0xbeafbb2d	-0.3432249
62	0xbe117c42	-0.14207557
63	0x3e943001	0.28942874
64	0x3e941713	0.28923854
65	0xbe38f21b	-0.18061106
66	0xbc96e043	-0.018417483
67	0x3e8d1e53	0.27562198
68	0x3f076d37	0.52901024
69	0x3dd6eea1	0.104947336
70	0xbe00a0d5	-0.12561353
71	0x3ddcd605	0.107830085
72	0x3f3937ba	0.72350657
73	0xbd906216	-0.070499584
74	0x3e48e35d	0.19617982
75	0x3eb49ab6	0.35274285
76	0x3ddea3e5	0.10871104
77	0xbdf40078	-0.11914152
78	0x3ead842a	0.33889896
79	0xbe5eaab6	-0.21744809
80	0xbe2d1b41	-0.16904928
81	0x3e946bca	0.28988487
82	0x3e8ac4a8	0.27103162
83	0xbea9a94d	-0.3313698
84	0x3d4e8dbb	0.050428133
85	0x3da929eb	0.08259948
86	0x3d8c94cf	0.068643205
87	0xbf04b033	-0.5183136
88	0xbd07459a	-0.03302536
89	0xbe6172e9	-0.22016491
90	0x3db6419a	0.08899231
91	0x3cf66006	0.030075084
92	0x3d02df99	0.03195152
93	0xbcfb488e	-0.030674245
94	0xbe5e3cdf	-0.21702908
95	0xbf1d43c1	-0.6143151
96	0x3d1e541c	0.03865443
97	0x3e71e7f3	0.23623638
98	0xbe520f73	-0.20513706
99	0xbf054961	-0.5206509
100	0x3e003bc4	0.12522799
101	0x3ea798d1	0.32733777
102	0x3f1d3190	0.6140375
103	0x3e069d5f	0.1314597
104	0xbe828ed8	-0.25499606
105	0xbca74ea4	-0.020423241
106	0xbde81b52	-0.11333336
107	0xbe298223	-0.1655355
108	0x3ed979e0	0.42475796
109	0xbdd505f9	-0.1040153
110	0xbd3c4538	-0.04596445
111	0x3dd11fe3	0.1021116
112	0xbe58ea98	-0.2118324
113	0x3e9002c9	0.28127125
114	0x3d944abe	0.072408184
115	0xbe544b9d	-0.20731969
116	0x3e08fcbb	0.13377659
117	0xbe88fc35	-0.2675492
118	0xbd08b63d	-0.03337692
119	0x3b95e7e6	0.0045747636
120	0x3cddd053	0.027076876
121	0x3e3ac6b7	0.18239866
122	0xbd9fad9f	-0.077967875
123	0x3d1e7c4f	0.03869277
124	0xbf2bc085	-0.67090636
125	0xbe96a161	-0.29419997
126	0xbd007f1c	-0.03137122
127	0xbe193af3	-0.14963894
128	0x3e28693a	0.16446391
129	0xbdedc0e7	-0.11609059
130	0x3e1dd1d8	0.1541208
131	0x3f1895bd	0.5960348
132	0xbdc6c073	-0.097046755
133	0x3eca2cd4	0.39487326
134	0x3de1ea55	0.110310234
135	0x3ee27f1e	0.44237608
136	0x3d142464	0.036167517
137	0x3ec6aa78	0.38801932
138	0x3e136ec3	0.14397721
139	0x3f5d25ac	0.8638561
140	0x3e3c9947	0.18417846
141	0x3e28d007	0.16485606
142	0x3e0bb09d	0.13641591
143	0x3e0792e3	0.13239627
144	0xbe360897	-0.17776714
145	0xbd57b4ee	-0.052662782
146	0x3e77a041	0.24182226
147	0x3f4f9c95	0.810983
148	0xbd8731bb	-0.06601282
149	0x3d860118	0.06543177
150	0xbe9f795b	-0.31147274
151	0xc023ee24	-2.56141
152	0xbc08370b	-0.0083139045
153	0x3ea58346	0.32326716
154	0xbe20136d	-0.1563241
155	0x3e34f106	0.17670068
156	0x3dd6f90a	0.10496719
157	0xbdadd8c9	-0.08488614
158	0x3bcac7fa	0.00618839
159	0xbdd52149	-0.10406739
160	0xbc25461e	-0.010087518
161	0xbe42e947	-0.190343
162	0xbe036a55	-0.12833531
163	0xbe468917	-0.19388233
164	0x3e2a4abc	0.16630071
165	0x3e11354b	0.14180486
166	0xbddbbf0c	-0.10729799
167	0xbda2a74e	-0.07942067
168	0xbea6a82b	-0.32550177
169	0xbe68ea0d	-0.22745533
170	0x3e1df682	0.15426067
171	0xbe6ee42e	-0.23329231
172	0x3ef9f27e	0.4881782
173	0x3deabc82	0.11461736
174	0xbe081aa2	-0.1329141
175	0x3df640d3	0.12024083
176	0xbefd81c8	-0.49513078
177	0xbdcf260e	-0.1011468
178	0x3e4db831	0.20089795
179	0xbe26376b	-0.16232078
180	0x3e4480ad	0.19189711
181	0x3ec850c7	0.39124128
182	0x3e8ecc9e	0.27890486
183	0xbe7194e8	-0.2359196
184	0x3db97878	0.09056181
185	0x3e6a9154	0.22907001
186	0xbdbe0a8e	-0.09279357
187	0xbe826fc9	-0.2547591
188	0xbe29413d	-0.16528793
189	0x3e883ac3	0.26607332
190	0x3e6ed03e	0.23321626
191	0x3dabe7ba	0.08393808
192	0xbe0e3878	-0.13888729
193	0x3e84a3cf	0.25906226
194	0xbe274c8f	-0.16337799
195	0xbf0a8e4e	-0.5412339
196	0xbdeb2b7c	-0.11482903
197	0x3ea27a14	0.31733763
198	0xbcaa2ffa	-0.02077483
199	0x3daae0d5	0.083436646
200	0x3d950eb3	0.07278194
201	0x3ec04bab	0.3755773
202	0xbe88da82	-0.26729208
203	0xbf5dc52d	-0.8662899
204	0xbd4a1f49	-0.049346242
205	0x3ec5d97f	0.386425
206	0xbdf1bcd9	-0.11803598
207	0x3e0bde56	0.13659033
208	0x3e51069b	0.20412676
209	0x3e0771af	0.1322696
210	0xbd02e88a	-0.031960048
211	0xbd9a3e4a	-0.07531412
212	0xbdf21d50	-0.11821997
213	0xbe9b6bfd	-0.30355826
214	0xbd0292b5	-0.031878192
215	0xbc3cc89c	-0.011522438
216	0xbd830a67	-0.063984685
217	0xbe2ce1d8	-0.16883028
218	0x3dbed12e	0.093172416
219	0xbe61ac9f	-0.22038506
220	0xbd3976af	-0.0452792
221	0x3e6b20c9	0.22961725
222	0x3bb93f4f	0.005653299
223	0xbd640ccd	-0.05567627
224	0xbdc398df	-0.09550642
225	0xbade363f	-0.0016953422
226	0xbdd1b476	-0.10239498
227	0xbc160b05	-0.009157901
228	0x3ce6843c	0.028139226
229	0x3e9e9b8e	0.30978054
230	0x3d218b2f	0.039439376
231	0x3e5544b4	0.2082699
232	0x3f5fe89f	0.87464327
233	0x3e924c54	0.2857386
234	0x3ea8630e	0.32888073
235	0x3f3d184c	0.738652
236	0x3d3e9a74	0.046534017
237	0xbd0a64bc	-0.033787474
238	0x3e1f9bc5	0.15586765
239	0x3e5e3f7b	0.21703903
240	0x3cbf1fc0	0.02333057
241	0x3e81033e	0.25197786
242	0x3c52331e	0.01282957
243	0x3f4fd35e	0.81181896
244	0x3cc35ebe	0.023848888
245	0xbe6c1c3f	-0.2305765
246	0x3e8f2139	0.27955034
247	0xbe8b98af	-0.27264926
248	0xbd986612	-0.07441343
249	0xbd981459	-0.07425756
250	0xbca4a6cb	-0.020099064
251	0x3f236668	0.63828135
252	0x3e23b7de	0.15988109
253	0x3e00bb18	0.1257137
254	0xbe7aefe7	-0.24505578
255	0xbed4a55b	-0.41532406

fc1.bias f4 [100]
0	0x3de23e69	0.1104706
1	0xbec0bbfa	-0.37643415
2	0xbf3161d8	-0.6928992
3	0xbde897f3	-0.11357107
4	0xbe40015a	-0.18750516
5	0x3f026c94	0.5094693
6	0xbe3ac6b8	-0.18239868
7	0xbe427065	-0.18988188
8	0xbeedf855	-0.46478525
9	0xbe4cf624	-0.2001577
10	0xbeb3273f	-0.3499088
11	0xbe112504	-0.14174277
12	0xbe93b6dd	-0.2885045
13	0xbe91ef6b	-0.28502974
14	0xbe9e79bf	-0.3095226
15	0xbeda11c4	-0.4259168
16	0xbd223c75	-0.039608438
17	0xbebf261d	-0.37333766
18	0xbda32ff4	-0.07968131
19	0x3c0dd7b1	0.008657382
20	0xbda06e0f	-0.07833492
21	0x3e196bf4	0.14982587
22	0x3dc9fad6	0.09862296
23	0x3dbeff1c	0.09326002
24	0xbeaae3e7	-0.33377
25	0xbe9770f9	-0.2957838
26	0xbd40aa8b	-0.047037642
27	0xbe1bd02a	-0.15216127
28	0xbdfd8171	-0.123782046
29	0x3853670c	5.040229e-05
30	0xbe07c25e	-0.13257739
31	0xbe1e11e4	-0.15436512
32	0xbe8d1628	-0.27555966
33	0xbe1bfb50	-0.15232587
34	0xbe93ff54	-0.28905737
35	0x3e7c8a4c	0.24662131
36	0xbc534fb1	-0.012897418
37	0x3d8567ef	0.065139644
38	0x3d8d6a24	0.0690501
39	0x3e0d87fe	0.13821408
40	0xbebf482f	-0.3735976
41	0xbd460d71	-0.048352662
42	0xbe8d6261	-0.2761412
43	0x3c9ef456	0.019403618
44	0xbd1277d2	-0.0357588
45	0x3e9b2ea6	0.30309027
46	0xbdcfcd85	-0.101466216
47	0xbd381bce	-0.04494839
48	0x3d8fd551	0.07023109
49	0x3c158313	0.009125489
50	0x3da7f91d	0.082018115
51	0x3dcfb986	0.10142808
52	0xbe21aef9	-0.15789403
53	0xbe79dc0b	-0.24400346
54	0x3e2937cd	0.16525193
55	0xbe05d81b	-0.13070719
56	0xbe2cac5b	-0.16862623
57	0xbd3d65c6	-0.046239637
58	0x3e02b001	0.12762453
59	0x3e4e8f8b	0.20171945
60	0xbdfaf8dc	-0.122544974
61	0xbe37e36f	-0.17957853
62	0xbee14c89	-0.44003704
63	0xbe0d988f	-0.13827728
64	0x3cf2e272	0.029648993
65	0x3ccb13d1	0.024789723
66	0xbe0bc8c1	-0.136508
67	0x3df4ae25	0.11947278
68	0xbe90a524	-0.28250992
69	0x3da59858	0.08085698
70	0xbacf05c4	-0.0015794565
71	0x3df33f4d	0.11877308
72	0xbdf5f2dc	-0.120092124
73	0x3e06f55e	0.13179538
74	0xbef1bab5	-0.4721276
75	0xbcf6854a	-0.030092854
76	0x3e5aaa45	0.21354015
77	0x3d408749	0.047004018
78	0xbc893bbb	-0.016752115
79	0x3d853536	0.0650429
80	0x3d38ece0	0.045147777
81	0xbf13da29	-0.5775476
82	0xbd132018	-0.03591928
83	0xbe58d2ce	-0.21174166
84	0xbed51590	-0.41618013
85	0xbe6004b3	-0.21876793
86	0xbea56367	-0.323024
87	0xbd25d380	-0.040484905
88	0x3e47d693	0.19515447
89	0xbe20bde6	-0.1569744
90	0x3e735d17	0.2376598
91	0x3c3ea083	0.011634949
92	0xbdf7c944	-0.12098935
93	0xbea0a7bf	-0.3137798
94	0xbe1d6d62	-0.15373757
95	0xbc1726ae	-0.009225531
96	0x3e4d7ad2	0.20066383
97	0xbe0376f6	-0.12838349
98	0x3d7c616b	0.061616343
99	0xbd0b54e4	-0.034016505

fc2.weight f4 [100, 100]
0	0x3d14f005	0.036361713
1	0x3e8b091f	0.27155396
2	0xbd8044b7	-0.06263106
3	0xbf1698bb	-0.588268
4	0xbed94ae3	-0.42439947
5	0xbf626051	-0.8842822
6	0x3f15902f	0.5842313
7	0x3c6386fa	0.013887161
8	0x3d252546	0.04031875
9	0x3de003a5	0.10938195
10	0x3d0b1347	0.03395393
11	0xbd25b7d5	-0.04045852
12	0x3cabe60e	0.020983722
13	0xbd650474	-0.05591245
14	0xbed2c8b3	-0.41168746
15	0xbe209b09	-0.15684141
16	0x3ca6c5f6	0.020358067
17	0xbe112240	-0.14173222
18	0xbc43bd13	-0.011946934
19	0x3e151ecf	0.14562534
20	0xbe407bf5	-0.18797286
21	0x3d77c0d3	0.060486626
22	0xbe93cd08	-0.28867364
23	0x3e8b5463	0.2721282
24	0x3e4143e2	0.18873551
25	0x3ca8b6ac	0.020594917
26	0xbd848e43	-0.06472447
27	0xbc895818	-0.01676564
28	0x3cfaa96d	0.030598367
29	0x3ef26c2c	0.47348154
30	0xbf88e731	-1.0695554
31	0x3e30a179	0.17249097
32	0xbe6d6fc5	-0.23187168
33	0xbdb06496	-0.08612935
34	0x3d7c275c	0.061560974
35	0xbeea6b77	-0.45785114
36	0xbd4ccb85	-0.04999878
37	0xbe08973c	-0.13338941
38	0x3dbf3ba0	0.093375444
39	0xbcc2bbd1	-0.023771198
40	0x3d4a322a	0.049364246
41	0xbdb2805f	-0.08715891
42	0xbe95290e	-0.29132885
43	0x3f033a85	0.5126117
44	0x3da1b0fa	0.07895084
45	0xbd9b0b70	-0.07570541
46	0x3d16ca1a	0.036813833
47	0xbd0bc186	-0.034120105
48	0x3d35c266	0.044374846
49	0xbdca0a7c	-0.09865281
50	0xbdd4b8fe	-0.10386847
51	0x3d922cd1	0.07137454
52	0xbda087e8	-0.07838422
53	0x3e2c76b6	0.1684216
54	0xbe06b7d7	-0.13156067
55	0xbd03c0ca	-0.03216628
56	0xbf6d743a	-0.9275547
57	0x3e37769c	0.1791634
58	0xbec36442	-0.38162428
59	0xbe34a5f9	-0.17641439
60	0xbdcbc97a	-0.09950538
61	0xbe986087	-0.29761145
62	0x3e9afb97	0.30270073
63	0xbc9244fe	-0.017855164
64	0x3e024621	0.12722065
65	0x3c969fdd	0.018386776
66	0xbf16a67b	-0.5884778
67	0x3d0f1c25	0.03493895
68	0xbdefa0fc	-0.11700627
69	0x3daee1b0	0.0853914
70	0xbe423699	-0.1896614
71	0x3c74bd82	0.01493776
72	0xbde4ba02	-0.11168291
73	0x3d89bd67	0.06725579
74	0x3d852b2c	0.06502375
75	0x3b2faa25	0.0026804295
76	0xbd588737	-0.052863326
77	0x3d07f971	0.03319687
78	0x3c8713b0	0.01648888
79	0x3e24217b	0.16028397
80	0x3df863dc	0.12128422
81	0x3e71d684	0.23616987
82	0x3d82e373	0.06391039
83	0xbf23798d	-0.63857347
84	0xbdcd1780	-0.10014248
85	0xbdc23e1a	-0.09484501
86	0xbe4cd6d2	-0.20003822
87	0xbf4f13ab	-0.80889386
88	0xbf1e93db	-0.6194436
89	0xbea0cf8b	-0.31408343
90	0x3eb4b198	0.35291743
91	0x3dc8749e	0.09787868
92	0xbde7e45c	-0.11322853
93	0x3d0b33b8	0.03398487
94	0x3e368c10	0.17826867
95	0xbcc0347d	-0.023462528
96	0x3d8060f5	0.06268493
97	0x3da43f42	0.08019878
98	0x3e4bf7b1	0.19918706
99	0xbf2dffed	-0.67968637
100	0x3e05cb08	0.13065732
101	0xbe51e356	-0.20496878
102	0x3f05fd51	0.52339655
103	0xbe50ea8c	-0.20401973
104	0xbde84f33	-0.11343231
105	0xbebe596b	-0.37177595
106	0xbd895d12	-0.06707205
107	0xbd9c8253	-0.07642045
108	0xbe80fb73	-0.2519184
109	0xbdbcd4a7	-0.09220248
110	0x3aeb9a2c	0.0017975024
111	0xbda2dafc	-0.07951924
112	0x3d91be44	0.071163684
113	0xbea3ef86	-0.3201868
114	0xbeb2c28b	-0.3491405
115	0xbdbcfadd	-0.09227536
116	0xbf7771ab	-0.9665782
117	0xbdc96a4d	-0.098347284
118	0x3e44be4c	0.19213217
119	0xbe0fe707	-0.14052974
120	0x3c6e5f85	0.014549141
121	0x3e8f4612	0.27983147
122	0xbebe12cd	-0.3712372
123	0x3e61f35d	0.22065492
124	0x3e99a463	0.3000823
125	0x3d27e6a6	0.040991448
126	0xbe760f68	-0.24029315
127	0x3d6f5e07	0.05843928
128	0xbe174524	-0.14772469
129	0x3d87a28e	0.06622802
130	0xbd819628	-0.06327468
131	0x3d924310	0.071416974
132	0xbddd641d	-0.10810111
133	0x3daad912	0.08342184
134	0xbe5cf891	-0.21579196
135	0x3d7671b5	0.060167033
136	0xbe0a2ed5	-0.13494428
137	0x3e6e1738	0.23251045
138	0xbe048a46	-0.12943372
139	0x3d9b4aea	0.07582648
140	0xbdc38b10	-0.095480084
141	0xbe61ab4d	-0.22038002
142	0xbf58f5e9	-0.8475023
143	0x3d08621e	0.033296697
144	0xbe6289c5	-0.22122867
145	0xbe5ae541	-0.21376516
146	0xbdff3b13	-0.124624394
147	0x3d96ae10	0.073574185
148	0xbe797ab5	-0.24363215
149	0xbeafc5b8	-0.34330535
150	0xbd9a9997	-0.07548826
151	0x3e13d05f	0.14434956
152	0xbec497af	-0.38396975
153	0x3dd31ae8	0.10307866
154	0xbe6ea74e	-0.23306009
155	0xbcda0251	-0.026612433
156	0x3c867a54	0.016415752
157	0xbf061dc8	-0.5238919
158	0x3d50540a	0.050861396
159	0x3d4b5191	0.049638335
160	0x3d4a1b01	0.04934216
161	0x3e410e38	0.1885308
162	0x3e54a980	0.20767784
163	0x3e866782	0.26250845
164	0x3d87245b	0.06598731
165	0x3d0f8f26	0.035048626
166	0x3e1851b0	0.14874911
167	0xbd170a05	-0.03687479
168	0x3d56bad7	0.052424278
169	0xbbf684a5	-0.0075231367
170	0x3ded9708	0.116010725
171	0xbf7abd66	-0.9794525
172	0x3e7bc404	0.24586493
173	0xbeaf2a44	-0.34211934
174	0xbe6849f2	-0.22684458
175	0xbd17189f	-0.036888715
176	0xbeb1b78b	-0.34710345
177	0x3d98b603	0.07456591
178	0x3df5586b	0.11979755
179	0xbe0b94b8	-0.1363095
180	0xbe44fc49	-0.19236864
181	0xbe22f68c	-0.15914363
182	0x3d0ec6d0	0.03485757
183	0x3d999566	0.074991986
184	0xbe0b96fe	-0.13631818
185	0x3ccdf774	0.025142409
186	0xbe1430b7	-0.14471708
187	0x3eaa1d73	0.33225593
188	0xbe110ea2	-0.14165738
189	0x3dc850b0	0.09781015
190	0x3e2ac647	0.166772
191	0x3d98dbf9	0.074638315
192	0x3e96dc96	0.2946517
193	0x3d5ea3b2	0.05435533
194	0x3d11901c	0.035537824
195	0x3e965815	0.29364076
196	0xbd4d2885	-0.05008747
197	0xbe43050b	-0.19044892
198	0x3d76ea54	0.060282066
199	0xbda7075f	-0.08155703
200	0x3df456a7	0.1193059
201	0x3d807959	0.06273145
202	0xbd74087a	-0.059578396
203	0xbe065a3d	-0.1312036
204	0xbdd232b1	-0.10263575
205	0xbf10b677	-0.5652842
206	0xbcf557f0	-0.029949158
207	0x3e0adab9	0.13559999
208	0xbe5850bd	-0.21124549
209	0xbe6d85f1	-0.23195626
210	0x3cd553d1	0.026040943
211	0xbe24bbec	-0.16087312
212	0x3d506ad5	0.050883133
213	0xbd16a3fc	-0.03677748
214	0x3d66bcae	0.056332283
215	0x3b7234b0	0.0036957674
216	0x3d9ac885	0.07557777
217	0x3e40feec	0.18847245
218	0xbe45b0d6	-0.19305739
219	0xbe4135b0	-0.18868136
220	0xbc740713	-0.014894265
221	0x3c01b682	0.007917048
222	0xbf02325d	-0.508581
223	0xbe1d9ee7	-0.15392648
224	0x3d086ec6	0.033308767
225	0xbe81af1f	-0.2532892
226	0x3df2bdaf	0.118525855
227	0xbc6f14e7	-0.014592386
228	0x3e550f34	0.20806581
229	0x3ec64e64	0.38731682
230	0x3d25544b	0.04036359
231	0xbe197872	-0.14987352
232	0x3da25d9c	0.07928011
233	0x3dd7f564	0.105448514
234	0xbe8fd787	-0.28094122
235	0xbc489f36	-0.01224499
236	0x3eaf61d6	0.3425433
237	0xbc6c82ba	-0.0144354645
238	0x3e193c6c	0.14964455
239	0x3c706e34	0.014674712
240	0xbddf8bed	-0.109153606
241	0x3dbc3142	0.09189083
242	0x3db9c77f	0.09071254
243	0x3e950b04	0.29109967
244	0x3d736d94	0.059430674
245	0x3e22aa75	0.15885337
246	0x3d530180	0.051515102
247	0x3dafb849	0.085800715
248	0xbe03127d	-0.12800021
249	0x3e565a58	0.20932901
250	0xbe43908b	-0.19098108
251	0xbb971e1c	-0.0046117436
252	0xbd10b787	-0.035331275
253	0xbe99725d	-0.29970065
254	0xbe42f90e	-0.1904032
255	0xbe09c252	-0.13453034

fc2.bias f4 [100]
0	0x3e143a35	0.14475329
1	0x3cb9b2e7	0.022668315
2	0x3e330309	0.17481627
3	0xbe8eb46a	-0.2787202
4	0xbe3056b1	-0.1722057
5	0x3d8ba690	0.06818879
6	0x3cd84985	0.026402244
7	0x3e1bcd3f	0.15215014
8	0x3a8f9631	0.0010954795
9	0xbcfbc033	-0.030731296
10	0x3c5cc714	0.013475198
11	0x3e6108f4	0.21976072
12	0xbdb21451	-0.08695281
13	0xbc5e9e17	-0.013587496
14	0x3c4af9c1	0.0123886475
15	0xbe3334ea	-0.17500654
16	0xbd404a04	-0.046945587
17	0xbe0738f2	-0.13205317
18	0xba2539fb	-0.000630289
19	0x3c64fa99	0.013975763
20	0xbc3ddd4a	-0.011588404
21	0xbd405dc2	-0.046964414
22	0xbda05b37	-0.07829898
23	0xbe601c4c	-0.21885794
24	0x3dfc0b6c	0.12306866
25	0x3e52c297	0.20582043
26	0xbc3cd7ed	-0.01152609
27	0x3e04d34a	0.12971225
28	0x3cc35c9e	0.023847874
29	0xbdd4657b	-0.10370918
30	0xbe22b943	-0.15890984
31	0xbb6f38dd	-0.00365024
32	0x3db5bd13	0.08873954
33	0x3d9905dc	0.07471821
34	0xbda6c3b1	-0.08142794
35	0x3e060e38	0.13091362
36	0xbd5c5174	-0.053788617
37	0xbbfa8760	-0.0076455325
38	0xbe1a6850	-0.15078855
39	0xbd0f1688	-0.034933597
40	0x3e419068	0.18902743
41	0xbe26df49	-0.16296114
42	0xbe634c16	-0.22196993
43	0xbddac9e9	-0.106830426
44	0xbe3388b5	-0.17532618
45	0xbaddd801	-0.0016925336
46	0x3e14f538	0.14546669
47	0x3e259567	0.16170274
48	0xbdb4e642	-0.08832981
49	0xbd01a6b8	-0.031653136
50	0x3cc085dc	0.02350133
51	0x3d25ea3f	0.040506598
52	0xbd784752	-0.06061489
53	0x3e6c3fb2	0.23071173
54	0xbe80d4d0	-0.25162363
55	0xbe11d382	-0.1424084
56	0x3d901242	0.070347324
57	0x3dd12f55	0.10214106
58	0xbe1392cd	-0.14411469
59	0x3e3b01b4	0.18262368
60	0x3b016b76	0.001974789
61	0x3ce45b5b	0.027875593
62	0x3e207f5f	0.15673588
63	0x3e58adec	0.21160096
64	0x3dfd4840	0.12367296
65	0x3d038dd4	0.03211768
66	0xbd93476d	-0.07191358
67	0x3e767f83	0.2407208
68	0x3dae9489	0.085244246
69	0xbdaf12ae	-0.08548485
70	0x3d53d3df	0.051715728
71	0x3daeddd8	0.08538407
72	0x3e5b77bb	0.21432392
73	0x3dd8c14f	0.10583746
74	0xbebb54d6	-0.36588162
75	0xbd7c1819	-0.06154642
76	0xbc1334b6	-0.008984735
77	0xbbf37660	-0.007429883
78	0xbdc6c187	-0.09704881
79	0x3c0291b1	0.007969306
80	0xbd0f32db	-0.03496061
81	0xbdcbf055	-0.09957949
82	0xbc8d09b4	-0.01721654
83	0xbed6f8d7	-0.41986725
84	0xbe107292	-0.14106205
85	0xbd11b367	-0.035571482
86	0xbdc84c9a	-0.097802356
87	0xbc868be1	-0.016424121
88	0x3dbe124e	0.09280835
89	0xbdcf64f1	-0.10126675
90	0x3c350a0e	0.0110497605
91	0x3a2cb12c	0.000658768
92	0xbc9e0549	-0.01928963
93	0x3d1b033d	0.037844885
94	0xbd85142a	-0.064979866
95	0xbce7f826	-0.028316569
96	0x3e06f57a	0.1317958
97	0xbd8cfacc	-0.06883773
98	0xbdedccdc	-0.116113394
99	0x3d4853db	0.048908096

fc3.weight f4 [50, 100]
0	0xbe1a64f6	-0.15077576
1	0xbe20526f	-0.15656446
2	0x3e68fcf8	0.2275275
3	0xbe129765	-0.14315565
4	0xbe004c68	-0.12529147
5	0xbeae5127	-0.3404629
6	0xbeb98916	-0.362374
7	0xbd7a2d36	-0.061078273
8	0xbe2ddb69	-0.1697823
9	0xbd785670	-0.06062931
10	0xbd34d172	-0.044145055
11	0x3d684892	0.056709833
12	0x3c5ae58a	0.01336039
13	0xbe0a91eb	-0.13532226
14	0x3cecbacc	0.028897665
15	0xbee187e7	-0.44048998
16	0x3e097175	0.13422187
17	0xbe2abdf2	-0.16674021
18	0xbd8d9db3	-0.06914844
19	0xbea9420d	-0.33058205
20	0xbf4723b7	-0.7778887
21	0xbce66c55	-0.028127829
22	0xbd1c2f41	-0.038131002
23	0xbf47fea7	-0.78122944
24	0x3e329612	0.1744006
25	0xbeeb4316	-0.4594962
26	0x3dc6b546	0.09702544
27	0xbf402120	-0.75050545
28	0x3d1b0f34	0.037856296
29	0xbdd46b6e	-0.10372053
30	0xbd802875	-0.062577166
31	0x3ddbbafb	0.10729023
32	0x3cf52a0b	0.029927274
33	0x3e047c6e	0.12938091
34	0x3d588f6e	0.05287116
35	0xbda72480	-0.08161259
36	0xbf042db4	-0.5163224
37	0xbd84f9ba	-0.06492944
38	0x3da39286	0.079869315
39	0xbe0c80b8	-0.13720977
40	0x3d1e2e5d	0.038618434
41	0xbf0f5ada	-0.55998003
42	0x3dd4d544	0.1039224
43	0xbe69c6df	-0.2282977
44	0xbd8f7783	-0.07005217
45	0xbf1eb2f9	-0.6199184
46	0x3d878b55	0.06618372
47	0xbe8a4d6d	-0.27012196
48	0xbeb27532	-0.34855038
49	0xbec3b58e	-0.38224453
50	0xbf408ad2	-0.75211823
51	0xbe8bdd46	-0.27317256
52	0x3e806b74	0.2508198
53	0xbde0fa2e	-0.10985218
54	0xbe3a1ac6	-0.18174276
55	0x3e57b221	0.21064045
56	0xbe782e11	-0.24236323
57	0xbe3f077d	-0.186552
58	0xbebbb0d8	-0.3665836
59	0xbd4550aa	-0.04817263
60	0xbe85ac34	-0.26107943
61	0x3db4a036	0.0881962
62	0x3ddedd72	0.10882081
63	0xbe3f8180	-0.18701744
64	0xbe99a01f	-0.30004975
65	0x3db1f247	0.08688789
66	0xbef10a9e	-0.47078413
67	0xbe48b33f	-0.19599627
68	0x3d923f03	0.07140925
69	0x3e04d00a	0.12969986
70	0x3db6c7ca	0.089248255
71	0xbe661518	-0.22468984
72	0x3d93f98d	0.072253324
73	0xbe75ee7b	-0.24016754
74	0xbe82ecc1	-0.25571254
75	0x3c2f4190	0.010696784
76	0x3d8ecf52	0.06973137
77	0xbf35ef7e	-0.7106856
78	0x3cb4ca60	0.022069156
79	0x3da4e192	0.080508366
80	0x3d028402	0.031864174
81	0xbda7e2d2	-0.081975594
82	0x3cdb2bdd	0.026754314
83	0xbd95f07f	-0.073212616
84	0xbf555959	-0.8333946
85	0xbe5f1096	-0.21783671
86	0x3c913adc	0.017728262
87	0x3dd66f16	0.10470407
88	0xbdd168b7	-0.10225051
89	0x3d4be6e5	0.049780745
90	0x3da869dc	0.08223316
91	0xbe31389f	-0.17306755
92	0xbf25219c	-0.6450441
93	0x3e1bcbfd	0.15214534
94	0xbe126187	-0.14295016
95	0xbe6032cb	-0.21894376
96	0xbccf7d58	-0.025328323
97	0x3d9ae557	0.07563274
98	0x3d2dff4e	0.042479806
99	0xbf2816e9	-0.6565996
100	0x3dfaa661	0.122387655
101	0xbd1bc777	-0.03803202
102	0x3deec09d	0.11657832
103	0x3c9166ce	0.017749216
104	0xbc3b4087	-0.011428959
105	0x3e517fbc	0.20458883
106	0xbe497867	-0.19674836
107	0x3e20f546	0.15718564
108	0xbe54cd17	-0.2078136
109	0xbed802f3	-0.4218975
110	0x3dab5f4d	0.083677866
111	0xbdcb5da6	-0.099299714
112	0xbc450fa8	-0.0120276585
113	0xbe91b599	-0.2845886
114	0xbdcd7d63	-0.10033681
115	0x3e9e23eb	0.30886778
116	0xbf8fa21f	-1.122135
117	0xbe0cfbe5	-0.13767965
118	0x3b9352db	0.004495961
119	0x3e4986e2	0.1968036
120	0xbd236da9	-0.039899502
121	0xbe430f27	-0.19048749
122	0xbf8417a0	-1.031971
123	0x3cb9fad2	0.022702608
124	0x3d87feb8	0.066403806
125	0x3e11567c	0.14193147
126	0xbeab2b5e	-0.33431524
127	0x3d9e4f44	0.077299625
128	0xbdd170c1	-0.10226584
129	0xbdbb8256	-0.09155719
130	0xbd0eec05	-0.034893055
131	0x3cae8632	0.021304224
132	0xbd2534e6	-0.04033365
133	0x3bb91d16	0.0056492193
134	0x3d1625aa	0.036657013
135	0xbd0ca00b	-0.034332316
136	0xbea4de01	-0.32200626
137	0xbe15a319	-0.14612998
138	0xbf4f886b	-0.8106753
139	0x3d28f63d	0.041250456
140	0xbe16b925	-0.14719065
141	0x3d25f21f	0.040514108
142	0xbe0f3899	-0.13986434
143	0xbd01cefc	-0.031691536
144	0xbd1165f8	-0.035497636
145	0x3dc4c04c	0.0960699
146	0xbcf2b0d9	-0.029625343
147	0x3e5e478d	0.21706982
148	0x3d94d79e	0.07267688
149	0x3eac439c	0.33645332
150	0x3e7dccb5	0.24785121
151	0x3cc8b19e	0.024498757
152	0x3e1198bc	0.1421842
153	0x3ce26924	0.027638026
154	0x3dbc49d8	0.09193772
155	0xbf4b0697	-0.7930693
156	0x3d36c673	0.04462285
157	0xbdba8f72	-0.09109391
158	0xbcd5d310	-0.026101619
159	0xbd93b680	-0.072125435
160	0x3e4c2a2d	0.19937964
161	0x3d1718a1	0.036888722
162	0xba36d32a	-0.0006974215
163	0xbe87afa3	-0.26501188
164	0x3cdc6b62	0.026906673
165	0xbd050a46	-0.0324805
166	0xbe8d1f0f	-0.27562758
167	0xbd3fa567	-0.0467886
168	0x3e89eaa7	0.26936838
169	0xbff227be	-1.8918378
170	0xbd2b6d6a	-0.041852392
171	0x3e7337a2	0.23751691
172	0x3dd920ee	0.10601984
173	0x3e8c3777	0.27386066
174	0xbc77e710	-0.015130773
175	0x3ce9a584	0.028521307
176	0xbbf9af0f	-0.0076197456
177	0x3c5c9071	0.013462172
178	0x3db5ef6e	0.08883558
179	0xbec1d2b0	-0.37856054
180	0xbd937479	-0.0719995
181	0xbfb6f837	-1.4294499
182	0x3d17d968	0.03707257
183	0xbd890a97	-0.06691473
184	0x3d0911c7	0.03346422
185	0x3da42d07	0.08016401
186	0x3e10c872	0.14138964
187	0xbe6b7312	-0.22993115
188	0xbd866809	-0.06562812
189	0x3ca3d3e0	0.01999849
190	0xbb82c2a2	-0.003990487
191	0xbd968171	-0.07348908
192	0xbd6bd559	-0.05757651
193	0x3e1b3913	0.15158491
194	0x3c93c016	0.01803593
195	0xbefbc919	-0.49176863
196	0xbe545b91	-0.20738055
197	0x3c9d518c	0.019203924
198	0xbc955d19	-0.018232869
199	0xbdc00e50	-0.0937773
200	0xbe1a641e	-0.15077254
201	0xbb0ec778	-0.0021786373
202	0xbf37311a	-0.715593
203	0xbdd18533	-0.10230484
204	0x3e925f3a	0.28588277
205	0xbea80068	-0.3281281
206	0xbdd2c5ad	-0.1029161
207	0xbc231ab0	-0.009955093
208	0xbe167110	-0.14691567
209	0x3ee5abaf	0.44857547
210	0x3e45130d	0.19245549
211	0xbd90a5be	-0.07062863
212	0xbe4510a6	-0.19244632
213	0x3e5daac7	0.21647178
214	0xbc030172	-0.00799595
215	0xbe23666a	-0.15957037
216	0xbc86ebae	-0.016469803
217	0xbe6b551e	-0.22981688
218	0xbdd38b7b	-0.10329338
219	0xbe4f9b8b	-0.20274179
220	0x3d4917b4	0.04909487
221	0x3e305c28	0.17222655
222	0xbe3055c0	-0.17220211
223	0xbef59f45	-0.47973076
224	0xbdb0af22	-0.08627154
225	0xbf0cd712	-0.5501567
226	0xbefcadfe	-0.49351496
227	0xbf214ae5	-0.63004905
228	0x3aedb61b	0.0018135937
229	0x3e367835	0.17819293
230	0x3dd5de3d	0.10442779
231	0xbc6ce723	-0.014459404
232	0x3d39b60e	0.045339637
233	0x3db92b8c	0.09041509
234	0x3d15e260	0.03659284
235	0x3ed2d40e	0.4117741
236	0xbe201f7b	-0.15637009
237	0x39c5d7f9	0.0003773568
238	0xbe47c74f	-0.19509624
239	0x3e0ee5ea	0.13954893
240	0x3c8eb38a	0.017419595
241	0x3eaf0832	0.3418594
242	0x3d6c2d91	0.057660643
243	0x3e13e7b9	0.14443864
244	0xbd0a7c52	-0.033809967
245	0xbcaeb105	-0.021324644
246	0xbee93930	-0.45551443
247	0xbe271368	-0.16315997
248	0xbdf9932c	-0.12186274
249	0x3dcce100	0.10003853
250	0x3c882ec6	0.016623866
251	0x3dcb5076	0.09927456
252	0xbe29902b	-0.16558902
253	0xbe541706	-0.20711908
254	0x3d11995e	0.035546653
255	0xbed33e56	-0.41258496

fc3.bias f4 [50]
0	0x3e9aa6d1	0.30205396
1	0xbe11330d	-0.1417963
2	0x3de571c0	0.11203337
3	0x3e3b4fb6	0.18292126
4	0x3e52fd3b	0.20604412
5	0x3e354cc1	0.1770506
6	0x3d8a8635	0.06763879
7	0xbd859f5f	-0.06524538
8	0x3d8a8386	0.06763367
9	0x3d92d5f9	0.07169718
10	0xbd2c7aaa	-0.04210917
11	0xbd66ab3f	-0.056315657
12	0xbdcbf599	-0.099589534
13	0x3e082a91	0.13297488
14	0x3d8b9b0a	0.06816681
15	0x3daa692c	0.08320841
16	0x3d20babb	0.03924058
17	0xbd1c53f3	-0.038165998
18	0xbdd88b54	-0.1057345
19	0xbe5cf845	-0.21579082
20	0x3e1ad18f	0.15119003
21	0x3d040408	0.032230407
22	0x3e0a108a	0.13482872
23	0x3de512a5	0.11185197
24	0x3da28c58	0.07936925
25	0xbe47a492	-0.19496372
26	0x3e3320f0	0.17493033
27	0x3e4a49f4	0.19754773
28	0xbafdee2a	-0.0019373347
29	0x3e5f4521	0.21803714
30	0x3d5fb1f1	0.054613058
31	0x3d80c06e	0.06286703
32	0x3e851cf0	0.2599864
33	0x3d74331b	0.05961905
34	0x3e09c5b1	0.1345432
35	0xbe06a096	-0.13147196
36	0x3dc15e56	0.09441821
37	0x3e34dc5c	0.17662185
38	0x3db48c52	0.088158265
39	0x3e1a3ee8	0.1506306
40	0x3ec01951	0.37519315
41	0xbe01a825	-0.12661798
42	0xbe2af751	-0.16695906
43	0x3e7b5243	0.24543099
44	0xbe2ea223	-0.17054038
45	0x3e94763b	0.28996453
46	0x3e069385	0.13142212
47	0xbcc48b5e	-0.023992237
48	0x3e8778d5	0.26459375
49	0x3cd68d4f	0.026190428

fc4.weight f4 [1, 50]
0	0x3c9ac8a8	0.018894508
1	0x3c88e696	0.016711514
2	0xbcef4d5f	-0.029211698
3	0x3c73060e	0.0148329865
4	0x3ca4be43	0.020110255
5	0x3cfaac75	0.030599812
6	0x3cbd12a3	0.023080176
7	0xbc68f4f3	-0.014218557
8	0xbcb1b89f	-0.02169448
9	0xbc4b2d76	-0.012400975
10	0x3d19f44c	0.037586495
11	0xbc4880c1	-0.012237729
12	0xbc999f56	-0.018752735
13	0xbcf54430	-0.02993974
14	0xbcfae35f	-0.030625997
15	0x3d338663	0.043829333
16	0xbc90f486	-0.017694723
17	0x3c82074b	0.015872618
18	0xbd9fd109	-0.07803542
19	0xbd07d107	-0.03315833
20	0x3d515ee0	0.05111587
21	0x3c663455	0.014050563
22	0x3cdcd9c6	0.026959311
23	0x3d54b860	0.051933646
24	0x3c919756	0.017772358
25	0xba2ebe69	-0.00066659466
26	0x3c7341da	0.014847243
27	0x3ce42319	0.027848767
28	0xbc5cc22f	-0.013474031
29	0xbc82943c	-0.015939824
30	0xbc28e0fa	-0.010307545
31	0xbcd6d12c	-0.026222788
32	0x3ce0b7ff	0.027431486
33	0xbcd39b2f	-0.025830833
34	0x3cf7eb0e	0.03026345
35	0x3cd9b015	0.02657322
36	0x3ced3c2f	0.028959362
37	0x3d485b31	0.048915092
38	0x3c38162e	0.011235757
39	0xbc908d34	-0.017645456
40	0xbc9b7e65	-0.018981168
41	0xbcb81e51	-0.022475393
42	0x3dc61715	0.09672371
43	0x3dab3fd1	0.083617814
44	0xbcdb9248	-0.02680315
45	0x3cd65851	0.02616516
46	0x3c76e828	0.015069999
47	0xbc937a81	-0.01800275
48	0xbc2cc6b9	-0.010545426
49	0xbc3429e6	-0.0109963175
