Results/BS_256_EP_2000_TMAX_1000_NOISE_0.01/checkpoint_actor.pth (torch_old, 72217 bytes, 8 tensors)

fc1.weight f4 [100, 24]
000000 70 98 6e bd a9 da ae 3d 92 6f 4e be 91 1f 1e be
       -0.058250844 0.085378 -0.20159748 -0.15441729
000010 f6 07 e7 bd fc 35 11 3e 6b 2b 1a bd fa 6f 21 3e
       -0.11280815 0.1418075 -0.037639063 0.15765372
000020 df 3d dc bd 56 7b 67 3a a0 2f 82 bd 61 8b 7a bd
       -0.107539885 0.0008830329 -0.0635674 -0.06116808
000030 e7 ba 92 be 7a a4 54 bd f7 2c b0 bd 65 e6 5c bc
       -0.2865822 -0.05191467 -0.08602326 -0.013482665
000040 6b 0c 95 3c f3 55 9e 3d 80 63 0a be 51 2f fc bc
       0.018194398 0.07731237 -0.13514519 -0.030784281
000050 72 58 ea 3c 8a fe 52 3e 4a cd 1e bd 00 ea 57 3e
       0.028606627 0.20604911 -0.038769998 0.21085358
000060 1a 3e 03 3c ca 92 60 bd 5d 36 19 3e 21 06 74 be
       0.008010412 -0.05482749 0.14962144 -0.23830463
000070 2b 3b 34 be 74 fe 29 be f5 10 eb bd dc 79 02 3e
       -0.17600696 -0.16600972 -0.11477844 0.12741798
000080 f1 da 00 be f6 d9 74 be 47 68 eb bd e4 7d 83 be
       -0.1258352 -0.2391127 -0.11494499 -0.25681984
000090 b5 6a 85 be 9d 06 16 3e 73 32 f3 3d e7 59 08 3d
       -0.26057974 0.1465096 0.11874857 0.033288863
0000a0 55 cc 12 3d 74 68 75 be 07 cf 68 3c d4 30 a7 be
       0.035839397 -0.23965627 0.014209515 -0.3265444
0000b0 0a a8 9d be 3d c7 e8 bd d9 22 de 3d 8d 50 85 bc
       -0.30792266 -0.11366127 0.108464904 -0.016273761
0000c0 ed 8c 63 be 5f f1 03 be 75 3c e4 3d a2 91 9d 3e
       -0.22221728 -0.12885045 0.11144344 0.30775172
0000d0 58 85 1b 3e c6 aa 0b 3e 01 2b f1 3d b6 bc 7b bc
       0.15187585 0.13639364 0.117757805 -0.015364816
0000e0 af 82 35 3c 90 45 cc bd d7 bd 21 be fb 07 30 3d
       0.011078521 -0.099742055 -0.15795074 0.04297636
0000f0 bb 8e 27 3e e8 27 f9 3b a4 af 0c be 71 22 57 3e
       0.16363041 0.007603634 -0.13738877 0.21009232
000100 4d 01 f3 3d 3e 6c a9 3d 08 9e 8a 3b 44 c8 35 3e
       0.118654825 0.08272599 0.0042302646 0.17752177
000110 7c 02 39 3e 03 af e2 bc b3 b9 24 be 6a ff 62 3d
       0.18067354 -0.027671343 -0.16086464 0.055419363
000120 c1 3e 08 3e 2f c7 83 3e 7d dd 35 3e 47 1a 54 3e
       0.13305189 0.25737903 0.17760272 0.20713149
000130 cc d2 2d 3e 2e f5 ca be dc 98 99 3c 09 31 ce bd
       0.16974944 -0.39640182 0.018749647 -0.100679465
000140 07 f8 3f be be 90 48 3e 57 2a cf 3d 0c ec 56 be
       -0.18746959 0.19586465 0.101154976 -0.20988482
000150 d1 cb fe 3d e4 c3 d2 bd f4 7d b3 bd b3 32 cc bd
       0.12441219 -0.102912694 -0.08764258 -0.099706076
000160 b9 56 0d 3d 21 8c 4f be 7c eb a8 3d be 7d 51 bd
       0.034506533 -0.20268299 0.0824804 -0.051145308
000170 26 d5 2f 3e 0f 4c 70 3e 7a 0b 47 be be d5 92 be
       0.17171153 0.23466514 -0.19437972 -0.28678697
000180 27 1f e5 3c 91 92 4f 3e 9d c5 3b be 57 35 3b be
       0.027968956 0.20270754 -0.18337102 -0.18282066
000190 bb 2d 54 3d b1 1c da 3d 93 b5 e7 bd 4a e9 ee bd
       0.051801424 0.10650004 -0.113139294 -0.1166559
0001a0 f1 cf 93 be 65 cc 8e 3d cd 90 8f bd 8d d1 80 be
       -0.28869584 0.06972579 -0.070100404 -0.25159875
0001b0 a2 82 9e bd b8 ff 1e 3c 86 54 b6 37 9d f9 dc 3c
       -0.0773976 0.009704523 2.173545e-05 0.026974494
0001c0 ff b5 5c be 23 d3 31 3e 90 70 44 3e 41 ad 6a be
       -0.21553801 0.17365699 0.19183564 -0.22917654
0001d0 66 d7 96 ba 03 87 5c bd 95 62 a7 3d 2a 5d 0d bc
       -0.0011508286 -0.053839695 0.081731 -0.008628169
0001e0 07 4a d3 3d e4 ee 99 bd 9d c8 d6 bd 6b d1 bc 3d
       0.10316854 -0.07516268 -0.10487483 0.09219631
0001f0 6d 0d 5f be e1 9e 73 bd a4 e9 66 bd c6 a1 d4 bd
       -0.21782465 -0.05947769 -0.05637516 -0.10382418
000200 98 b9 43 bd a3 5f 80 be 54 9d 29 bd 1b f4 f8 3c
       -0.047784418 -0.25072965 -0.041409805 0.030389836
000210 d4 f5 01 be fe 4f a9 3d 6a b0 17 3e a1 31 0c bd
       -0.12691432 0.082672104 0.1481339 -0.034227017
000220 7d 89 f9 3c 85 e2 9f bd 3b 5d 4e 3d 9c 4c 5e 3e
       0.030461067 -0.07806877 0.05038188 0.21708912
000230 72 d9 5c 3e ba 77 89 3e 43 bd 4f 3e 8c 8d 94 3d
       0.21567324 0.26849157 0.20287041 0.072535604
000240 f2 f9 58 be 34 60 72 be 3a 10 39 3e 18 ca 8d bb
       -0.21189097 -0.23669511 0.18072596 -0.00432707
000250 ce 89 2b be 1a 4c 80 be 5c e0 18 be 62 7e 33 be
       -0.16751787 -0.2505806 -0.14929336 -0.1752868
000260 23 49 f5 bd 11 47 83 bd a0 9c 92 3d 64 ec 3d be
       -0.1197684 -0.06410039 0.0715878 -0.18547207
000270 a0 e4 df 3d 61 54 7e be 95 c7 a7 bd a5 2c 92 bd
       0.10932279 -0.24836875 -0.08192364 -0.071374215
000280 19 35 88 bd 5b 97 1f be 3f e7 29 be 13 28 2f be
       -0.066507526 -0.15585081 -0.1659212 -0.17105131
000290 c2 cf d3 3c 14 58 15 be f9 93 9a bd c4 1f a8 3d
       0.025855903 -0.1458438 -0.07547755 0.08209184
0002a0 bf e4 69 be 39 b9 31 3e 56 66 49 3e 21 5c 24 bd
       -0.22841166 0.17355813 0.19667944 -0.040126923
0002b0 72 99 2d 3e 8d e0 d7 3d f1 0d 2b be 97 6a 30 3e
       0.16953066 0.105408765 -0.16704537 0.17228161
0002c0 f9 bb c1 bd 17 bf 6c 3d 60 36 29 3e e6 b1 3c be
       -0.09459681 0.057799425 0.16524649 -0.18427238
0002d0 03 56 b6 39 8d e8 9a 3b 1a 55 17 3e a2 41 1a 3d
       0.0003477783 0.0047274292 0.14778557 0.03766025
0002e0 22 57 86 3d 26 6b 3f 3e df 98 10 bd 73 8c e4 bd
       0.06559588 0.18693218 -0.03530204 -0.11159601
0002f0 44 ef 1b be 6c 62 ee 3d dd 12 34 3e 85 67 91 3d
       -0.15227991 0.11639866 0.17585321 0.07099823
000300 df 30 f7 bd 1e c5 9e 3e 12 97 bb bd a6 71 c9 3b
       -0.12069868 0.31009763 -0.09159674 0.006147581
000310 6c 1c 8c be 65 26 0f 3e a1 03 8e bd 3f 99 e9 3d
       -0.27365434 0.1397949 -0.06934286 0.114061825
000320 d3 e6 31 3c c9 ba d8 3e b2 e0 01 be 6e 08 dd bd
       0.010858255 0.42330006 -0.1268337 -0.107926235
000330 7a b5 75 be fe b5 5e 3e fd 09 3c bd 66 49 51 3e
       -0.23995009 0.21749112 -0.045907963 0.20438156
000340 e9 44 9c 3d 2e 7a ae 3e ce 10 3b 3d 24 27 c0 bb
       0.07630331 0.3407759 0.045670323 -0.005864041
000350 dd 89 e0 bc ee 84 73 bc 2b 6a 3b 3d 10 f1 77 3d
       -0.027409488 -0.014863236 0.045755547 0.06053263
000360 90 6b 14 be df b5 4a 3b 9b ab 37 3e 00 a7 fa bd
       -0.14494157 0.0030931158 0.17936556 -0.12238884
000370 f8 e3 c0 bd 18 d9 50 3e aa c8 b4 3d d7 e5 48 3d
       -0.094184816 0.20395315 0.08827336 0.049047317
000380 b8 1c 3b be bf 49 65 3e e2 17 0f be ca 21 91 3c
       -0.18272674 0.22391413 -0.13973954 0.017716307
000390 b4 40 ed bd ff 6c a8 bd ca 31 01 3c 01 e1 79 3e
       -0.11584607 -0.08223914 0.007885406 0.24402238
0003a0 9b 14 f1 3c d3 62 90 3e 02 a2 f8 3d 23 4e db bd
       0.02942877 0.28200397 0.121402755 -0.10708263
0003b0 6c 68 db 3d 54 f9 ac be d1 44 b8 bd 94 f2 a7 3d
       0.10713276 -0.33783972 -0.08997501 0.08200565
0003c0 90 cc c9 38 0d 16 25 3e 58 a0 9f bd b1 92 ef bc
       9.6225296e-05 0.16121693 -0.07794255 -0.029244753
0003d0 3a a4 99 3d ce e9 9a be 39 98 0a 3e 33 20 4b be
       0.07502027 -0.30256504 0.13534631 -0.19836502
0003e0 f4 c6 f7 bc b9 72 43 bd bd 93 c0 bd ff 8f d8 bd
       -0.030246235 -0.04771683 -0.09403179 -0.1057434
0003f0 a0 05 8e 3e 0d bb 56 be 48 98 dc bd 1c 36 55 be
       0.27738667 -0.20969792 -0.10771233 -0.20821422

fc1.bias f4 [100]
000000 65 1f 5c 3e 8f 45 13 3d eb 00 20 be 57 ea 0e 3e
       0.21496351 0.035955008 -0.1562535 0.13956581
000010 35 d3 45 3d 9b bb 6a 3c 14 cf e5 bd b2 c5 30 be
       0.048297126 0.014326955 -0.11221138 -0.17262915
000020 4f 62 06 be 4c ed 4d bd 89 f5 ea bd 1a 34 40 3e
       -0.13123439 -0.050275132 -0.11472613 0.18769875
000030 bd 81 82 bd b0 0f a2 bd 06 d8 a7 3d 1c fe 57 be
       -0.06372402 -0.079131484 0.081955 -0.21093029
000040 77 67 13 be ae a0 8d 3d 94 6c 6b be 5f 62 a8 3d
       -0.14394937 0.06915413 -0.22990638 0.08221888
000050 11 77 84 bb 3a c8 05 be 93 bc e8 bd 43 f6 dc 3d
       -0.004042514 -0.13064662 -0.11364093 0.10789158
000060 db bd 65 3d ea 44 e8 bc 78 e6 5c be 2b 48 0a be
       0.056089263 -0.028353173 -0.21572292 -0.13504092
000070 16 52 bf bc d8 aa 14 bc 6e 47 fa 3d 82 6e 5c 3d
       -0.023354571 -0.009073935 0.122206554 0.053816326
000080 17 a0 f9 bc d8 cf bd 3d d1 53 41 3e 61 3f 44 3e
       -0.030471845 0.09268159 0.1887963 0.19164802
000090 00 22 22 3e 78 67 ca bd 1e f3 15 bd ac 90 34 3c
       0.15833282 -0.09883016 -0.036608808 0.011020821
0000a0 8e ca d0 3d 50 da d3 3d 5a ec 2b bd df 0f 2b be
       0.10194884 0.10344374 -0.04197345 -0.16705273
0000b0 26 e6 2c be 9c d8 40 3e 67 f3 9b bc 3d 22 e9 3c
       -0.1688467 0.1883263 -0.019036962 0.028458709
0000c0 61 d3 02 be 6b e3 2f bd 29 fa c6 3d d2 02 db 3d
       -0.12775947 -0.042941492 0.09715683 0.10693897
0000d0 ed 78 01 bd e0 68 91 bd bf 90 13 3e 62 c1 cd bd
       -0.031609464 -0.071000814 0.14410685 -0.100466505
0000e0 cc 50 f8 bd eb df f6 bc 0e f8 6a 3e 1f e3 b2 3c
       -0.12124786 -0.03013607 0.22946188 0.021836815
0000f0 b5 ac 74 bc 1d f0 4f 3c 85 18 e0 3d 63 4a a6 bd
       -0.014933755 0.012691525 0.10942177 -0.08119657
000100 bb 2b 60 3e 16 b7 92 3d 9a 02 0c 3c 99 37 ce 3c
       0.21891682 0.07163827 0.008545542 0.025172995
000110 3b 76 11 be c4 5b 45 3e 44 0b 26 3d 31 12 d4 bd
       -0.14205258 0.19273287 0.040538087 -0.10355032
000120 7a 34 4b be 77 47 14 bd 2e 80 b9 3d af c0 e3 bd
       -0.19844237 -0.036200967 0.090576515 -0.11120736
000130 9d 56 28 3e 85 d8 9c bd e7 2b 22 be 86 25 0d 3d
       0.1643929 -0.07658485 -0.1583706 0.034459613
000140 bc fc fa bd 28 f6 6e bc fd 07 a4 bd a8 ba 12 bc
       -0.122552365 -0.014585055 -0.08009336 -0.008955635
000150 ac 17 42 be 2a ff 59 be e7 de d8 3c 26 61 4b 3a
       -0.18954343 -0.21288744 0.026473476 0.00077583117
000160 5b 16 03 be 8c bf 96 bb 26 ac 6a bd 3c c7 29 3d
       -0.12801497 -0.004600471 -0.05729308 0.04144977
000170 30 44 22 3e bb 44 64 3e 9c 22 09 be 73 e5 cd bb
       0.15846324 0.22291844 -0.13392109 -0.006283456
000180 ef 1c e4 3d 5a eb 77 3e 8e b4 13 be cd 37 ac 3d
       0.11138331 0.24210873 -0.14424345 0.08409081

fc2.weight f4 [100, 100]
000000 ac fb 6f 3d 4b ac 64 3d b3 43 8b bd 69 cd 15 3e
       0.058589622 0.055828374 -0.06800022 0.14629139
000010 ac 6b d9 bc 22 87 38 bd d4 27 82 3c f0 74 59 3d
       -0.0265406 -0.045050748 0.015888132 0.053090036
000020 a4 f3 90 bc 3f ab 61 3d c2 7a 91 bc 30 52 14 3d
       -0.017694302 0.055094954 -0.01775873 0.036211193
000030 63 5a 97 3d 96 77 c9 3c 80 02 ba bd a7 3d 15 bb
       0.07390287 0.024593156 -0.09082508 -0.0022772343
000040 be f0 1a bd d2 4d c6 bd 7b 72 e1 3c 80 46 f4 bd
       -0.037827246 -0.09682812 0.027520409 -0.11927509
000050 f2 ae 1c bc b4 e7 38 3c e7 1f 51 bd 2f e5 8d bd
       -0.009563195 0.011285711 -0.051055815 -0.06928479
000060 9e 6d 98 3d 4b 61 c2 bd 64 5c a9 3d 28 bf f9 bd
       0.07442783 -0.094912134 0.08269575 -0.12194663
000070 c4 e2 80 3d 57 3d 2d 3d 41 ac 25 3d 61 c0 07 3c
       0.06293252 0.042294826 0.040447477 0.008285613
000080 4b 88 63 3b c9 bb 2b 3d 91 f0 9b 3d b8 7d 34 bc
       0.0034718688 0.041927133 0.07614244 -0.011016302
000090 ed a8 68 bc 6f 57 b5 3d 4d 81 69 3b 8d 81 a9 bd
       -0.014200431 0.08854567 0.0035630048 -0.08276663
0000a0 7a 16 d9 bd c3 bd 22 bd 74 2b b0 bd eb 19 25 bd
       -0.1059999 -0.039731752 -0.08602038 -0.04030792
0000b0 bb c8 7b bd e8 b5 a2 bd db d4 8e bc a9 46 12 bd
       -0.06147073 -0.07944852 -0.017435482 -0.035711918
0000c0 9e 11 d3 bd c1 0c 78 3d 95 eb 00 bc 7d 7e ae 3d
       -0.103060946 0.060559038 -0.007868667 0.085202195
0000d0 45 1a 01 be 9a 91 1d 3c 8f 3f 99 3d 7f 8d 29 3e
       -0.12607677 0.009617234 0.07482826 0.16557883
0000e0 01 65 f4 bc 06 fd 3e 3d d2 74 e7 3c 17 e2 8f bd
       -0.029833319 0.04662802 0.028253946 -0.07025545
0000f0 0f e1 5f bd 5d c5 9f bd ad b8 10 3e 27 58 52 3c
       -0.054657992 -0.07801316 0.14132948 0.0128384
000100 85 6e 7b bd 6f b1 2c 3d 03 50 75 bd cf b2 44 3d
       -0.061384697 0.0421614 -0.05989076 0.048022088
000110 c5 0e 58 3d a4 71 a3 bd 74 f9 fa 3c ed fd 4d bd
       0.05274846 -0.079806596 0.030636527 -0.05029099
000120 33 4b d2 3d db 22 50 3d dc f8 7a 3d 6b 15 98 3a
       0.10268249 0.05081449 0.061272487 0.0011603063
000130 c6 a4 f3 bd 90 db 91 3d d4 e7 0e 3d 6e e2 92 3c
       -0.118966624 0.07121956 0.034889057 0.017930236
000140 40 da ac bd 2d e9 ce 3d 74 96 ba bc e4 26 02 3d
       -0.084400654 0.101030685 -0.02277682 0.03177537
000150 86 6c c5 bd 46 a8 9c 3d 2b 09 d3 3d d8 2c ab 3d
       -0.0963984 0.07649283 0.10304483 0.08358163
000160 13 0d bd bd 85 6f d7 3d ca a4 06 3e fa 45 58 bc
       -0.09231009 0.105193175 0.131488 -0.013200277
000170 a2 65 8f bd d2 73 8f 3d af 59 ae bc 63 61 d1 3c
       -0.07001807 0.07004513 -0.021282999 0.025559133
000180 68 01 be 3d ea 5a f1 3d 13 ce ab 3d a9 a9 3f 3d
       0.09277612 0.117849186 0.08388915 0.04679266
000190 e6 26 84 3d 46 0a e3 bc 16 fc f4 bc 5f 4c 56 bd
       0.06452732 -0.02771486 -0.02990536 -0.052318927
0001a0 34 13 07 bd 6c 7d 4d 3d 1a cf 10 3d 72 92 08 be
       -0.032977298 0.05016844 0.035353757 -0.13337114
0001b0 02 bf 76 bd ca c1 f3 bd 2f e9 a0 bc 30 d5 82 3c
       -0.060240753 -0.11902197 -0.01964244 0.015970796
0001c0 e8 a3 00 be 46 de 48 3d d3 af fc bd be 9b b0 bd
       -0.12562525 0.0490401 -0.12338223 -0.086234555
0001d0 d4 41 2e bc 03 66 07 be ed e6 03 3e 2e 73 f9 3d
       -0.010635812 -0.13222508 0.1288106 0.12180172
0001e0 21 0c 88 bd 8e 64 23 3d 6d 74 06 bd c6 74 20 3d
       -0.066429384 0.03989082 -0.032825876 0.039173864
0001f0 dd 93 e9 bc 7a 19 35 be 49 53 c7 3d c8 7e 09 be
       -0.02851289 -0.176855 0.09732682 -0.1342727
000200 b0 74 9a bd ab 0f 14 bc 01 b9 2a bd bf f0 da bb
       -0.075417876 -0.009036939 -0.04168034 -0.006681531
000210 b4 66 83 bd e2 b5 8e 3d e9 87 4f bd 4d 62 58 bd
       -0.064160734 0.06968285 -0.050666723 -0.052828122
000220 c3 6b 9c bc b3 0a 6f 3d 3b ff 76 3c 25 d7 b6 3b
       -0.019094354 0.058359813 0.0150755 0.0055798464
000230 5a 8e 03 3d ef da b9 bd da 0b be 3c a0 1d 66 bd
       0.03211818 -0.090749614 0.02319901 -0.056180596
000240 53 0c 3f 3d e8 ae 82 3d ce 91 83 3d a1 67 05 3d
       0.046642613 0.06381017 0.064242944 0.03256953
000250 c8 93 09 3e 54 7f ed 3d 42 02 cd 3d 43 c7 61 3d
       0.1343528 0.115965515 0.10010196 0.05512167
000260 4f e0 1c 3e db 5f fe bd 32 e3 9a 3d 69 cd 84 bb
       0.15319942 -0.12420627 0.07562865 -0.004052807
000270 c2 1d 48 bd e7 f5 b5 bb 31 fe 7f 3d 8d 4d f0 3d
       -0.048856504 -0.0055529955 0.062498275 0.11733542
000280 30 e3 00 be a2 42 c9 3d c1 fa e3 3d 80 72 fa 3c
       -0.12586665 0.09827162 0.11131812 0.030572176
000290 83 9d 9b 3c 7f 40 08 3e 9e a8 0a 3c 85 b1 51 bd
       0.018996006 0.13305853 0.008463053 -0.051194686
0002a0 93 04 cb bc 66 f5 e9 3d 7d da 3f 3d 22 b8 64 3d
       -0.024782455 0.11423759 0.046839226 0.055839665
0002b0 d3 95 1d bc 3f 95 9f 3d f9 94 1d be b4 ed 17 3c
       -0.00961824 0.07792138 -0.1538886 0.009272981
0002c0 8e d7 d6 3d cf 78 66 bd 81 cc d8 3c b2 94 03 3e
       0.104903325 -0.056267556 0.026464703 0.12849692
0002d0 8a 82 54 be 89 4b 47 3e 80 20 a4 bd 20 61 ec 3d
       -0.20752922 0.19462408 -0.080140114 0.115419626
0002e0 a0 bf e5 bc ae 77 77 bd 39 6e bc bd af 69 10 3b
       -0.028045475 -0.06041687 -0.09200711 0.0022035649
0002f0 b6 fd fa 3c d8 28 51 3d b1 12 f5 3d c0 c3 49 bd
       0.030638557 0.051064342 0.11966456 -0.049258947
000300 64 60 8f bc 60 4c 36 3c 16 61 e8 3d 55 88 4f 3d
       -0.017502017 0.011126608 0.11346643 0.050667126
000310 b9 ab e8 3d 5b ea 38 bc fb 15 cf 3d e2 1b 77 bc
       0.113608785 -0.011286343 0.10111614 -0.015082331
000320 cb 68 b6 bc 67 53 83 3c e9 40 7f 3c be 83 5d bd
       -0.022266766 0.01603098 0.015579441 -0.054080717
000330 2e b9 b2 ba 85 d4 4f 3c 74 e7 a2 bc 16 3d 56 3d
       -0.001363551 0.012684946 -0.019885756 0.05230435
000340 a4 42 e1 3d b4 67 b1 3d 60 4a 70 bd eb d0 cc bd
       0.10999039 0.08662358 -0.05866468 -0.100007854
000350 33 0d d5 bd 67 f1 95 3d 5b 3f 85 bd 5d 4d f9 bd
       -0.10402908 0.073214345 -0.06506225 -0.12172959
000360 a7 e0 de bd 3f 39 57 bd f8 c4 a0 bd 96 2e 14 bd
       -0.10882693 -0.05254483 -0.07850069 -0.03617724
000370 de 1c 41 bd f4 47 07 3e 90 f1 c2 3d 14 d4 b3 3d
       -0.04714667 0.13211042 0.09518731 0.08780685
000380 92 7d 49 3d db 83 a1 3c 27 f5 c8 3c 32 c0 9c bd
       0.04919202 0.019716194 0.02453096 -0.07653846
000390 4a c3 82 3c c8 c6 e9 3d a1 dd 73 3b 56 79 d7 bd
       0.015962262 0.11414868 0.0037210959 -0.1052119
0003a0 44 2a f6 3d 1c b6 20 3d 13 99 71 bd b3 95 7a bd
       0.1201978 0.039236173 -0.058983874 -0.06117792
0003b0 9c b2 b1 bd a0 c1 e5 bd 7f b7 e1 3d 84 6b dd 3c
       -0.08676645 -0.11218572 0.11021327 0.027028807
0003c0 06 fb 3d 3d b1 61 59 bd 43 c1 09 bd aa 67 2c be
       0.046381973 -0.05307168 -0.033631574 -0.1683642
0003d0 98 5e 76 3d d2 ac db bc 74 f1 19 bd e7 d5 2d 3d
       0.060148805 -0.026815806 -0.037583783 0.04244032
0003e0 b5 6f ac 3d 4e 18 dd 3b ba da b0 3c 85 93 18 bd
       0.08419744 0.006747282 0.021588672 -0.03725006
0003f0 7f 94 23 3d 65 65 0b 3d 25 3c d7 bd 4d 64 21 3e
       0.03993654 0.034032244 -0.105095185 0.15760918

fc2.bias f4 [100]
000000 f8 17 89 3d 50 27 95 3d e5 8b 4c 3c 86 3b c0 3d
       0.06694025 0.07282889 0.012484525 0.09386353
000010 d9 9d 88 bd fb d1 cd 3d 36 89 14 be b9 91 a3 bc
       -0.06670732 0.10049816 -0.14505467 -0.019966947
000020 63 41 a2 3d 63 70 ec bc 45 f0 22 bd 99 fa d9 3c
       0.07922628 -0.028862184 -0.03977992 0.026608752
000030 d0 53 d5 3d dc 56 29 bd af c1 98 bd c6 85 8c 3d
       0.104163766 -0.0413426 -0.07458817 0.06861453
000040 6e 4c a3 3d d7 7f 93 bd b4 41 41 bd 20 96 86 3d
       0.07973562 -0.07202118 -0.0471818 0.06571603
000050 4b 7e 52 3d 95 c8 b7 bd 0c e8 58 bd 2c f9 07 3d
       0.051389974 -0.08973805 -0.052955672 0.033196613
000060 76 32 cd ba f9 94 81 3d 91 9a 67 3d f9 eb 8b bb
       -0.0015655297 0.063272424 0.05654389 -0.0042700735
000070 d4 1e 93 3d 2a 9b 27 be a4 c5 32 3c c1 6a a5 bb
       0.071836144 -0.16367784 0.010911379 -0.0050481264
000080 67 ad 8f bd 5d 6d 10 bd b0 13 0c bd e8 1b dc bd
       -0.07015496 -0.035260547 -0.034198463 -0.1074751
000090 48 5c b2 3c 6f 73 ae 3d 2d 32 b7 bd 4d 35 b3 bb
       0.021772519 0.08518111 -0.08945117 -0.0054690004
0000a0 04 4c 6a bc d0 4f 96 bd d1 4e 46 3d 15 50 c3 bd
       -0.01430035 -0.07339442 0.04841501 -0.09536759
0000b0 d8 c4 9b 3d 9f 52 e7 bd 3f b3 95 bc df 9e 05 be
       0.07605904 -0.112950556 -0.018273948 -0.13048886
0000c0 78 5a b2 bd 66 11 bf 3d 25 27 50 bd f5 1a 81 3d
       -0.08708662 0.0932949 -0.05081858 0.0630397
0000d0 21 1f 25 bd 9f 7e 5e 3b 71 2d cc bc e8 de a9 3d
       -0.04031289 0.0033949984 -0.024924012 0.08294469
0000e0 18 e2 9a bd 67 7f 94 3d 44 16 ed 3d 74 db 91 bd
       -0.07562655 0.072508626 0.115765125 -0.071219355
0000f0 46 0d 9a 3b da 48 91 ba 9b 33 f3 3d 65 79 7e bc
       0.0047012893 -0.0011084334 0.11875077 -0.015531872
000100 07 3f 93 bd 13 99 b0 bd e4 0e 1c bc 9f 17 99 3d
       -0.07189756 -0.086229466 -0.009525035 0.074752085
000110 bb ec cb bd 65 8b 82 bd 5b 95 b9 bd a3 90 b0 bd
       -0.09957262 -0.06374244 -0.090616904 -0.08621337
000120 74 f1 a0 3b 76 44 95 3d f7 34 ee bc d7 c6 89 3c
       0.004911596 0.072884485 -0.02907799 0.016818447
000130 53 c2 f4 3c fa 9c 6e 3d 91 4f b7 3c bc a0 11 bc
       0.029877817 0.058255173 0.022376807 -0.00888842
000140 32 22 8b bc 59 a2 b9 bd 8d 7d 97 bd 0c 4a ac 3c
       -0.016984079 -0.090641685 -0.07396994 0.021031402
000150 55 14 90 3c c0 31 c7 bb 8e 15 b8 3d 8c f3 b5 3d
       0.01758782 -0.0060789287 0.08988486 0.088843435
000160 cf 4f a0 3c 53 f7 7c bd 6c 60 6e 3d ba 6d 10 3d
       0.019569306 -0.061759304 0.058197424 0.035260893
000170 a9 c5 1f bd 9f 26 6e bd 84 61 97 bd 32 cd 0f 3d
       -0.039006863 -0.0581423 -0.073916465 0.0351078
000180 1a 64 83 bd 7a 16 d9 3d 1e aa a4 bd 23 58 69 3d
       -0.06415577 0.1059999 -0.0804026 0.05696882

fc3.weight f4 [50, 100]
000000 84 d0 08 3d 8a c8 48 3e a7 4c 2e 3e 7e 95 9b bd
       0.03340198 0.1960775 0.17021428 -0.07596873
000010 77 33 2b 3e d6 4f cb 3c fe 4d 12 bd 0b e2 02 3e
       0.16718851 0.024818342 -0.03571891 0.12781541
000020 f4 79 32 3e 04 d4 db bd 3a a0 21 3e 2c 34 dc 3d
       0.17429334 -0.10733798 0.15783778 0.107521385
000030 cc 7b 94 3d f1 a6 d7 bc 24 f5 6f 3c 1a 02 7f 3d
       0.07250175 -0.026324721 0.014645848 0.062257864
000040 48 90 80 3d 2e 59 95 3e d7 e5 14 3d 9c a0 40 bd
       0.062775195 0.291696 0.036352005 -0.04702817
000050 c7 a4 af 3c 1a d4 dc 3c 0d ef 18 3d 14 0a 01 bc
       0.021440877 0.026956607 0.03733735 -0.007875938
000060 a9 1f ec bc c6 69 b0 3d c8 2c 39 3d a7 80 f7 bd
       -0.02882369 0.08613925 0.045208722 -0.12085085
000070 f0 9a 06 be 67 f1 b1 3c 9d aa 3d be 4b 41 61 3e
       -0.13145041 0.021721555 -0.18522115 0.21997564
000080 f8 29 2f 3d 61 97 e0 3d 04 f9 fb 3d 82 fe 92 3d
       0.042764634 0.10966373 0.12303355 0.0717745
000090 4d 2e 21 bd 8d 0d e3 bd 0a d8 1a bd 7a 65 84 be
       -0.039350796 -0.11086569 -0.037803687 -0.2585867
0000a0 8a 04 01 3d 5b 3d 05 3d 22 59 1b 3e a8 3a ad bc
       0.03149847 0.032529216 0.1517072 -0.021146134
0000b0 46 e1 e3 bd 86 e4 81 3d 5e 59 db bd 07 56 95 bd
       -0.11126952 0.063424155 -0.10710405 -0.07291799
0000c0 4d cd 79 3d b9 66 0e bd 72 02 0c 3d 07 4f 94 3d
       0.060986806 -0.034765933 0.03418202 0.07241636
0000d0 3a 9c 0c 3e 84 13 a7 bd 9d 42 5b 3d 28 d9 cc 3d
       0.1373147 -0.08158019 0.053530324 0.10002357
0000e0 ca ef c9 3c 41 48 9e 3d a8 f9 20 bd d3 d2 6f bd
       0.024650473 0.07728625 -0.03930059 -0.058550667
0000f0 2a 7e e3 3c e5 b7 4a 3d d8 55 b1 3c 3b 91 ba 3d
       0.02777012 0.04949178 0.021647379 0.09109732
000100 61 19 d3 3c 48 2b 5f 3e ad 9a ec 3c b9 1e 45 3d
       0.025768938 0.21793854 0.028882349 0.048125003
000110 fe 7b 1e be 0b fc 03 bc 0b 5b 02 bd 37 d2 c5 bd
       -0.15476987 -0.008055697 -0.031825107 -0.09659236
000120 80 3e 36 3e 28 55 03 3d d1 80 0e 3e 70 80 16 3e
       0.1779728 0.032063633 0.13916327 0.14697433
000130 24 12 29 3e 4f f8 8c bd 20 5b 19 3c 3d 2c fd bd
       0.16510826 -0.068832986 0.009360105 -0.123619534
000140 9f ce 3e 3e e8 96 03 be c9 3d 34 3d 6b 2a 24 3e
       0.18633507 -0.12850535 0.044004235 0.16031806
000150 bc af aa 3c 10 d5 45 3d 2e 4e a8 bd 1e a0 fa bd
       0.02083575 0.048298895 -0.082180366 -0.12237571
000160 6d 5e 3b 3b c9 d0 8a 3e 98 b5 c8 bd 06 7d f7 bc
       0.0028590218 0.27112415 -0.09800261 -0.030210983
000170 91 ba f3 bc 17 4b a9 bb d1 47 21 3d c1 a4 84 bd
       -0.029752048 -0.005166422 0.03937513 -0.06476737
000180 77 7a 1a 3d db fd e6 bc df 32 ac 3d 2f f2 1d 3e
       0.037714448 -0.02819722 0.084081404 0.15424417
000190 6d 52 a0 3d 47 d2 c8 bd 78 dc e5 bc f1 04 52 bb
       0.078282215 -0.09805732 -0.02805923 -0.0032046402
0001a0 fa 5e 30 be 2a c8 eb 3d 02 a4 49 3d 07 4f 18 3d
       -0.1722373 0.11512788 0.049228676 0.03718474
0001b0 e3 f9 1c be 28 0d ae 3d cf 36 0b be 1f 6e b8 3d
       -0.15329699 0.08498603 -0.13595127 0.09005379
0001c0 92 e3 dd bd 66 69 85 bd c6 e1 c5 3d 2d fd d5 3d
       -0.10834421 -0.06514244 0.096622035 0.1044868
0001d0 58 b1 d4 bd 93 6b 6c be 1f c5 b0 bd bd 4c ba 3d
       -0.10385388 -0.23087911 -0.08631348 0.09096668
0001e0 85 b8 cd 3d e4 54 97 3b 41 29 60 3c d3 27 16 3c
       0.1004496 0.004618274 0.013681711 0.009164768
0001f0 a3 77 f2 3d e2 0e 84 bd 31 7f c3 3c a9 ba 9c 3d
       0.11839225 -0.06448151 0.02386436 0.0765279
000200 97 f6 a9 3c 3d f3 79 be b0 d5 b0 3d 14 2f 28 be
       0.020747466 -0.24409194 0.08634508 -0.16424209
000210 db 04 76 3c 53 20 a2 3d cd 9c 3e bc 7b 42 a4 3d
       0.015015806 0.079163216 -0.011634064 0.08020493
000220 57 92 90 bd 0d 7a f3 3d 5b eb ee bc 6f 9c 0d 3e
       -0.07059162 0.11888514 -0.02916496 0.13829206
000230 a6 5d e0 3d ae 50 82 bd e8 c3 a6 bd dc de 88 3d
       0.10955362 -0.06363045 -0.08142835 0.06683132
000240 93 2f 26 3d 06 97 52 bc 79 c0 d5 3d 86 cb e8 3d
       0.040572714 -0.01285339 0.10437102 0.11366944
000250 88 95 41 bd 09 3a d8 bc d1 6a 95 bd 3d 61 69 3c
       -0.047261745 -0.02639486 -0.07295764 0.014244375
000260 0d ee 89 3c c3 b0 f8 3d e4 a6 90 3c 9a 61 20 be
       0.016837144 0.121430896 0.017657705 -0.15662232
000270 7b 96 51 3d 92 92 68 be fd af aa bd 26 6e ce 3d
       0.0511689 -0.22712162 -0.08334348 0.10079603
000280 62 4a 3d bd 25 17 cc bd d0 63 73 3d 81 48 a3 3c
       -0.046213515 -0.09965352 0.05942136 0.019932033
000290 c1 93 c5 3d 01 f7 de bd 3d 7e fd bb ba 56 64 3d
       0.096473224 -0.10886956 -0.007735996 0.05574677
0002a0 a1 8e 08 3e 89 86 b5 bd 69 25 20 3e 39 45 1c 3e
       0.13335659 -0.08863551 0.15639271 0.15260781
0002b0 10 b8 ad 3c 56 d3 9b bd 32 5f d3 bd 14 6c ed bc
       0.021205932 -0.076086685 -0.103208914 -0.0289822
0002c0 cd be 2e 3d 10 f8 de 3d c7 cd e0 3c 4f 1b ac bd
       0.04266243 0.10887158 0.027441872 -0.08403646
0002d0 3f 0b a7 bd e6 97 cc 3d d1 c7 8c 3d f7 22 fa bd
       -0.08156442 0.0998991 0.068740495 -0.122137
0002e0 1a 73 00 3e 03 7a cf 3c a4 e8 fe 3c 3b 6a 22 bd
       0.12543908 0.025326734 0.031116791 -0.03965209
0002f0 25 6a c2 3b 37 96 76 be b0 41 2d bc bf dc 82 bc
       0.0059330636 -0.2408074 -0.010574743 -0.0159744
000300 84 5d 88 bd 0e 3d c4 bd b9 94 f8 3c 3b 86 da bd
       -0.06658462 -0.09581958 0.030344354 -0.10670134
000310 25 9b bc 3d e4 a0 ef bc 64 d1 5b bd fa 4d 52 3a
       0.09209279 -0.029251523 -0.053666487 0.00080224837
000320 98 83 4b 3d ff 44 9e bc 8b cb 47 3d 96 51 99 bd
       0.049686044 -0.01932001 0.048778098 -0.074862644
000330 98 1d 62 3d 2b 0b d3 bd 46 5f d4 bd 24 b9 09 be
       0.055204004 -0.103048645 -0.103697345 -0.13449532
000340 1a 4e 77 bd 8c 64 c7 3d 9f 17 d7 3d 86 a4 8c 3d
       -0.060377218 0.09735975 0.10502552 0.06867318
000350 1a d9 cb 3d d0 82 ab bc a0 34 9b bd a0 b3 4d bd
       0.09953518 -0.0209364 -0.07578397 -0.050220132
000360 20 32 09 3e 04 e4 75 3d 57 ce 5a 3d 59 3a 72 3d
       0.13398027 0.060031906 0.053419437 0.059137676
000370 67 81 0e bd 68 31 14 3d 2b aa b4 3d 2f 9e 98 3d
       -0.034791376 0.03617993 0.088215195 0.07452046
000380 2a fb 33 bd 3c 45 c3 3d 5e 5f f7 bd 12 d7 91 bd
       -0.0439407 0.0953469 -0.12078737 -0.071210995
000390 c5 09 7f 3c 28 15 16 bc 36 2d 80 bd 46 e5 a5 bd
       0.015566294 -0.0091603175 -0.06258623 -0.08100371
0003a0 0f 43 03 be 36 c9 fc bd d7 08 b7 3d bd 2c 2f bd
       -0.1281855 -0.123430654 0.08937233 -0.042767275
0003b0 73 6b bd bc 4c 58 43 bd 48 32 d6 bd c3 f7 2a 3c
       -0.023122525 -0.04769163 -0.10458809 0.010435048
0003c0 d3 cb 2b be a1 1d 0f be bd 70 49 3e 01 be d9 bd
       -0.16776972 -0.13976146 0.19671912 -0.106319435
0003d0 20 a0 43 be da 4c bb 3d e2 21 aa bc 25 ea 92 bd
       -0.19104052 0.09145518 -0.02076811 -0.07173566
0003e0 69 22 cc bd f0 ca 2a bc 34 22 fb 3b fb c6 b1 bd
       -0.09967501 -0.010424361 0.0076639894 -0.08680531
0003f0 56 55 a0 3d b0 18 03 be 26 6d 9d bd bf 16 f2 bc
       0.078287765 -0.12802386 -0.07686834 -0.029551862

fc3.bias f4 [50]
000000 a4 aa d9 bc 9c 75 36 3d 4a 42 60 bd 4b 01 af bd
       -0.026570626 0.044545755 -0.05475072 -0.085451685
000010 af 73 2d bd e2 fe a1 3d bd 78 7d 3d ac 00 03 3c
       -0.042346653 0.07909943 0.061882723 0.007995766
000020 e4 13 89 bc cb bf 24 bd 61 66 ae 3c 77 9e 6b 3d
       -0.016733117 -0.04022197 0.021289052 0.05752417
000030 57 f8 3f bd 49 a3 9a 3d 4a 1d 98 bd d8 2d af bd
       -0.046867695 0.075506754 -0.074274614 -0.08553666
000040 43 99 bc bd fc 12 15 3d a7 a4 58 3c 82 c2 74 3d
       -0.0920892 0.036395058 0.01322285 0.05975581
000050 0c aa 3f bd 16 41 72 bd 3f 74 1a 3d 92 9c b5 3d
       -0.04679303 -0.059144102 0.037708517 0.08867754
000060 c7 15 97 bd 98 de 41 3b 03 79 b1 bb b7 08 19 3c
       -0.073772006 0.002958214 -0.005416037 0.009340457
000070 16 23 46 3d 56 0d 55 bd 6f a6 4a 3d 64 bf 0c bd
       0.048373304 -0.05201467 0.04947513 -0.03436221
000080 4f 27 79 3d aa 7b 24 bd d3 29 85 3d 6f 1d e0 bc
       0.060828503 -0.040156998 0.06502118 -0.027357785
000090 7f 40 d3 bd 29 44 14 3e e8 e1 8b bb b3 d0 ad 3c
       -0.10315036 0.14479126 -0.0042688735 0.02121768
0000a0 d2 46 71 3d 5e 90 b4 3d a6 d3 20 3c 07 ee c2 bd
       0.05890543 0.08816598 0.009816086 -0.09518056
0000b0 4b be 3a bd cc ef 5e 3d 9e f1 50 3d 54 b6 57 3d
       -0.045591634 0.054427907 0.051011674 0.052664116
0000c0 ad eb 4a bd 9e 7c bb bd
       -0.049541164 -0.09154628

fc4.weight f4 [2, 50]
000000 0c 63 c3 bd 25 4d b4 3d 31 a0 04 3e b8 78 06 be
       -0.09540376 0.08803777 0.12951733 -0.13131988
000010 77 46 1a be 85 31 8d 3e 86 e2 8e 3e 42 bb af 3e
       -0.15065943 0.27576843 0.279072 0.34322554
000020 47 78 56 3e d6 48 dc 3d c0 f4 a8 3d e7 e4 f9 bd
       0.2094432 0.1075608 0.08249807 -0.12201863
000030 35 df df bd de c3 30 be 41 70 b3 3e 57 3d 92 3e
       -0.10931245 -0.17262217 0.3504658 0.28562424
000040 c4 1c 4c 3e 49 e7 10 be f7 90 3a be 6e 3d 3f 3e
       0.19932848 -0.14150728 -0.18219362 0.18675777
000050 71 02 ef 3d 09 39 ff 3d 85 b4 ce bd b4 77 65 be
       0.116703875 0.124620505 -0.10093025 -0.22408944
000060 af f3 53 bd 4d b6 21 be 5b 67 33 3e 1d 10 82 3d
       -0.051746067 -0.15792198 0.17519896 0.063507296
000070 4e 85 78 3e 70 b1 c6 3d 77 7b 45 be d6 7f 45 3e
       0.24269602 0.09701812 -0.1928538 0.19287047
000080 8b 7c 7b bc 5e a7 33 be 5f 37 f7 3d 50 0f 1b be
       -0.015349518 -0.17544314 0.12071108 -0.1514256
000090 06 e5 71 3e a4 76 1b 3e b1 7d ed 3c 87 f4 07 be
       0.23622522 0.15181977 0.028990598 -0.13276874
0000a0 a3 50 f5 3b 1b 79 00 3e 02 78 82 3e 4f 02 1b 3e
       0.0074864193 0.12546198 0.25482184 0.151376
0000b0 72 41 1c be bd 35 56 be bb d5 64 3e 67 55 40 3e
       -0.1525934 -0.20918937 0.22347157 0.18782578
0000c0 a7 52 d4 3c 34 c7 a5 3e fa 48 1c be a9 a0 75 3e
       0.025918318 0.32378542 -0.15262213 0.23987068
0000d0 ee af b2 be bf fc 85 be 4b dd 4f 3e cd 55 c2 3e
       -0.3489985 -0.26169392 0.2029926 0.37956086
0000e0 15 8d 9f bd aa dd 5d bc 29 97 da 3d 4b 25 67 3d
       -0.07790581 -0.013541618 0.10673363 0.05643205
0000f0 ea 87 cc be 83 47 83 be b0 26 9a 3d 59 5f 84 be
       -0.39947444 -0.25640497 0.0752691 -0.25853994
000100 e3 8e 23 be b5 d1 50 be cf e6 6d 3d e4 d7 d8 3d
       -0.15972476 -0.20392497 0.058081444 0.10588053
000110 49 b6 40 be 43 08 86 3e 5e eb 40 be 03 bd 98 3e
       -0.18819536 0.26178178 -0.18839785 0.29831704
000120 d4 e4 0a 3e 8a 4b 04 be 1e 1d 99 3e 4d 61 2d 3e
       0.13563854 -0.12919441 0.29905027 0.16931649
000130 d4 98 49 3e 7c 48 9e be e4 79 e5 bd 30 ad 6f be
       0.19687206 -0.30914676 -0.112048894 -0.2340591
000140 ad b1 d4 3d 8a 15 dc 3d 71 c2 7a be a6 e4 72 be
       0.103854515 0.10746296 -0.24488236 -0.23720035
000150 03 23 94 3e b8 d6 36 3e bd 47 a6 3c 6e 3c 9a be
       0.28932962 0.17855346 0.02029788 -0.3012423
000160 f3 7a 8c be c9 55 17 3e 95 6d 13 3e 01 d3 7a 3e
       -0.27437553 0.14778818 0.14397271 0.24494554
000170 51 f6 38 3e 3b e1 87 be 04 57 4d 3e 14 7e eb bd
       0.18062712 -0.26539025 0.20052725 -0.11498657
000180 63 5d 97 bd e2 d1 37 be 0d fd b2 3c c8 bc 3e 3d
       -0.07390859 -0.17951158 0.02184918 0.046566755

fc4.bias f4 [2]
000000 99 77 9e 3d 25 12 07 3e
       0.07737655 0.13190515
