Results/BS_256_EP_2000_TMAX_1000_NOISE_0.01/checkpoint_critic.pth (torch_old, 72821 bytes, 7 tensors)

fc1.weight f4 [100, 26]
0	0x3efa240a	0.4885562
1	0xbd1050ed	-0.035233427
2	0xbde8f751	-0.11375297
3	0xbdddfe1a	-0.10839482
4	0x3eff6a5c	0.49885833
5	0xbeeef181	-0.46668628
6	0x3d334cab	0.04377429
7	0x3e4406fa	0.19143286
8	0x3daf418a	0.085574225
9	0xbe38b291	-0.18036868
10	0xbd2ed0b8	-0.04267952
11	0xbe12f2e9	-0.14350475
12	0xbd912779	-0.07087607
13	0xbe22b3cf	-0.15888904
14	0xbd839776	-0.06425373
15	0xbdc811b9	-0.09769005
16	0x3da47881	0.08030797
17	0xbcda22a6	-0.02662785
18	0xbdbbc233	-0.091679
19	0x3e7b6700	0.2455101
20	0xbd19bb50	-0.03753215
21	0x3ed669e8	0.41877675
22	0x3a6fcb34	0.0009147406
23	0x3ef4904d	0.47766343
24	0xbfc95c50	-1.5731297
25	0xbda6b302	-0.08139612
26	0x3eac5b82	0.33663565
27	0x3dfdb343	0.12387707
28	0xbdac6ab4	-0.084187895
29	0xbe46fbd9	-0.1943201
30	0xbdd94347	-0.10608535
31	0xbd951744	-0.07279828
32	0xbdb3e782	-0.08784391
33	0xbe709638	-0.23494804
34	0xbdc8fc72	-0.09813775
35	0xbe6287e5	-0.22122152
36	0xbe206f6d	-0.15667506
37	0x3c4e651a	0.012597347
38	0x3dbe1868	0.09281999
39	0x3e30082d	0.17190619
40	0xbd02933d	-0.0318787
41	0xbe8357a8	-0.25652814
42	0x3d6ec2dd	0.058291305
43	0xbe94382a	-0.289491
44	0xbdec41c9	-0.11535985
45	0xbf119abf	-0.5687675
46	0x3d3c0e4c	0.045912072
47	0x3e96bc1a	0.29440385
48	0xbd78575b	-0.060630184
49	0xbef31143	-0.47474107
50	0xbd9808ca	-0.074235514
51	0xbe521d18	-0.20518911
52	0x3e3575e3	0.17720751
53	0x3f149bfc	0.58050513
54	0x3b90e4f1	0.004421823
55	0xbc8e8d33	-0.017401313
56	0xbd4edb22	-0.05050195
57	0xbf58c12a	-0.84669745
58	0xbe86a779	-0.26299646
59	0xbb543587	-0.0032380538
60	0x3e65bcb1	0.22435261
61	0x3f2fd874	0.68689656
62	0xbd40b05e	-0.047043197
63	0x3d9b339a	0.075782016
64	0x3d59f4cd	0.053211976
65	0xbf8672f9	-1.0503837
66	0x3d9ce7c9	0.07661397
67	0x3d7dd99d	0.06197511
68	0x3e4db5ad	0.20088835
69	0x3f453323	0.77031153
70	0xbe8368a7	-0.2566578
71	0xbddd0635	-0.107921995
72	0x3cdafb8e	0.026731279
73	0xbf9f939f	-1.2466925
74	0x3d856565	0.0651348
75	0x3e0c4826	0.13699397
76	0x3d351257	0.044206943
77	0xbd84331b	-0.0645506
78	0xbc0720c4	-0.008247558
79	0xbf2c0e74	-0.67209554
80	0xbe0b08c9	-0.1357757
81	0x3e3b8989	0.18314184
82	0x3ebd3011	0.36950734
83	0xbd82a8f4	-0.063798815
84	0x3dab6a89	0.08369929
85	0xbcc5c8c2	-0.02414358
86	0xbd8d14f2	-0.068887606
87	0xbf4daeed	-0.8034504
88	0x3d93aa85	0.072102584
89	0xbe098a9b	-0.1343178
90	0x3e2e9790	0.17050004
91	0xbe171760	-0.1475501
92	0x3e0c5e82	0.13707927
93	0x3d61fc97	0.05517253
94	0xbe4b55e8	-0.1985699
95	0xbf6a8446	-0.91608083
96	0x3d6ece08	0.058301955
97	0x3dcc57b4	0.099776655
98	0xbf02bcd5	-0.51069385
99	0xbf1ffd31	-0.62495714
100	0x3e145a03	0.14487462
101	0x3e437523	0.19087653
102	0xbbb4c4ee	-0.00551664
103	0x3e573676	0.21016869
104	0x3ca3742e	0.01995286
105	0xbf0bbc37	-0.5458407
106	0xbc3006ff	-0.0107438555
107	0xbe870f38	-0.26378798
108	0x3f0c4e77	0.5480723
109	0x3d54fc55	0.051998455
110	0x3d67f315	0.056628305
111	0x3b7cb422	0.0038559516
112	0x3e346993	0.17618398
113	0xbed04c67	-0.4068329
114	0x3de2d563	0.110758565
115	0xbd91eb2d	-0.07124934
116	0x3e9a75a2	0.30167872
117	0xbe5d10a1	-0.21588375
118	0x3ba2fbdd	0.004973872
119	0x3e100546	0.14064512
120	0x3ea657fe	0.32489008
121	0xbf089c44	-0.5336344
122	0xbdc3b434	-0.095558554
123	0xbe19b4a3	-0.15010314
124	0xbedec7dc	-0.43511856
125	0xbeae0bd9	-0.33993414
126	0xbd488cb5	-0.048962314
127	0xbead4741	-0.33843425
128	0xbe4b3fd7	-0.19848572
129	0x3f91381a	1.1345246
130	0x3ddb8fe2	0.10720803
131	0xbe780b8a	-0.24223152
132	0xbd1b9b28	-0.037989765
133	0x3dd2ef3d	0.10299537
134	0x3f168d7f	0.58809656
135	0x3e5cb0d2	0.21551827
136	0x3dc3044b	0.09522303
137	0x3dc4e5a8	0.09614116
138	0x3e1b4464	0.15162808
139	0xbebdff88	-0.37109017
140	0x3e2fdb46	0.1717349
141	0x3e765ad3	0.24058084
142	0x3eba36cc	0.36369932
143	0xbe0252d0	-0.12726903
144	0xbe42c698	-0.1902107
145	0x3cbced31	0.02306232
146	0x3e699e8d	0.22814389
147	0xbedd720d	-0.43251076
148	0xbe3116a0	-0.17293787
149	0xbe0210cc	-0.1270172
150	0xbf1fbb77	-0.62395424
151	0xbf34292c	-0.70375323
152	0xbdec0260	-0.115238905
153	0x3e05f550	0.1308186
154	0xbdcd6fd2	-0.10031094
155	0xbea7fcc3	-0.3281003
156	0x3e2ec16a	0.17065969
157	0x3e317c2f	0.17332529
158	0xbd13f616	-0.036123358
159	0x3d133400	0.035938263
160	0x3e84417f	0.2583122
161	0xbf24bad1	-0.6434756
162	0xbe2ebdda	-0.1706461
163	0xbd5caaef	-0.053873952
164	0x3d9f6c0b	0.077842794
165	0x3eaa1b48	0.3322394
166	0xbdbd5592	-0.09244837
167	0x3e583607	0.2111436
168	0xbd400eef	-0.04688924
169	0xbf54ce92	-0.831277
170	0x3e2d2b76	0.1691111
171	0x3d6a9556	0.057271324
172	0x3e9aa78b	0.3020595
173	0x3ebfefb7	0.37487575
174	0xbdaac18e	-0.08337699
175	0xbe0ad76c	-0.1355874
176	0xbe8d6691	-0.27617314
177	0xbf65e4e0	-0.8980236
178	0x3e80390e	0.2504353
179	0xbed617f1	-0.4181514
180	0xbf3c254e	-0.7349442
181	0x3c0d8010	0.0086364895
182	0x3e91e571	0.28495362
183	0x3ed7e768	0.42168736
184	0x3de29ba9	0.11064846
185	0x3e0d712f	0.13812707
186	0x3db7141e	0.08939384
187	0xbea000fc	-0.3125075
188	0xbe14aff1	-0.14520241
189	0x3e3355cc	0.17513198
190	0x3e9a415b	0.30127987
191	0x3f212123	0.6294119
192	0xbdd42dbb	-0.10360285
193	0xbd0c01e7	-0.0341815
194	0xbea0bcc5	-0.3139402
195	0xbf2bf935	-0.67177135
196	0xbda2e845	-0.07954458
197	0x3cc56193	0.024094379
198	0x3e2c35af	0.16817354
199	0x3e0e3dda	0.13890782
200	0x3dbdd489	0.092690535
201	0xbce41286	-0.027840864
202	0xbf453e03	-0.7704775
203	0xbf642e02	-0.891327
204	0xbcf12636	-0.029437166
205	0xbc8b360d	-0.016993547
206	0x3dcef888	0.10105997
207	0xbd9e7020	-0.0773623
208	0x3e74305c	0.23846573
209	0xba76e2e7	-0.00094179664
210	0x3d516a3b	0.0511267
211	0x3d641f99	0.055694196
212	0x3dbbe394	0.091742665
213	0xbea8092a	-0.32819492
214	0x3d51c010	0.051208556
215	0x3df4b481	0.11948491
216	0xbdb9022f	-0.090336196
217	0xbd7a9321	-0.06117547
218	0x3dc5caec	0.09657845
219	0xbdda57e6	-0.106612965
220	0x3cfabfac	0.030608974
221	0x3e0ddae4	0.13853031
222	0x3c1478c9	0.009062001
223	0x3d6df60c	0.058095977
224	0xbe879892	-0.2648359
225	0x3daad0d3	0.08340611
226	0xbe09dde0	-0.13463545
227	0x3d9b1f8d	0.07574377
228	0xbc5b279e	-0.013376145
229	0x3df9da6b	0.12199863
230	0x3bebeb0f	0.007199652
231	0x3e961ade	0.29317373
232	0x3e3871ea	0.18012205
233	0x3e7af641	0.24508001
234	0x3d925351	0.071447976
235	0xbcc6beb4	-0.024260856
236	0x3d616b04	0.0550337
237	0xbdb5e6d6	-0.08881919
238	0x3e3d4883	0.18484692
239	0x3e151ccc	0.14561766
240	0x3d0260c3	0.03183056
241	0x3e49ac2a	0.19694582
242	0xbe25f6e6	-0.16207466
243	0x3d837f8c	0.06420812
244	0x3dcd97b5	0.100387014
245	0xbe156449	-0.14589037
246	0x3ef965b9	0.4871042
247	0xbf79db44	-0.976002
248	0x3b0b43ea	0.0021250197
249	0x3c2adde3	0.0104288785
250	0xbe296178	-0.16541088
251	0xbd9ac9a6	-0.07557993
252	0x3e496573	0.19667606
253	0x3ee42927	0.44562647
254	0xbeb2a3fc	-0.34890735
255	0xbf87ba10	-1.0603657

fc1.bias f4 [100]
0	0x3e424d63	0.18974833
1	0xbe8127f5	-0.25225797
2	0xbd4c58c7	-0.049889352
3	0xbe9fd84a	-0.31219703
4	0xbe1a2637	-0.1505364
5	0x3d8d2d14	0.068933636
6	0x3d620b32	0.055186458
7	0xbdd2ff83	-0.10302641
8	0xbe841430	-0.25796652
9	0xbd73a5ff	-0.059484478
10	0xbeefd7d2	-0.46844345
11	0xbdf78256	-0.120854065
12	0xbea16900	-0.3152542
13	0xbe0c62e5	-0.137096
14	0xbec66caf	-0.38754794
15	0xbeaf197b	-0.34199128
16	0xbe9648fc	-0.29352558
17	0xbeb0ce0e	-0.34532207
18	0xbe59c335	-0.21265872
19	0x3e21379e	0.15743873
20	0xbedb40c7	-0.4282286
21	0xbe7e614e	-0.24841806
22	0x3dfce711	0.1234876
23	0xbdee4b3a	-0.11635442
24	0xbec44785	-0.38335815
25	0xbec08dea	-0.37608272
26	0xbd77ae21	-0.060468797
27	0xbf06fdb2	-0.5273086
28	0xbdbb1708	-0.09135252
29	0x3da74ea8	0.08169299
30	0xbe167eca	-0.14696804
31	0xbe89d7ac	-0.26922357
32	0xbee219cb	-0.44160303
33	0xbd5a71d5	-0.053331215
34	0xbd04ac0b	-0.032390635
35	0x3e7c2d74	0.24626714
36	0xbe182cd1	-0.14860846
37	0x3e041beb	0.12901275
38	0x3e98d718	0.29851604
39	0xbeea7594	-0.4579283
40	0xbe569cf4	-0.2095831
41	0xbe2a4780	-0.16628838
42	0xbd002a92	-0.0312906
43	0xbe6a2e75	-0.22869284
44	0xbe21ecc7	-0.1581298
45	0xbdfb54b2	-0.12272014
46	0x3d810f6c	0.063017696
47	0x3cb3add0	0.021933466
48	0x3d98eafe	0.07466696
49	0xbe08e301	-0.13367845
50	0xbdf97f30	-0.12182462
51	0xbd95a332	-0.07306518
52	0xbdff612c	-0.12469706
53	0xbe5b62cc	-0.21424407
54	0x3a51bbb1	0.00080006855
55	0xbe8823d9	-0.2658985
56	0xbd1954dc	-0.037434444
57	0xbc3fbe04	-0.011703018
58	0xbee02bdb	-0.4378346
59	0x3db5bfd8	0.08874482
60	0xbeb641eb	-0.35597166
61	0x3e3b4a61	0.18290092
62	0x3d764de8	0.06013289
63	0xbcfd8ead	-0.030951822
64	0xbdb94887	-0.090470366
65	0xbd0ff6ae	-0.03514736
66	0xbe90ebfa	-0.28305036
67	0x3e988cbd	0.29794875
68	0xbe5989d6	-0.21243986
69	0xbe23b8e6	-0.15988502
70	0xbec7bc3d	-0.39010802
71	0xbe123145	-0.14276607
72	0xbec70d2d	-0.3887724
73	0xbe84a2c5	-0.25905433
74	0xbeef7cc8	-0.46774888
75	0xbdd7fdb6	-0.105464384
76	0x3e2aaef6	0.16668305
77	0xbcfceeb8	-0.030875549
78	0xbdcfd4c8	-0.10148007
79	0x3b9b6cab	0.004743179
80	0xbe913394	-0.28359663
81	0xbdbcfe74	-0.092282206
82	0xbe9a2dd5	-0.30113092
83	0x3e12c92e	0.14334556
84	0xbec74a23	-0.3892375
85	0x3e99599f	0.29951188
86	0x3e034355	0.12818654
87	0xbddfe1db	-0.109317504
88	0x3e8486e7	0.25884172
89	0xbe51dc94	-0.204943
90	0x3e8c762d	0.2743391
91	0xbe0f46db	-0.13991873
92	0xbe8b6279	-0.27223566
93	0xbe4bbd75	-0.19896491
94	0xbd6a40a6	-0.05719056
95	0xbe6f39e5	-0.23361929
96	0x3dce4a5c	0.10072777
97	0xbed29cb0	-0.41135168
98	0xbd1b3e95	-0.03790148
99	0xbde0411a	-0.10949917

fc2.weight f4 [100, 100]
0	0xbd1690fd	-0.036759365
1	0xbe10f2ba	-0.14155093
2	0x3ce9da2c	0.028546415
3	0xbdfa0216	-0.12207429
4	0xbe53c111	-0.20679118
5	0xbdd9c267	-0.106327824
6	0xbd18409a	-0.037170984
7	0x3d6d6470	0.057957113
8	0xbda9ea23	-0.08296611
9	0xbb4d8f0a	-0.0031365776
10	0xbd7bd951	-0.061486546
11	0xbe35f264	-0.17768246
12	0xbde7551b	-0.112955295
13	0xbc3e7c7a	-0.011626357
14	0xbe07058c	-0.1318571
15	0xbe0f7b1e	-0.14011809
16	0xbce7f4f0	-0.028315037
17	0xbe3455b4	-0.17610818
18	0xbd969226	-0.07352094
19	0xbe548fd3	-0.2075799
20	0xbde0c29d	-0.109746195
21	0x3d093b0d	0.03350358
22	0xbd66494a	-0.056222238
23	0x3d5fe6a1	0.054663304
24	0xbd308461	-0.043094996
25	0xbd147b74	-0.036250547
26	0xbd196e29	-0.037458573
27	0xbe349d96	-0.1763824
28	0xbe211f32	-0.15734556
29	0x3b86bb64	0.004111694
30	0xbdbee45e	-0.09320901
31	0xbddfe1bd	-0.10931728
32	0x3dbbf377	0.091772966
33	0xbb4e1981	-0.0031448307
34	0xbcd3abcd	-0.025838757
35	0xbdd97a6a	-0.10619052
36	0xbe1ec4fc	-0.15504831
37	0xbe36eeeb	-0.17864577
38	0x3d7734e7	0.060353186
39	0xbb81d564	-0.0039622057
40	0xbd0d552c	-0.034505054
41	0xbd99ed0a	-0.07515915
42	0xbdaad488	-0.08341318
43	0xbe3d5900	-0.18490982
44	0xbd914a36	-0.07094233
45	0xbdea23a5	-0.1143258
46	0xb7bc3278	-2.2434848e-05
47	0x3d38a3ab	0.04507796
48	0x3cf51451	0.029916914
49	0xbd3ecf9c	-0.04658471
50	0xbca36cd6	-0.019949358
51	0xbc3e83f2	-0.011628138
52	0xbd84543b	-0.06461378
53	0x3c2c4b14	0.010515947
54	0xbdc2ce3a	-0.09511991
55	0xbc4d31f3	-0.012524116
56	0xbd488998	-0.048959345
57	0x3d7fddaf	0.062467273
58	0xbdfa1125	-0.12210301
59	0xbccf5dfa	-0.025313366
60	0x3cd6c04e	0.026214745
61	0xbdd04fa2	-0.10171439
62	0xbe3b24de	-0.18275782
63	0xbd04d635	-0.032430846
64	0xbd5c3453	-0.053760838
65	0xbd4eecd8	-0.05051884
66	0x3d43afdd	0.04777514
67	0x3db7ddde	0.08977865
68	0xbd298bb7	-0.041393008
69	0xbd535201	-0.051591877
70	0xbe21cecc	-0.15801543
71	0xbae3eebe	-0.0017389876
72	0xbda1845d	-0.078865744
73	0x3d8baa86	0.06819634
74	0xbda4e8a4	-0.08052185
75	0xbd174887	-0.0369344
76	0x3d8abc6b	0.06774219
77	0xbac0ac39	-0.0014699764
78	0xbd38d015	-0.045120317
79	0x3cb50e51	0.022101553
80	0xbe15d6d6	-0.14632735
81	0x3da164bc	0.07880542
82	0xbdc16893	-0.09443774
83	0xbb14b0fe	-0.0022688503
84	0xbdadf91e	-0.08494781
85	0xbd6960d7	-0.05697712
86	0x3baa9799	0.00520606
87	0x3d00febb	0.03149293
88	0xbd906512	-0.07050528
89	0xbb905b2c	-0.0044054
90	0x3d12cddb	0.03584085
91	0xbcaac4af	-0.02084574
92	0xbdeec976	-0.116595194
93	0xbe31d3b3	-0.17365913
94	0xbdcec5ff	-0.100963585
95	0x3d8ce4f1	0.068796046
96	0xbda665f3	-0.08124914
97	0x3d515dd5	0.051114876
98	0xbd373f6d	-0.044738222
99	0xbdd50da0	-0.104029894
100	0x3c20e013	0.009819048
101	0xbda653d3	-0.08121457
102	0xbe9cbe98	-0.30614161
103	0x3e46c0fe	0.19409558
104	0xbe58d160	-0.2117362
105	0xbe8f7dfd	-0.2802581
106	0xbda66c4e	-0.08126126
107	0xbd57ede2	-0.052717097
108	0xbee47a7c	-0.44624698
109	0x3ea2c4ba	0.31790715
110	0xbd54ddd6	-0.05196937
111	0x3e635708	0.22201169
112	0xbdeeb3bf	-0.116553776
113	0xbf1ac792	-0.6046077
114	0xbc688aa6	-0.014193213
115	0xbdb825f0	-0.08991611
116	0xbed6aa61	-0.41926864
117	0xbe56d5a5	-0.20979936
118	0x3e08f773	0.13375644
119	0xbe722466	-0.23646697
120	0xba09ddc6	-0.0005259182
121	0x3e9ff47a	0.31241208
122	0xbef16fd2	-0.47155625
123	0xbe294dea	-0.16533628
124	0x3e51490a	0.20438018
125	0x3e36c333	0.178479
126	0x3ca3147e	0.019907232
127	0x3dc7c4e8	0.09754354
128	0xbe48b87f	-0.1960163
129	0xbc1b5aa9	-0.009482064
130	0xbf08c7a1	-0.5342961
131	0xbe5b15cf	-0.21395038
132	0x3dfa575f	0.12223696
133	0xbe0be3e2	-0.13661149
134	0xbf4a5812	-0.79040635
135	0xbed7d268	-0.42152715
136	0x3d839b27	0.06426077
137	0x3e57e0e0	0.21081877
138	0xbe4718f1	-0.19443108
139	0x3d90f366	0.070776746
140	0x3e1d135c	0.15339416
141	0x3d181986	0.037133716
142	0x3e8b569b	0.27214512
143	0x3d371bb4	0.044704154
144	0x3dd3b59c	0.103373736
145	0xbe4c0698	-0.1992439
146	0xbde50379	-0.11182303
147	0xbefeba8a	-0.49751693
148	0x3eaac8fb	0.3335646
149	0xbe8e5e97	-0.2780654
150	0xbdcd8d3d	-0.10036705
151	0x3db17375	0.086646
152	0xbde81f53	-0.113340996
153	0x3d669312	0.0562926
154	0xbee564c8	-0.44803452
155	0xbc9aec95	-0.01891164
156	0x3ac29224	0.0014844579
157	0xbdf8b510	-0.1214391
158	0x3e6cb17e	0.23114583
159	0x3d0e7dec	0.034788057
160	0xbf509565	-0.8147796
161	0xbcf82180	-0.030289412
162	0x3d68632f	0.056735214
163	0xbdd3236e	-0.10309492
164	0xbf1386c7	-0.5762753
165	0xbdd56157	-0.10418957
166	0xbe2b31d9	-0.16718234
167	0xbe719111	-0.23590495
168	0x3e579fcc	0.21057051
169	0x3d8aa2e6	0.06769352
170	0x3df3117b	0.118685685
171	0xbd7626fa	-0.060095765
172	0x3caf96eb	0.021434268
173	0x3d61d4e7	0.05513468
174	0xbed23c1a	-0.4106148
175	0xbdb21b8a	-0.08696659
176	0xbe301feb	-0.17199676
177	0x3eaef3a2	0.34170252
178	0x3d6bf039	0.05760214
179	0x3de467ca	0.11152609
180	0xbf1d7a79	-0.61515003
181	0x3d83b93d	0.06431816
182	0x3e846577	0.25858662
183	0x3e4f5020	0.20245409
184	0xbea37a7d	-0.3192939
185	0x3cc7bdbb	0.024382463
186	0xbc6c2d0f	-0.01441504
187	0x3dc14ee2	0.09438874
188	0xbd77b3f3	-0.060474347
189	0xbeb92ea1	-0.36168388
190	0x3c8b5c6a	0.01701184
191	0xbd86f602	-0.06589891
192	0xbc849b64	-0.016187377
193	0x3dee46ac	0.11634573
194	0xbe82469f	-0.25444505
195	0x3df0c62f	0.117565505
196	0xbe9a49ec	-0.30134523
197	0x3eb5b1ea	0.354873
198	0x3e4c70ad	0.19964857
199	0xbf8f38da	-1.1189225
200	0x3e13019f	0.14356087
201	0x3c50b489	0.012738355
202	0xbd95fff8	-0.07324213
203	0xbde087f7	-0.10963433
204	0xbea30c0e	-0.31845134
205	0xbeaf8b7c	-0.34286106
206	0x3d46364a	0.048391618
207	0xbf8fc101	-1.1230775
208	0x3c540bf6	0.012942305
209	0x3d98281f	0.074295275
210	0xbca3dfbd	-0.020004148
211	0x3d4f8470	0.05066341
212	0x3d31f547	0.043446805
213	0xbbbd8a5c	-0.005784316
214	0xbf3434bb	-0.7039296
215	0x3d62361f	0.055227395
216	0xbf8853b4	-1.0650544
217	0xbd89d021	-0.067291506
218	0x3b09951b	0.0020993415
219	0x3dd38d9a	0.10329743
220	0xbe7db320	-0.24775362
221	0xbf02ff2c	-0.5117061
222	0xbf205ae1	-0.6263867
223	0xbe0f42bd	-0.13990302
224	0xbdb6d422	-0.0892718
225	0xbe3d7e5e	-0.18505237
226	0x3d83bd08	0.06432539
227	0xbe51e91d	-0.20499082
228	0x3ee6c2e7	0.45070574
229	0x3e19b1ec	0.15009278
230	0xbde73736	-0.112898275
231	0xbf212213	-0.6294262
232	0x3dee6af8	0.116414964
233	0xbd7ff032	-0.062484927
234	0xbe3cf605	-0.18453224
235	0xbec72d15	-0.38901582
236	0x3d7a12d0	0.061053097
237	0xbeac2363	-0.33620748
238	0x3e37d6fe	0.17953107
239	0x3d8a0c93	0.067406796
240	0xbd5bda30	-0.053674877
241	0x3e5ee0f9	0.21765508
242	0x3d88bd6d	0.06676755
243	0x3c65aaf7	0.014017812
244	0x3cc3997b	0.023876896
245	0xbf09f32d	-0.5388668
246	0xbe690af8	-0.2275809
247	0xbe8f3c2e	-0.279756
248	0xbeb8e90e	-0.36115307
249	0x3df46437	0.11933177
250	0x3e9317ba	0.2872904
251	0xbf0735d2	-0.528165
252	0x3deee220	0.11664224
253	0xbef1c639	-0.47221544
254	0x3d21df6c	0.039519712
255	0xbe760f41	-0.24029256

fc2.bias f4 [100]
0	0xbd1944fb	-0.0374193
1	0x3dbe7080	0.092988014
2	0x3d499587	0.049214866
3	0xbe91246b	-0.28348097
4	0xbeae9f45	-0.34105888
5	0x3f0053bd	0.50127774
6	0x3e4c22d2	0.19935158
7	0xbcc52f02	-0.024070267
8	0xbe2684c0	-0.16261578
9	0xbe4ba447	-0.19886886
10	0x3cc888a4	0.024479218
11	0xbd0052fd	-0.031329144
12	0xbe469ec9	-0.19396509
13	0xbe41300f	-0.18865989
14	0xbb88c316	-0.0041736467
15	0x3da7f873	0.08201685
16	0x3e452983	0.19254117
17	0xbda87bd9	-0.08226747
18	0xbd39a1a1	-0.045320157
19	0x3eaeca0e	0.3413853
20	0xbbfc072a	-0.0076912837
21	0xbd9213ba	-0.07132669
22	0xbe03c511	-0.12868144
23	0xbd4ed388	-0.0504947
24	0xbc70c762	-0.014695974
25	0x3e139c52	0.144151
26	0x3e3edc7e	0.18638799
27	0x3df4a873	0.11946192
28	0xbe3caeb0	-0.18426013
29	0x3e34c31c	0.17652553
30	0xbf2df749	-0.6795545
31	0xbd9272d1	-0.07150806
32	0xbd7f8c0a	-0.06238941
33	0x3e168e60	0.14702749
34	0xbd65ed05	-0.056134243
35	0x3e4e7fe4	0.20165974
36	0xbec0cb75	-0.37655225
37	0x3c4448d0	0.0119802505
38	0x3ce10e08	0.027472511
39	0xbc7bcbac	-0.015368383
40	0xbcbdfd1c	-0.023191981
41	0xbed32676	-0.4124028
42	0x3e52ce94	0.20586616
43	0x3e62fb53	0.22166185
44	0xbe621811	-0.22079493
45	0xbdec5136	-0.11538927
46	0xbe035a17	-0.12827335
47	0xbe9de19a	-0.30836183
48	0xbe8f2315	-0.27956453
49	0xbd391440	-0.045185328
50	0xbd88de9d	-0.06683085
51	0x3da14d23	0.07876041
52	0x3dd081f7	0.10181039
53	0x3e05f2b7	0.1308087
54	0x3c85439d	0.016267592
55	0xbe044ec6	-0.12920675
56	0xbd6e3579	-0.058156464
57	0x3e859e1e	0.26097196
58	0xbcbc496b	-0.022984227
59	0x3d91676e	0.07099806
60	0xbe7327bd	-0.23745628
61	0xbea1a54a	-0.31571418
62	0x3c2fda0f	0.010733142
63	0xbe3478ab	-0.17624156
64	0x3e9ca6d2	0.30596024
65	0x3e36464a	0.1780025
66	0x3e67d178	0.226385
67	0x3e68e196	0.22742304
68	0x3e922bfc	0.28549182
69	0xbd922b46	-0.0713716
70	0x3ca0b07a	0.0196154
71	0xbd02697a	-0.03183887
72	0x3d086eef	0.03330892
73	0x3e730cfc	0.23735422
74	0xbe293cff	-0.16527174
75	0xbdbb7a0b	-0.09154137
76	0x3de6ec43	0.11275532
77	0xbe05aa2e	-0.130532
78	0xbe1f6de2	-0.1556926
79	0x3d54aa1d	0.051920045
80	0xbd6321e6	-0.05545225
81	0xbd325675	-0.043539483
82	0xbd37fd42	-0.04491926
83	0xbe9403b1	-0.28909066
84	0x3c1e938c	0.009678733
85	0x3ba4e9df	0.0050327624
86	0x3e76ec85	0.24113663
87	0xbeb21205	-0.34779373
88	0xbdceeda3	-0.10103919
89	0xbdc98676	-0.098400995
90	0xbeafc815	-0.34332338
91	0xbe04f94e	-0.12985727
92	0xbdae0dfc	-0.08498761
93	0x3cf9e15f	0.030502973
94	0xbdc06cc6	-0.09395747
95	0x3db996fd	0.09062002
96	0x3d66daad	0.05636089
97	0xbdbf2a6b	-0.093342625
98	0xbe09522b	-0.13410251
99	0xbd691cce	-0.056912236

fc3.weight f4 [50, 100]
0	0xbc5ac7fb	-0.013353343
1	0x3d2a2afd	0.041544903
2	0x3ca71cc2	0.020399455
3	0xbea3af0a	-0.31969482
4	0x3de6e3d6	0.11273925
5	0x3de03f53	0.10949578
6	0xbaecb5d9	-0.0018059566
7	0xbd9d7415	-0.076881565
8	0xbcda237b	-0.026628247
9	0x3e3c09f2	0.18363169
10	0xbd01b3c0	-0.031665564
11	0xbc9765e4	-0.018481202
12	0xbd2a1685	-0.041525383
13	0xbb8bb056	-0.0042629642
14	0xbc31e9cc	-0.010858964
15	0x3e9cfd93	0.30662212
16	0xbf055fef	-0.5209951
17	0xbe9baf8c	-0.3040737
18	0xbe1c10dc	-0.15240806
19	0xbe39c2c7	-0.18140708
20	0xbed31d02	-0.4123307
21	0x3dd94780	0.10609341
22	0x3d3e1e1f	0.046415444
23	0x3e0a0fdc	0.13482612
24	0xbda403dc	-0.080085486
25	0x3dec16cd	0.115277864
26	0x3d929424	0.07157162
27	0xba1e31c6	-0.00060346385
28	0xbce441f5	-0.027863482
29	0x3da37954	0.07982126
30	0xbe3e929e	-0.18610618
31	0xbdff16f7	-0.12455552
32	0xbec02236	-0.375261
33	0xbf156a81	-0.5836564
34	0x3de846eb	0.113416515
35	0xbe1402e0	-0.14454222
36	0xbdef24a8	-0.116769135
37	0x3e1ce1f1	0.15320565
38	0xbef5b0a8	-0.4798634
39	0xbd6abeea	-0.057310976
40	0xbe8e3972	-0.27778202
41	0xbd3df5c0	-0.046376944
42	0x3ea9ba42	0.33149916
43	0xbe8a9713	-0.27068385
44	0xbe148e49	-0.14507402
45	0xbd8341b7	-0.064090185
46	0xbdeec2c9	-0.11658246
47	0xbd0e3f8e	-0.03472858
48	0xbebfea7b	-0.37483582
49	0xbe143198	-0.14472044
50	0xbdc810fe	-0.09768866
51	0xbf047cee	-0.5175313
52	0x3d320c18	0.043468565
53	0xbd14e588	-0.03635171
54	0x3ee7a572	0.45243412
55	0x3aeb7530	0.0017964002
56	0xbf840602	-1.0314333
57	0x3d9e4b5a	0.07729216
58	0x3d912642	0.07087375
59	0xbd006e76	-0.031355344
60	0x3eaf8e09	0.34288052
61	0xbe58b74a	-0.21163669
62	0xbd667e63	-0.056272876
63	0xbeaec8dc	-0.3413762
64	0x3d236720	0.03989327
65	0x3ea0683f	0.31329533
66	0xbf293e20	-0.6611042
67	0x3e0b5bd9	0.13609256
68	0x3d903123	0.07040622
69	0xbd4b547f	-0.04964113
70	0xbe9d44f3	-0.30716667
71	0x3cabc581	0.0209682
72	0xbe625d10	-0.22105813
73	0x3dd516ae	0.104047164
74	0xbea5f94b	-0.32416758
75	0x3d26eab6	0.04075118
76	0xbdf22e1a	-0.118251994
77	0xbf45a056	-0.7719778
78	0x3d09f3cf	0.03367978
79	0x3e30beca	0.1726028
80	0x3c03bc3c	0.008040484
81	0x3dae373b	0.08506628
82	0xbfa89819	-1.3171417
83	0xbeab94e4	-0.33512032
84	0x3d617f24	0.05505289
85	0x3dd2e32a	0.10297234
86	0x3d26872d	0.040656257
87	0xbd242789	-0.040076766
88	0x3e5b3829	0.21408142
89	0x3dc05fb0	0.09393251
90	0xbdf6f30d	-0.12058077
91	0xbed44db5	-0.41465536
92	0xbdab4737	-0.083631925
93	0x3def446e	0.11682974
94	0xbecce9db	-0.40022168
95	0xbacfc3b4	-0.0015851171
96	0xbe0528cf	-0.13003848
97	0xbe7a78da	-0.24460164
98	0x3c58d38d	0.013234031
99	0x3dcca34e	0.099920854
100	0x3d73844c	0.05945234
101	0xbbbb6a3b	-0.005719451
102	0xbd1dc534	-0.038518146
103	0x3dfcc45b	0.12342139
104	0xbe1e44f6	-0.15455994
105	0x3c811469	0.015756803
106	0x3e939c57	0.28830215
107	0x3cb30f2f	0.021857826
108	0x3d896fdf	0.06710791
109	0x3e295c2b	0.16539066
110	0x3d1aa88d	0.0377584
111	0xbd2d5b54	-0.042323425
112	0xbe1540d4	-0.14575511
113	0xbd5154de	-0.051106326
114	0xbd85e678	-0.06538099
115	0xbe7aeb78	-0.24503887
116	0x3e37b37c	0.17939562
117	0xbd96ce91	-0.07363618
118	0xbe7f986c	-0.24960488
119	0xbe604afe	-0.21903607
120	0x3ddaa48a	0.106759146
121	0xbb76ebbb	-0.0037677127
122	0xbeb3cfdb	-0.3511952
123	0xbc750502	-0.014954807
124	0x3cf82080	0.030288935
125	0x3e423a0d	0.18967457
126	0xbde54b30	-0.111959815
127	0xbd51ed34	-0.051251605
128	0xbd86e1d3	-0.06586041
129	0x3c9fb0d2	0.019493494
130	0xbd68d47a	-0.05684326
131	0xbef30114	-0.4746176
132	0xbdd5eb2a	-0.104452446
133	0xbdcf3d31	-0.10119093
134	0x3cdc1ced	0.026869262
135	0x3e41bb75	0.18919165
136	0xbd574e96	-0.05256518
137	0xbd7efd20	-0.062253118
138	0x3df04cbc	0.11733386
139	0xbec8926c	-0.3917421
140	0xbd1fde63	-0.039030444
141	0x3cf47ba0	0.029844105
142	0xbead3449	-0.33828953
143	0xbec812ed	-0.3907694
144	0x3e2c4cfc	0.16826242
145	0x3e81b98e	0.2533688
146	0xbe6f946a	-0.23396459
147	0x3ddf5734	0.109053046
148	0x3cc37ed8	0.023864195
149	0x3bd94bb8	0.006631341
150	0x3d70612e	0.058686428
151	0x3e94d529	0.29068878
152	0xbc4b36df	-0.012403219
153	0xbda8a87e	-0.08235262
154	0xbd8423b1	-0.0645212
155	0xbc99b1f1	-0.018761607
156	0xbcdfbb7e	-0.027311083
157	0xbe0c5f3e	-0.13708207
158	0xbdeb9622	-0.11503245
159	0xbca9d098	-0.020729348
160	0xbebd4b2b	-0.3697141
161	0xbe5c4e7e	-0.21514317
162	0xbda4c4d6	-0.08045356
163	0x3e3be53d	0.18349166
164	0xbf0e556a	-0.5559908
165	0xbdee3465	-0.11631087
166	0xbdcadd58	-0.09905499
167	0xbe418031	-0.18896557
168	0x3da554c7	0.080728106
169	0x3e669898	0.22519147
170	0xbe4d1779	-0.20028485
171	0xbeb7e07b	-0.35913453
172	0x3b56a7d5	0.0032753844
173	0xbb869d6f	-0.004108123
174	0xbec6ec80	-0.3885231
175	0x3d1f7bfc	0.0389366
176	0xbdefa71a	-0.11701794
177	0xbdb73f91	-0.08947671
178	0x3d920b97	0.07131117
179	0xbe249a41	-0.16074468
180	0xbd9bba5f	-0.07603907
181	0x3d4f15b7	0.05055782
182	0xbddd2175	-0.10797397
183	0x3d390b1d	0.045176614
184	0xbbe858ed	-0.007090679
185	0xbcde8fa1	-0.027168097
186	0x3e50e3fc	0.20399469
187	0xbe02b6b3	-0.12765007
188	0xbf27f74f	-0.6561174
189	0x3d8d4657	0.06898182
190	0xbd7fa927	-0.062417176
191	0x3d9dc9ce	0.07704507
192	0xbd8bd6c8	-0.06828076
193	0x3d3973ca	0.04527644
194	0xbc6b25c2	-0.014352264
195	0xbddec214	-0.10876861
196	0xbd813e1f	-0.06310677
197	0x3d9d33dc	0.07675907
198	0xbae7e14e	-0.0017691047
199	0x3e075ca6	0.13218936
200	0xbcf5ae60	-0.029990375
201	0x3ddfbe78	0.10925001
202	0xbd55a0bf	-0.052155253
203	0xbdada810	-0.08479321
204	0x3c961e32	0.018324945
205	0xbdd8c248	-0.10583931
206	0x3ce17c5a	0.027525116
207	0xbc4ce6f1	-0.012506233
208	0x3d246414	0.040134504
209	0xbe3b3f67	-0.18285905
210	0x3cd5aec7	0.026084317
211	0xbd3926d3	-0.04520304
212	0xbda5c91d	-0.08095
213	0x3d6d0a64	0.057871237
214	0xbcbe42e8	-0.023225263
215	0x3cdff091	0.02733639
216	0x3da6d54a	0.081461504
217	0xbdfa13fd	-0.12210844
218	0xbe85a1dc	-0.2610005
219	0xbd5c0771	-0.053718034
220	0x3d3e9486	0.04652836
221	0x3e032de8	0.1281048
222	0x3d9142d8	0.070928276
223	0x3dc3ab94	0.0955421
224	0x3b8c5637	0.0042827385
225	0xbe7646ef	-0.24050497
226	0xbe328ff4	-0.17437726
227	0x3dfe737e	0.12424372
228	0x3c495181	0.012287498
229	0x3e3dd54c	0.18538398
230	0x3e0d62df	0.13807248
231	0xbe17b4f1	-0.14815117
232	0xbcac1378	-0.021005377
233	0x3e41f99d	0.18942876
234	0xbb59ec49	-0.003325241
235	0x3e01502b	0.12628238
236	0xbd0ccb33	-0.034373473
237	0xbe202ca4	-0.15642029
238	0x3e2361b8	0.15955245
239	0x3e37b134	0.17938691
240	0xbe98975e	-0.29802984
241	0xbe0572c9	-0.13032068
242	0x3ed2c71a	0.41167527
243	0x3eae0471	0.33987764
244	0xbded737a	-0.11594291
245	0xbeab23de	-0.33425802
246	0x3daf3084	0.085541755
247	0x3d023038	0.031784266
248	0xbda78dfc	-0.08181378
249	0x3cfb27cd	0.030658627
250	0x3c9d7aff	0.019223688
251	0xbcd87c9d	-0.026426608
252	0xbe318a3f	-0.17337893
253	0xbea8c035	-0.32959142
254	0xbcc69eb2	-0.024245594
255	0xbd5c63ba	-0.053806044

fc3.bias f4 [50]
0	0x3db99b40	0.09062815
1	0xbf1cc650	-0.612401
2	0x3f0fd2bb	0.56180924
3	0x3da8b604	0.08237842
4	0x3e8038ea	0.25043422
5	0x3ec7b052	0.3900171
6	0x3e767213	0.24066953
7	0xbe9dedde	-0.3084554
8	0xbe0e1ae3	-0.13877444
9	0x3daa0e87	0.08303552
10	0x3e9c1e37	0.30491802
11	0x3e77f614	0.24214965
12	0xbd15ed65	-0.03660335
13	0x3df8fa7b	0.1215715
14	0x3eaa173e	0.33220857
15	0xbf1b2673	-0.60605544
16	0x3e428ee9	0.18999828
17	0xbe805d3b	-0.2507113
18	0xbdda9cc4	-0.10674432
19	0xbe5fd43b	-0.21858303
20	0x3ea35c22	0.3190623
21	0x3efbeb83	0.4920312
22	0x3f228966	0.63490903
23	0xbe2bdf09	-0.167843
24	0xbe0b0739	-0.13576974
25	0xbe92f7ed	-0.28704777
26	0x3e944c8c	0.2896465
27	0x3eddb1ce	0.43299717
28	0x3ee4802b	0.44629034
29	0xbe269f04	-0.16271597
30	0xbf28468c	-0.65732646
31	0xbd4af1b7	-0.049546923
32	0x3e34e445	0.17665203
33	0x3d96a6f5	0.07356063
34	0xbcada0bd	-0.02119481
35	0xbedd3c4a	-0.4321006
36	0x3e40fd2f	0.18846582
37	0xbe1b5e44	-0.15172678
38	0x3e1df52b	0.15425555
39	0xbd55e78d	-0.052222777
40	0x3ea13197	0.31483147
41	0xbe78f0ce	-0.2431061
42	0xbda1feac	-0.07909903
43	0xbb561a82	-0.0032669608
44	0xbe798349	-0.24366488
45	0x3ec7e262	0.39039904
46	0x3e8b4b2a	0.27205783
47	0xbd121a46	-0.035669588
48	0xbe81d26f	-0.2535586
49	0x3ecf3453	0.40469608

fc4.weight f4 [1, 50]
0	0x3cb894fe	0.022531983
1	0x3c94b38d	0.018152023
2	0xbc5cfd6b	-0.013488154
3	0xbcb350d5	-0.02188913
4	0x3c243768	0.0100229755
5	0x3d3afe1d	0.045652498
6	0x3c7eb4f7	0.015546075
7	0xbc93ed8d	-0.018057609
8	0xbc88ce66	-0.016699981
9	0xbcf968fc	-0.030445568
10	0x3c417ea7	0.011809981
11	0x3cdf4294	0.027253427
12	0xbcd5b63f	-0.026087878
13	0xbc23abf3	-0.009989726
14	0xbc672b66	-0.014109468
15	0x3c4962a0	0.01229158
16	0x3cf86fc1	0.030326726
17	0x3c844f5c	0.016151123
18	0xbc4009b8	-0.011721067
19	0xbc829cd3	-0.01594392
20	0x3c831d2a	0.016005117
21	0x3c970362	0.01843423
22	0x3cad8707	0.02118255
23	0x3d3b8375	0.045779664
24	0x3c537c1c	0.012908008
25	0xbd5cd146	-0.053910516
26	0x3c1296c5	0.008947079
27	0x3c95cbef	0.01828572
28	0xbc8899d6	-0.016674917
29	0xbcd884d8	-0.026430532
30	0xbc451efc	-0.012031313
31	0xbd7edc65	-0.062221903
32	0x3bfabc3a	0.007651833
33	0xbcdb79fd	-0.026791567
34	0x3c4a2d15	0.01233985
35	0x3c51d7e1	0.012807817
36	0x3ca8578f	0.020549564
37	0x3b343bab	0.0027501385
38	0x3c2f0b9f	0.010683923
39	0x3cbc0c2d	0.022955025
40	0xbcadd19e	-0.021218117
41	0xbdb18e69	-0.08669741
42	0x3d97096e	0.073748454
43	0x3ca8106e	0.020515647
44	0xbd0761f2	-0.033052392
45	0x3c8732ca	0.01650371
46	0x3cd37270	0.025811404
47	0xbc3e3a83	-0.01161063
48	0xbc45a292	-0.012062686
49	0xbc513938	-0.01276999
