Results/BS_256_EP_2000_TMAX_1000_NOISE_0.01/last_checkpoint_actor.pth (torch_old, 72217 bytes, 8 tensors)

fc1.weight f4 [100, 24]
000000 5d b4 14 bd d5 3f a7 3d 19 30 4c be 3f 1a 47 be
       -0.03630482 0.08166472 -0.19940223 -0.19443606
000010 9d 68 05 be 6d 16 14 3e f0 2e 11 bd 7b ea f0 3d
       -0.13028188 0.1446168 -0.035445154 0.117634736
000020 a5 c4 a8 bd d0 ed 8c bc 4f a9 53 bd d9 80 5b bd
       -0.08240632 -0.017203242 -0.051675137 -0.053589676
000030 e3 74 98 be 6f 20 74 bd ec d1 97 bd f3 7a c1 bb
       -0.29776677 -0.059601244 -0.07413086 -0.0059045493
000040 e4 04 16 3d 50 4b 85 3d fd 0e 0c be da 12 c8 bc
       0.036625758 0.06508505 -0.13677593 -0.024423052
000050 b9 5b f0 3c a3 0b 32 3e 21 7c 25 bd dc 6d 5e 3e
       0.029340612 0.17387252 -0.04040158 0.21721596
000060 e4 fc da 3c aa 98 99 bd d0 e6 1a 3e 39 6e 80 be
       0.026731916 -0.074998215 0.1512711 -0.25084093
000070 0b b7 1d be b5 94 20 be 99 b0 e7 bd 05 47 eb 3d
       -0.15401857 -0.15681727 -0.1131298 0.11488155
000080 57 54 da bd f9 21 84 be d0 b9 f4 bd f9 15 87 be
       -0.10660618 -0.2580717 -0.119495034 -0.2638395
000090 01 fc 85 be 77 77 10 3e e7 e0 e9 3d 66 30 d7 3c
       -0.26168826 0.14108072 0.1141985 0.026268195
0000a0 eb ab 53 3d 9f 84 82 be 79 b4 2f 3c 5b 03 ad be
       0.051677626 -0.25491807 0.01072418 -0.33791623
0000b0 f1 cf a8 be df ae 0b be 39 ff d6 3d b0 7a e2 bc
       -0.32971147 -0.13640927 0.104978986 -0.027646393
0000c0 86 30 56 be 48 df 15 be 83 7b b8 3d 6f ea 96 3e
       -0.20916948 -0.14635956 0.09007933 0.29475734
0000d0 d3 58 35 3e ac e5 bc 3d 0f 6a c5 3d 1c 4f e8 bc
       0.17709665 0.09223494 0.0963937 -0.028358035
0000e0 67 1d c8 3c 48 70 f3 bd 2d 0a 1d be b6 ef 50 3d
       0.024428083 -0.1188665 -0.15335913 0.051009856
0000f0 69 50 3e 3e b7 95 33 bd fa fb 07 be 96 5c 5f 3e
       0.18585362 -0.04384395 -0.13279715 0.21812662
000100 04 c1 04 3e b8 5c a3 3d 77 fe f4 bb 9a fd 6a 3e
       0.12964255 0.07976669 -0.0074766236 0.22948304
000110 c5 98 4a 3e 49 5e af bd 87 b6 30 be c2 ea db 3d
       0.1978484 -0.08562905 -0.17257129 0.10738136
000120 00 f8 06 3e b2 53 95 3e 2f 8a 22 3e 66 98 58 3e
       0.13180542 0.29165417 0.15873025 0.21151885
000130 13 37 77 3e 0b f6 d8 be 72 73 00 b9 7e 34 c5 bd
       0.24142103 -0.42375216 -0.00012250038 -0.09629153
000140 93 77 44 be 3b a9 66 3e 54 c1 b9 3d 26 30 48 be
       -0.19186239 0.22525494 0.090700775 -0.19549617
000150 78 04 40 3e a4 6d f1 bd f7 e6 c8 bd d3 ba ae bd
       0.18751705 -0.117884904 -0.09809678 -0.08531728
000160 21 b8 12 3d 49 1b 2f be 9d b2 b4 3d 45 8b bd bb
       0.03582013 -0.17100252 0.0882313 -0.0057844245
000170 b6 47 61 3e 55 29 7f 3e ba 27 41 be 7c 38 77 be
       0.22000012 0.2491811 -0.1886281 -0.24142641
000180 5a ad b2 3c e6 97 4c 3e fc 69 39 be e9 78 2c be
       0.021811176 0.1997982 -0.18106836 -0.16842999
000190 2e 60 47 3c 2f 63 08 3e 79 fe e2 bd 29 70 d1 bd
       0.012168927 0.13319086 -0.11083693 -0.10226471
0001a0 a7 7d 94 be e5 2b 9a 3d 89 b0 72 bd d6 3e 85 be
       -0.29002115 0.075279035 -0.05925039 -0.26024503
0001b0 0f 45 b7 bd 65 ea 55 3c 2c 20 32 3c c6 22 96 3c
       -0.08948719 0.013056372 0.010871928 0.018327128
0001c0 ec 5e 5e be 55 64 39 3e 10 d3 46 3e b5 1a 72 be
       -0.21715897 0.1810468 0.19416451 -0.23643
0001d0 a1 26 b5 3b b9 6a 9d bd f0 27 ac 3d 36 1a 82 bc
       0.0055282866 -0.07686371 0.08406055 -0.015881639
0001e0 40 06 db 3d bc 8a 8f bd 3e 3b cc bd b4 ff 9a 3d
       0.106945515 -0.07008883 -0.09972237 0.07568303
0001f0 aa 70 67 be 68 13 3f bd 87 ce 51 bd 7d 73 f6 bd
       -0.22601572 -0.046649367 -0.05122235 -0.120337464
000200 a2 10 3e bd 56 75 80 be d7 2a 3d bd 4e 59 e9 3c
       -0.04640258 -0.2508952 -0.046183433 0.028484967
000210 78 58 11 be f3 b4 e5 3d 02 cd 12 3e 31 ff 13 bd
       -0.14193904 0.11216154 0.14336017 -0.03613204
000220 a2 25 fe 3c a3 fe a4 bd 7c 31 32 3d de 54 5e 3e
       0.031023804 -0.080563806 0.043504223 0.21712062
000230 87 43 4a 3e f6 8f a3 3e 41 b2 48 3e fe 9d 94 3d
       0.19752322 0.3194577 0.19599248 0.07256697
000240 21 59 5d be 21 66 62 be 1a 81 3d 3e 76 3f 73 bc
       -0.21616031 -0.22109272 0.1850628 -0.014846673
000250 3f 5e 31 be 75 b4 85 be 7c 6f 14 be 07 44 3e be
       -0.17321108 -0.2611424 -0.14495653 -0.18580638
000260 a2 89 06 be 86 82 74 bd 05 4d 76 3d 35 9a 50 be
       -0.1313844 -0.05969479 0.060132045 -0.20371325
000270 e5 24 eb 3d df a8 85 be b4 3d bf bd 38 88 b7 bd
       0.114816464 -0.261054 -0.09337941 -0.089615285
000280 c3 2d 9d bd 9d 2d 24 be 21 eb 25 be 80 3a 50 be
       -0.07674744 -0.16033025 -0.16202976 -0.20334816
000290 90 17 2f 3d 6f e5 2b be 00 9c 92 bd 67 f7 4b 3d
       0.04274708 -0.1678674 -0.07158661 0.049796488
0002a0 ae a5 54 be 91 76 e6 3d ac 82 45 3e b5 d9 3e bc
       -0.20766327 0.112530835 0.19288129 -0.011648585
0002b0 ba 24 43 3e e8 22 d7 3d 9b f1 2e be 12 94 4d 3e
       0.19056979 0.10504705 -0.17084353 0.20076016
0002c0 2a 67 98 bd 75 75 54 bb 87 62 2a 3e bb bd 31 be
       -0.07441552 -0.0032418643 0.16639148 -0.17357533
0002d0 98 fe 72 3c e1 d3 ad bc 41 81 18 3e c0 13 46 3d
       0.014831208 -0.021219196 0.14893056 0.04835868
0002e0 9d 40 a2 3d e9 bf 06 3e 2c 2a 3c bd 58 8c ea bd
       0.0792248 0.13159145 -0.045938656 -0.1145255
0002f0 28 a7 10 be cb df 4f 3d a5 2e 29 3e 96 67 8b 3d
       -0.14126265 0.050750535 0.165217 0.06806867
000300 3d ef fa bd ed 1d 8a 3e 17 dc a5 bd 00 9f 8b bc
       -0.12252662 0.26975957 -0.080986194 -0.01704359
000310 93 e5 94 be d4 4e 37 3e 11 91 70 bd 8d 1a ba 3d
       -0.290814 0.17901164 -0.058732096 0.090870954
000320 e4 b8 04 3c d5 51 c1 3e 72 5d 02 be 0d ce dc bd
       0.008100722 0.37757745 -0.12730959 -0.107814886
000330 58 4f 65 be 49 8d 81 3e d8 fd 3d bd cd 66 51 3e
       -0.22393548 0.25303105 -0.046384662 0.20449372
000340 c6 70 9a 3d 7b f1 98 3e 2c 40 59 3d c9 73 b3 bb
       0.07541041 0.29871735 0.053039715 -0.005476449
000350 95 25 95 3c 99 4a ad 3c 89 99 59 3d 2f 87 79 3d
       0.018206397 0.021153735 0.05312494 0.060919937
000360 fd 74 19 be 50 4f 69 bb da f9 31 3e 31 79 d8 bd
       -0.14986034 -0.0035600252 0.17380467 -0.105699904
000370 de 8d db bd d8 d7 68 3e 75 65 a9 3d be a0 86 3d
       -0.107204184 0.22738588 0.082713045 0.06573628
000380 dd 73 3e be cc 26 61 3e 27 91 07 be 33 12 96 3c
       -0.18598886 0.21987456 -0.13238965 0.018319225
000390 62 69 fa bd 64 49 9c bd 42 9e 79 3c 28 7f 7a 3e
       -0.122271314 -0.07631186 0.0152354855 0.24462569
0003a0 24 9a b2 3c e6 74 8d 3e 13 cf f4 3d 36 77 ec bd
       0.021802016 0.2762825 0.11953559 -0.11546175
0003b0 1d 55 e3 3d ab b5 b7 be cd 17 bc bd 81 c9 96 3d
       0.111002184 -0.3588079 -0.09184227 0.073626526
0003c0 97 db aa bc 76 88 22 3e cf 0f b6 bd 38 16 1d bd
       -0.020856662 0.15872368 -0.08889734 -0.038351268
0003d0 c1 6b a2 3d 2e 3c b4 be 9a c0 fe 3d 5b 73 54 be
       0.07930709 -0.35202163 0.124390796 -0.2074713
0003e0 d8 ab 43 bd e0 23 3f bd 29 b7 cc bd 08 c2 af bd
       -0.047771305 -0.046665072 -0.099958725 -0.085819304
0003f0 f8 31 90 3e cf 75 73 be b4 bb e8 bd 44 cf 40 be
       0.28163123 -0.23775409 -0.113639265 -0.18829066

fc1.bias f4 [100]
000000 a6 05 4e 3e 1e b2 19 3d 6b 2e 35 be 81 66 0e 3e
       0.20119342 0.03752338 -0.17693488 0.1390629
000010 67 1c 25 3d 46 a7 bd 3c bb fc ce bd 58 eb 4d be
       0.04031029 0.023151051 -0.10106798 -0.20109308
000020 12 c0 04 be a1 ff 3e bd ee 6a d4 bd e8 56 39 3e
       -0.12963894 -0.046630505 -0.10371958 0.18099558
000030 3d 36 5c bd 0a 58 9f bd 57 fb 82 3d 8b b2 52 be
       -0.053762663 -0.07780464 0.063955955 -0.20575921
000040 f8 45 0e be ff 1f 90 3d 35 6a 55 be 59 bd b5 3d
       -0.13893878 0.07037353 -0.20841296 0.08874006
000050 6c 3f 21 bb 78 ef 05 be cf 9b 05 be bb b5 cf 3d
       -0.0024604453 -0.13079631 -0.13047718 0.10142084
000060 1d 0c 46 3d 86 0f 19 bd 1b c2 68 be 2c 1f 22 be
       0.048351396 -0.03736832 -0.22730295 -0.15832204
000070 92 2d 2b bc 24 79 87 3a 40 81 d1 3d ed 67 71 3d
       -0.0104478765 0.0010335785 0.102297306 0.058937002
000080 82 40 2f bd 60 fd bb 3d c3 17 37 3e 86 a3 38 3e
       -0.04278613 0.09179187 0.17880158 0.18031129
000090 77 6b 19 3e 41 d6 06 be de 37 29 bd a7 ea 87 3c
       0.14982401 -0.13167669 -0.041313045 0.016591383
0000a0 3e f1 da 3d 27 31 b8 3d 50 6a 2b bd 97 4f 29 be
       0.106905445 0.0899375 -0.041849434 -0.16534267
0000b0 cf d6 29 be 9b 8a 3c 3e 37 ef 8e bc 78 ab 26 3d
       -0.16585849 0.18412249 -0.01744805 0.04069087
0000c0 5b 16 f9 bd cb 7a 26 bd 70 42 a3 3d b1 d2 14 3e
       -0.12162467 -0.04064445 0.07971656 0.14533497
0000d0 8e 38 cd bc 89 63 aa bd 55 91 16 3e 80 7d dc bd
       -0.025051381 -0.08319766 0.14703877 -0.10766125
0000e0 ef bb 0f be 20 65 ed bc 51 b6 69 3e fe 7b b2 3c
       -0.14036535 -0.028978884 0.22823454 0.02178764
0000f0 9a df 71 bc eb c5 92 3c 9f 2a f2 3d c5 5c c9 bd
       -0.014762783 0.01791664 0.118245356 -0.098321475
000100 d5 44 63 3e 25 c3 92 3d 76 20 90 3b 8d 0b 87 3c
       0.22194226 0.07166127 0.004398401 0.016485
000110 25 3a 17 be dd 65 47 3e 0a 80 3e 3d 6b 10 8c bd
       -0.14768274 0.19472452 0.046508826 -0.06839069
000120 94 11 5a be be be 01 bd cf 90 a5 3d 84 8d f3 bd
       -0.21295768 -0.031676047 0.08084261 -0.11892226
000130 51 14 39 3e 4e 12 ce bd 47 57 1b be 74 e0 23 3d
       0.18074156 -0.10062085 -0.15170012 0.040008977
000140 8c ba 1d be c7 fa bf bc 9f 7c b7 bd 83 7a b5 bc
       -0.15403193 -0.02343501 -0.089593165 -0.022153145
000150 86 97 3a be 58 8c 57 be 52 fc c8 3c fa e8 c7 bc
       -0.18221864 -0.2104963 0.024534378 -0.024403084
000160 e0 6d 0c be 94 9f 81 3a f3 13 71 bd 3b 96 21 3d
       -0.13713789 0.0009889477 -0.058856916 0.03944991
000170 3b 24 27 3e 86 ee 56 3e 04 ed 02 be 4c 96 cf 3a
       0.16322415 0.20989427 -0.12785727 0.0015837639
000180 02 f2 e5 3d 1f ba 6b 3e 4f 21 2d be 11 c0 a9 3d
       0.112278 0.23020218 -0.16907237 0.08288587

fc2.weight f4 [100, 100]
000000 a0 a4 90 3d 91 ce 81 3c 23 86 6d bd 37 11 1f 3e
       0.0706265 0.015845569 -0.05798925 0.1553391
000010 0a ec 9f bc 0f dd 44 bd b3 0a 88 bc ef 91 09 3d
       -0.019521732 -0.04806238 -0.016606664 0.03358644
000020 f4 84 1f bd b4 52 24 3d 54 ce 4b 3b ec 75 88 3d
       -0.038945153 0.040117934 0.0031098323 0.06663117
000030 fe ce 9b 3d e2 b6 4b 3d 1c f5 ae bd a6 55 4a bc
       0.0760784 0.049734958 -0.08542845 -0.012349522
000040 d9 fc e6 bc 68 6f c0 bd 36 19 ac 3d 6c 5f 0d be
       -0.028196739 -0.09396249 0.08403246 -0.13805932
000050 13 3e ad bc 3a 8e e6 3a 42 91 03 be a1 db df bd
       -0.021147763 0.0017589994 -0.1284838 -0.10930563
000060 5e 43 9d 3d 22 5b db bd 17 d3 a0 3d ba 80 ed bd
       0.07678865 -0.107107416 0.07852762 -0.11596818
000070 be be cb 3d de d7 d1 3c 25 75 cb 3c 25 21 af 3b
       0.099484906 0.025615629 0.024836132 0.0053445273
000080 76 f4 fd bb 48 90 ac 3c 4a 5d cd 3d 4e 9d 4e bc
       -0.0077500893 0.021064892 0.10027559 -0.012610747
000090 83 a2 d2 3b e1 bd aa 3d 45 81 fe bb 29 8e a5 bd
       0.0064280643 0.08336998 -0.007766875 -0.080837555
0000a0 91 d3 dc bd df e3 21 bd 00 13 7c bd 4b 24 48 bd
       -0.107825406 -0.039523955 -0.061541557 -0.048862737
0000b0 52 82 8d bd aa 7d ad bd e8 c9 be bc d2 88 2e bd
       -0.06909622 -0.08471234 -0.023289636 -0.04261095
0000c0 9e 5e 0f be 3e 1b c9 3d b0 41 14 bb bf 9c 1f 3d
       -0.14000937 0.09819649 -0.002262216 0.038967844
0000d0 a6 14 cc bd 99 c8 99 3c 75 b2 a4 3d 5c a2 24 3e
       -0.09964876 0.01877241 0.080418505 0.1607756
0000e0 61 c6 ee 3c f6 52 82 3d 09 cd 19 3d 11 63 8b bd
       0.029147329 0.0636348 0.037549052 -0.06806005
0000f0 6a 32 99 bd 93 7a d0 bd f2 29 06 3e 0f 66 2c 3d
       -0.07480319 -0.10179629 0.13101938 0.04208952
000100 77 93 b9 bd 48 46 5b 3d 64 e6 98 bd be 8d 6d 3d
       -0.0906133 0.053533822 -0.074658185 0.057996504
000110 d5 3b 4d 3d 6a 49 56 bd be cf b1 3a c6 62 51 bd
       0.05010589 -0.052316107 0.001356594 -0.05111959
000120 4e e9 a7 3d 60 82 c1 3d eb 20 65 3d 4a 1f e6 3c
       0.08198796 0.09448695 0.055939596 0.028091092
000130 d4 1d 0b be 9f 07 8d 3d 69 25 4a 3d a2 f8 18 bc
       -0.13585597 0.06886219 0.049352083 -0.009336622
000140 03 05 e4 bd 9b 24 13 3e a2 fc 17 bc 49 43 31 3d
       -0.111337684 0.14369433 -0.009276541 0.04327706
000150 4c dc c1 bd 74 5c a3 3d 6f 2c bc 3d 57 14 ec 3d
       -0.094658464 0.079766184 0.091881625 0.11527317
000160 85 a9 d6 bd c6 c3 e1 3d 04 c4 1a 3e ba e4 ca bc
       -0.10481552 0.11023669 0.15113837 -0.024767268
000170 c9 f9 5b bd 75 1d 9f 3d c5 2b c4 bb 01 4f e4 3c
       -0.05370501 0.0776929 -0.005986663 0.027869703
000180 26 14 af 3d c3 86 de 3d 0e d1 f3 3d 8a 3d fb 3c
       0.08548765 0.108655475 0.119051084 0.030668993
000190 e7 76 70 3d 2a 14 0d bd c4 ff ca bc ab 06 39 bd
       0.058707144 -0.034443058 -0.024780162 -0.045172375
0001a0 7f fb ae bc a1 8e 1e 3d 57 ab 95 3d 67 9b 03 be
       -0.021360157 0.03871024 0.07308071 -0.1285225
0001b0 6c af 8d bd 34 52 fc bd 5c 1d 2a ba c7 97 f6 3b
       -0.06918225 -0.123203665 -0.000648936 0.0075254175
0001c0 80 c2 1b be 9d f0 8a 3d a0 15 09 be 43 04 9b bd
       -0.15210915 0.067841746 -0.13387156 -0.07569172
0001d0 e4 90 92 3c 91 bd 26 be 2f e0 b1 3d af 28 02 3e
       0.017891355 -0.16283251 0.08685338 0.12710832
0001e0 6e ce ad bd 9b 09 f5 3c 77 41 26 bd db e6 bf 3c
       -0.08486639 0.029911807 -0.040589776 0.02342551
0001f0 2a 5b 58 bd e7 bd 5a be f4 cc ba 3d e4 2f 15 be
       -0.052821316 -0.21361504 0.09121123 -0.1456905
000200 ac 10 d0 bc f9 ca 49 bd 1d a3 82 bd eb 95 ce bc
       -0.025398575 -0.049265835 -0.06378768 -0.02521797
000210 27 b9 79 bd ef aa c5 3d 7f 2e 34 bd ee c8 ad bd
       -0.06096759 0.096517436 -0.043989655 -0.0848559
000220 93 82 dd bc ae de a4 3d eb d9 fe 3b 28 4d 9e 3c
       -0.027039802 0.08050285 0.0077774427 0.0193239
000230 b5 01 19 3d f1 50 af bd a7 43 04 3d 3a 6e 51 bd
       0.037355144 -0.0856036 0.03229108 -0.05113051
000240 49 a6 27 3d 57 89 7e 3d e0 96 86 3d 79 48 f6 3c
       0.040930066 0.062142696 0.06571746 0.030063855
000250 e5 9a 03 3e d8 10 01 3e 0e 58 dc 3d 71 bd 87 3d
       0.12852056 0.12604082 0.107589826 0.0662793
000260 1f 62 22 3e 4a a6 02 be 45 a2 b7 3d ef 00 a4 bc
       0.15857743 -0.12758747 0.08966497 -0.020019976
000270 ff 45 0e bd 7c a6 06 bc f3 4e 8d 3d 86 48 f5 3d
       -0.034734722 -0.008218404 0.06899824 0.119767234
000280 ee cb d6 bd 15 d5 9e 3d 1e 4f e5 3d 6a 44 07 3d
       -0.10488115 0.07755486 0.11196731 0.03302423
000290 b0 1e 8c 3c fc b3 fa 3d a0 37 f7 3b 97 a9 42 bd
       0.017104477 0.122413605 0.007544473 -0.047525015
0002a0 c5 fa 81 bb 46 a1 fc 3d 0a 97 9f 3d 36 fc 5c 3d
       -0.0039666616 0.12335448 0.0779248 0.053951465
0002b0 52 ec 15 bd 33 4d 68 3d 85 a9 00 be 74 5a 83 bc
       -0.036602326 0.056714248 -0.12564667 -0.016034342
0002c0 40 f8 e8 3d 8b 98 89 bd 71 35 47 3c d8 ef f8 3d
       0.11375475 -0.067185484 0.0121587375 0.121551216
0002d0 f3 13 59 be a2 14 3c 3e d8 23 aa bd 6f ee d7 3d
       -0.21199016 0.18367246 -0.08307618 0.105435245
0002e0 c4 30 27 bd fa e3 83 bd 35 d0 33 bd 5f 85 56 3b
       -0.04081799 -0.064399675 -0.043899734 0.0032733304
0002f0 7f 0c 08 3d cf 79 62 3d d8 e7 ff 3d ec b0 18 bd
       0.033215042 0.055291947 0.124953926 -0.0372781
000300 03 08 d4 ba 8d 4c 82 3c 03 78 11 3e aa 54 12 3d
       -0.0016176704 0.015905643 0.14205937 0.035725273
000310 e0 57 f0 3d 3e da 2c bc 53 21 f1 3d 30 36 9c bc
       0.11735511 -0.01055008 0.11773934 -0.019068807
000320 a3 75 61 bc da 34 10 3c 60 9f 5e 3c c6 bc d7 bd
       -0.013760957 0.008801663 0.013587803 -0.105340526
000330 fb 73 04 bc 98 b2 c5 3c ec 4c c7 bc f7 36 41 3d
       -0.0080842925 0.024133012 -0.024328671 0.04717156
000340 59 cc d1 3d eb dc a0 3d 67 75 8d bd 04 f8 bd bd
       0.10244054 0.07854637 -0.06907158 -0.09275821
000350 2e 7c ea bd af 39 59 3d 00 59 8e bd 88 bf 07 be
       -0.11449467 0.053033527 -0.06950569 -0.13256657
000360 9b 19 d4 bd 7d 91 49 bd 63 62 2e bd 18 40 18 bd
       -0.10356446 -0.049211014 -0.042574298 -0.0371705
000370 9e 20 5d bd b6 0d d7 3d d6 93 be 3d e4 f2 c6 3d
       -0.053986184 0.10500662 0.09305541 0.097142965
000380 2f b0 48 3d 72 76 8a 3c f5 b7 d7 3c 75 04 89 bd
       0.048996147 0.016902182 0.026332835 -0.06690303
000390 cb 43 05 bd 22 89 f2 3d 5f 83 a7 3a bf 95 fa bd
       -0.032535356 0.11842562 0.001278024 -0.12235593
0003a0 28 c1 ff 3d d3 29 49 3c 7a 1b 85 bd d7 b6 ac bd
       0.124880135 0.012278038 -0.06499381 -0.084333114
0003b0 25 14 9b bd 47 74 e4 bd 3a e2 d2 3d 31 a3 c0 3c
       -0.07572202 -0.11154991 0.102970555 0.023515316
0003c0 96 34 48 3d 0f 32 7b bd 34 bf 70 bc f3 b8 25 be
       0.048878275 -0.061327036 -0.014694024 -0.16183834
0003d0 2f a9 67 3d 9a 35 03 bd 29 dc d3 bc 03 a4 14 3d
       0.05655783 -0.03203354 -0.025861816 0.036289226
0003e0 b4 95 c8 3d a4 0d 43 bc 5f da 3c 3c 22 dc e0 bc
       0.097941786 -0.011905108 0.011526673 -0.027448718
0003f0 5b be 1b 3d c8 5b f6 3c c2 73 fa bd be 7a 27 3e
       0.038023334 0.030073062 -0.1222911 0.16355416

fc2.bias f4 [100]
000000 01 3e 73 3d bc fd 9b 3d 42 20 0c 3b 43 b0 cb 3d
       0.059385303 0.07616755 0.0021381532 0.09945729
000010 5c b8 81 bd 5f 7a cf 3d fb 02 20 be 98 c5 a0 bc
       -0.06333992 0.10130762 -0.15626137 -0.01962547
000020 eb 4b 8e 3d 42 50 c9 bc 61 f9 49 bd 8a 35 af 3c
       0.06948074 -0.024574403 -0.049310092 0.021387834
000030 8f f0 d5 3d f4 7f 26 bd 19 46 8a bd d5 75 8c 3d
       0.104462735 -0.04064937 -0.06751651 0.06858412
000040 ab 2c ba 3d 17 91 8b bd 2b 01 78 bd 87 f9 51 3d
       0.09090551 -0.06814783 -0.06054799 0.05126336
000050 9e 1e 6c 3d 76 e7 bc bd ed 9f 56 bd f3 e6 f1 3c
       0.057646386 -0.09223835 -0.05239861 0.02952907
000060 75 5a af bb 49 dc 7a 3d 6f f4 56 3d 29 2f ce bb
       -0.0053513595 0.061245237 0.052479204 -0.006292243
000070 f1 d3 a4 3d 28 13 28 be 5a e6 ee 3c ef 2d ad bc
       0.08048237 -0.16413558 0.029162575 -0.021140067
000080 f5 88 79 bd 96 70 fe bc 63 00 11 bd 17 fd dc bd
       -0.060921628 -0.031059545 -0.03540076 -0.107904606
000090 19 2b b1 3c e1 70 af 3d b8 80 b0 bd fc c2 21 3b
       0.021626996 0.08566452 -0.08618301 0.002468287
0000a0 5d 02 1e bc a0 91 83 bd 39 e7 4e 3d 71 7b c0 bd
       -0.009644118 -0.0642426 0.05051348 -0.093985446
0000b0 3f 9c a0 3d b1 ac dc bd 28 7d 65 bc be 46 02 be
       0.078423016 -0.10775126 -0.01400689 -0.12722299
0000c0 a2 bb bb bd ef 21 c2 3d d8 ec 3a bd 41 6c 79 3d
       -0.091666475 0.094791286 -0.045636028 0.060894255
0000d0 40 ea 23 bd af a8 bc 3b de 8c 08 bd cc 1d ae 3d
       -0.04001832 0.0057574133 -0.033337466 0.08501777
0000e0 07 05 9e bd 18 24 7c 3d 43 93 eb 3d d7 35 8e bd
       -0.07715803 0.06155786 0.11502697 -0.06943863
0000f0 e6 ed 4e 3a b5 fa 2a bc 23 18 f1 3d fc 18 ad bc
       0.0007893726 -0.01043575 0.11772182 -0.021130078
000100 88 2c 82 bd 9b 3d bb bd dd aa 5a bc da df 9b 3d
       -0.0635615 -0.0914261 -0.013346401 0.07611056
000110 8c d6 c3 bd 45 0f 98 bd 66 f1 a8 bd b5 71 ba bd
       -0.09562406 -0.074247874 -0.08249168 -0.09103719
000120 f2 57 aa 3b 22 5d 6f 3d 36 12 ff bc e4 fa a5 3c
       0.005198472 0.058438428 -0.031136613 0.020261236
000130 b6 94 c0 3c 85 94 96 3d 4f d3 ea 3c 8b 9a 16 bc
       0.02350841 0.073525466 0.028665213 -0.009192119
000140 a6 67 96 bc dc 2a b8 bd 6c f3 83 bd 54 64 44 3c
       -0.01835997 -0.0899255 -0.064429134 0.011986811
000150 93 ef ba 3c 3f 63 03 bc f4 7f be 3d f2 a0 b7 3d
       0.022819316 -0.008019268 0.09301749 0.08966245
000160 81 64 e3 3c 7d 49 87 bd f7 a5 72 3d 72 c4 3d 3d
       0.027757885 -0.06605814 0.059240308 0.046329923
000170 f7 ca 20 bd 7a cf 82 bd f4 a4 9e bd 9f c7 1d 3d
       -0.039256062 -0.06387229 -0.07746306 0.03852045
000180 8c 7c 86 bd 6f 1d d6 3d 41 32 b7 bd d7 ce 57 3d
       -0.06566724 0.10454833 -0.08945132 0.052687492

fc3.weight f4 [50, 100]
000000 92 5a 4a 3d 0d 38 4c 3e 97 23 28 3e f5 78 55 bd
       0.04940278 0.19943257 0.16419826 -0.052117307
000010 76 7f 32 3e 36 61 ad 3c 1b a3 90 bd 97 d6 05 3e
       0.17431435 0.021164518 -0.0706236 0.13070141
000020 34 4b 42 3e a3 79 db bd 82 b4 1a 3e ac d1 bd 3d
       0.18974 -0.1071656 0.15107921 0.09268507
000030 26 42 b8 3d 0f 13 51 bd 49 91 24 bc ea e1 17 3d
       0.08996992 -0.051043566 -0.010044404 0.037080683
000040 fa 04 57 3d 3d 48 96 3e 11 4c 3c 3d 04 1f 6d bd
       0.05249498 0.29351988 0.04597098 -0.057890907
000050 88 19 b9 3c de 60 3c 3c 09 fd 5b 3c 2c 71 05 bc
       0.022595182 0.011497704 0.0134270275 -0.008144658
000060 a4 02 f7 bc a6 23 a4 3d 90 3d 33 3d 3a c5 18 be
       -0.030152626 0.08014612 0.043759882 -0.14918986
000070 d0 47 13 be e0 46 73 3d ff d7 4b be 05 be 50 3e
       -0.14382863 0.059393764 -0.19906615 0.20384987
000080 3d e9 0e 3d 3f b3 c2 3d 3e ab ec 3d fc 73 8f 3d
       0.034890402 0.09506845 0.11556099 0.07004544
000090 01 34 69 bd 75 14 f8 bd 43 4e 53 bd 54 0c 9a be
       -0.05693436 -0.12113277 -0.051588308 -0.3008753
0000a0 94 25 d8 3c 0f 3c 91 3d 69 91 12 3e a7 be e2 bc
       0.026385106 0.070915334 0.14313282 -0.0276788
0000b0 90 28 e2 bd 00 78 94 3d 5d 9a e6 bd d7 bd 8a bd
       -0.11042893 0.07249451 -0.11259911 -0.0677449
0000c0 8a 3e 49 3d b6 51 32 bd 75 b3 4a bc 52 ac 91 3d
       0.049131908 -0.043534957 -0.012371887 0.071129456
0000d0 c7 2a f0 3d d0 b7 be bd 0b be 78 3d c5 ec da 3d
       0.11726909 -0.09312403 0.060728114 0.106896915
0000e0 46 11 4d 3c ba ee ef 3d 78 b4 6a bd bf d8 9a bd
       0.012516325 0.11715455 -0.057301015 -0.07560872
0000f0 fa 76 d0 3c ab cb ef 3c 6b 15 c7 3c 47 2e db 3d
       0.025447357 0.029271921 0.024302205 0.10702186
000100 7a c9 0f 3c 67 cc 58 3e 7b e4 89 3c 5a 3a 37 3d
       0.008776063 0.21171723 0.01683258 0.044733383
000110 9e 13 30 be 93 fe b7 bc d7 a1 12 bd df 0e be bd
       -0.17194983 -0.022460258 -0.035798874 -0.0928018
000120 60 b2 3e 3e dd 54 56 3c 78 b5 09 3e a3 7f 16 3e
       0.18622732 0.013081756 0.13448131 0.14697127
000130 b0 3a 17 3e ae 5d bb bd 86 be 3e bb 46 6b 0d be
       0.14768481 -0.09148727 -0.002910526 -0.13810453
000140 6d 5d 4e 3e fb dd 35 be f6 81 6e 3d 34 e0 1a 3e
       0.20152827 -0.1776046 0.05822941 0.15124589
000150 13 31 5c 3d e0 93 1a 3d cf 7d b9 bd e9 cd 23 be
       0.05375774 0.03773868 -0.09057199 -0.15996517
000160 b2 e4 f1 3b d2 2d a2 3e 4b 19 e1 bd 3f 04 51 bd
       0.007381999 0.31675583 -0.109911524 -0.05102944
000170 4c 75 0b bd 3d c5 53 bc f9 92 d9 3c 46 63 a2 bd
       -0.03404741 -0.012925443 0.02655934 -0.07929091
000180 51 dc a9 3c 99 45 d7 bc ef 6d 86 3d ff db 09 3e
       0.020734938 -0.026278304 0.06563937 0.13462828
000190 a7 eb 92 3d c0 45 05 be a1 be c4 bc a2 cd a4 bc
       0.07173853 -0.13014889 -0.02401668 -0.020117585
0001a0 c2 60 4b be 0e 4d ec 3d db ff 84 3d dc b5 10 3d
       -0.19861129 0.115381345 0.06494113 0.035329685
0001b0 4d 00 27 be 4a 41 b4 3d 69 05 ff bd 24 96 b3 3d
       -0.16308708 0.088015154 -0.12452204 0.087688714
0001c0 7b 52 04 be 4f 89 9c bd 24 5c fd 3d 7f b9 02 3e
       -0.12922089 -0.07643377 0.1237109 0.12766074
0001d0 48 2f d3 bd fa 3e 6e be 4b 5d ca bd 62 08 cb 3d
       -0.103117526 -0.23266211 -0.098810755 0.09913708
0001e0 69 56 d4 3d 68 da 82 3c a4 ec 2b 3d 88 d4 be 3b
       0.10368044 0.015973285 0.041973725 0.0058236755
0001f0 3a 20 eb 3d 71 2e 6e bd 34 95 96 3c 48 fe ad 3d
       0.11480756 -0.05814976 0.018381692 0.08495766
000200 80 b3 04 3d 86 be 93 be 65 d2 d3 3d 9e 53 09 be
       0.032397747 -0.28856295 0.10342864 -0.13410804
000210 e6 47 ea 3c ad ac c0 3d fc c1 f0 bb 24 c0 9a 3d
       0.028598737 0.09407935 -0.0073473435 0.07556179
000220 9a 40 86 bd 84 6b f1 3d 96 f0 09 bc b9 10 2a 3e
       -0.065552905 0.11788085 -0.008419177 0.16607942
000230 3d ed e9 3d 8f b7 95 bd 32 49 8d bd 87 46 75 3d
       0.11422203 -0.07310402 -0.068987265 0.059881713
000240 cf 34 14 3d bd 44 f7 bc 34 9f d3 3d 06 e4 e6 3d
       0.036183175 -0.030184144 0.103331 0.11273961
000250 cc e0 36 bd 50 b3 a0 bc ac 6f 50 bd 46 db fd 3a
       -0.044647977 -0.019616753 -0.05088775 0.0019367717
000260 49 b2 1d 3b c3 08 03 3e 58 8a 8f 3c ff 1d 21 be
       0.0024062565 0.12796311 0.017522022 -0.15734099
000270 f9 3a 6d 3d c4 de 6d be 07 56 93 bd ca 19 e4 3d
       0.05791757 -0.2322951 -0.07194143 0.111377314
000280 9a 80 25 bd 8d c5 b3 bd 98 85 5d 3d f8 8a 9c ba
       -0.040405847 -0.08777914 0.054082483 -0.0011943271
000290 07 17 f2 3d 40 31 ba bd 72 17 79 bc 8d 2c 50 3d
       0.11820798 -0.09091425 -0.015203344 0.050823737
0002a0 50 fc 1d 3e 1b 96 a6 bd 24 4d 28 3e 47 32 19 3e
       0.15428281 -0.08134099 0.16435677 0.14960586
0002b0 15 0e dc 3c 54 77 8a bd c8 3a b5 bd c0 13 ae bc
       0.026862184 -0.06761041 -0.08849102 -0.021249652
0002c0 0e 20 3e 3d 81 51 c1 3d 18 4b 09 3d 6b f4 8f bd
       0.04641729 0.09439374 0.03351888 -0.07029041
0002d0 59 64 d8 bd fa b1 ec 3d e8 f1 46 3d c3 1d e4 bd
       -0.10566015 0.11557384 0.048570544 -0.11138489
0002e0 eb 77 e0 3d 0e a4 b5 3c db 31 fe 3c 5a ba 4c bc
       0.109603725 0.022172954 0.031029632 -0.012495602
0002f0 dc 62 02 bc a4 c6 8e be 99 8c 85 bc c7 ac 9a bc
       -0.00795814 -0.27885926 -0.016302394 -0.018881215
000300 e0 64 7e bd c7 b8 e7 bd 60 fa 16 3d cb 62 e9 bd
       -0.06210792 -0.1131454 0.03685987 -0.113957964
000310 8d ab e6 3d 82 62 cc bc eb 16 c5 bc 68 11 75 3c
       0.112631895 -0.024949316 -0.02405878 0.014957763
000320 6f b6 36 3d 30 48 98 3c d2 0d 4b 3d ec bc 74 bd
       0.044607576 0.01858911 0.049573727 -0.059750482
000330 88 5e 21 3e 34 7c e7 bd 74 6c 23 bd 2b ef 14 be
       0.15758717 -0.11302987 -0.03989835 -0.1454436
000340 9b 1b 52 bc b5 13 c2 3d 0f 2a d3 3d af 08 81 3d
       -0.0128239645 0.09476415 0.103107564 0.063004844
000350 7f cf 2e 3d e4 52 6c 3b 14 9e dc bd 39 8e 9e bd
       0.042678352 0.003606015 -0.107723385 -0.077419706
000360 c6 a4 18 3e 80 d2 98 3d 10 85 99 3d 02 7e 85 3d
       0.14906606 0.07462025 0.07496083 0.06518175
000370 4b 61 8a bc 0f ad 87 3d ad d9 dc 3d 77 69 a0 3d
       -0.016892096 0.06624805 0.10783706 0.07832616
000380 dd 1d e8 3b 99 97 17 3e 3d 77 cd bd b5 db c7 bd
       0.007083638 0.14803924 -0.100325085 -0.09758703
000390 db 52 76 3d c2 bb 3f 3d f5 53 f0 3b 8a e7 78 bd
       0.06013761 0.04680992 0.007334227 -0.060767688
0003a0 88 a2 b5 bd 0f 24 d1 bd 52 3b 0c 3e e0 3d bc bd
       -0.08868891 -0.10211956 0.13694504 -0.09191489
0003b0 ab 74 b6 bd 7c a2 a4 bc 3c d9 ea bd c6 2d d5 bc
       -0.089089714 -0.02009701 -0.114672154 -0.026022803
0003c0 1a df 23 be 9e b5 3a be 54 81 60 3e 58 0a 89 bd
       -0.16003075 -0.18233344 0.21924335 -0.06691426
0003d0 1f b1 46 be 79 aa d5 3d 8a 63 b1 39 fd 1a 5e 3c
       -0.19403504 0.10432906 0.00033834233 0.013556239
0003e0 18 24 dd bd 93 4f 0c bd 35 7d 04 3c a4 5c a1 bd
       -0.107979 -0.034255575 0.008086492 -0.07878998
0003f0 5b b5 db 3d 25 79 db bd f4 31 a7 bd d1 3d 40 bd
       0.1072795 -0.10716466 -0.08163825 -0.046933953

fc3.bias f4 [50]
000000 2d 40 19 bd 25 7b 64 3d 19 57 2a bd f2 cf c0 bd
       -0.03741472 0.055781502 -0.04158697 -0.094146624
000010 7b 0a 44 bd 3d c7 9a 3d 69 03 79 3d 71 67 bb 3a
       -0.047861557 0.07557533 0.060794268 0.0014297796
000020 43 93 9f bc 7a 5d 2b bd cb e8 44 3c ba 8c 55 3d
       -0.0194794 -0.041837193 0.012018393 0.05213616
000030 c6 1c 30 bd 1f 68 8d 3d dc b7 98 bd 13 66 c2 bd
       -0.04299619 0.06904625 -0.074569434 -0.09492125
000040 13 47 b0 bd 24 f4 1b 3d 90 87 e4 3b 84 a2 86 3d
       -0.08607306 0.038074628 0.006974168 0.06573966
000050 76 f2 3e bd 7f ea 61 bd 2d b1 16 3d 94 4d b2 3d
       -0.046617948 -0.055155274 0.03679006 0.08706203
000060 51 cb 85 bd b2 ee 09 3c bb e5 22 bc be f1 4b 3b
       -0.0653292 0.008418726 -0.009942467 0.0031119431
000070 db 39 42 3d 0e 9e 3d bd 81 a1 36 3d 11 47 14 bd
       0.047418457 -0.04629331 0.044587616 -0.036200587
000080 8a 6f 5f 3d 16 14 1c bd a5 3e 8f 3d 66 81 ab bc
       0.05454973 -0.038105093 0.0699437 -0.020935725
000090 a6 57 bd bd 63 ab 10 3e 11 62 46 b9 ef ab dd 3c
       -0.09245233 0.14127879 -0.00018919284 0.027059523
0000a0 b3 37 94 3d 43 33 ce 3d 47 40 45 3c 84 3e d7 bd
       0.07237186 0.10068371 0.012039251 -0.10509971
0000b0 d2 b7 18 bd 5b f8 41 3d 55 01 62 3d 03 8e 58 3d
       -0.03728468 0.04735599 0.05517705 0.052869808
0000c0 6d 16 51 bd 0a 13 bc bd
       -0.051046778 -0.09183319

fc4.weight f4 [2, 50]
000000 e2 c2 d4 bd 84 04 b2 3d b7 27 10 3e 0c e3 3a be
       -0.103887334 0.086922675 0.1407765 -0.18250674
000010 c6 b4 34 be 34 f9 b3 3e c9 e3 8b 3e 04 9d c3 3e
       -0.17647085 0.35151064 0.27322224 0.3820573
000020 79 4c 63 3e a4 e1 d8 3d f2 c9 9b 3d 9b af 0f be
       0.22197141 0.105899125 0.076068774 -0.14031832
000030 30 7a d7 bd 2c 3c 58 be 48 68 c3 3e f6 ae a1 3e
       -0.10521352 -0.21116704 0.38165498 0.31578797
000040 8e d4 72 3e f2 71 10 be 63 5a 52 be 4f 58 4e 3e
       0.23713896 -0.14105967 -0.20542292 0.20150875
000050 e0 14 eb 3d 4e e7 16 3e e7 14 e8 bd 30 39 6c be
       0.11478591 0.14736673 -0.11332112 -0.2306869
000060 b4 68 4b bd 69 d2 21 be ef b0 39 3e 9d 28 6d 3d
       -0.0496604 -0.15802921 0.18133901 0.05790006
000070 bd e1 82 3e f6 5c b0 3d de 4d 87 be 63 28 4c 3e
       0.2556285 0.08611481 -0.26426595 0.19937281
000080 34 0b ff bc 9d eb 5f be 1d 69 01 3e 91 1d 1c be
       -0.031133272 -0.21867223 0.12637754 -0.15245654
000090 fb d7 89 3e 58 48 1d 3e 8c 08 ff 3c 01 51 05 be
       0.26922593 0.15359628 0.031132005 -0.13019182
0000a0 21 e9 ac 3b 3b a5 14 3e ae 70 84 3e 75 a8 21 3e
       0.0052768146 0.14516155 0.25867218 0.15786918
0000b0 f4 a3 18 be 07 eb 5b be a7 4d a6 3e f6 da 55 3e
       -0.14906293 -0.21476375 0.3248112 0.20884308
0000c0 a7 52 d4 3c 39 3b ac 3e 77 22 24 be 6e 94 86 3e
       0.025918318 0.33638933 -0.16028772 0.26285118
0000d0 c9 59 da be fe 5d 94 be 5a 89 82 3e 6c f6 ef 3e
       -0.42646626 -0.2897796 0.25495416 0.46867692
0000e0 3d 4f 6f bd 9e d0 cb 3b b9 1e 3d 3e 17 6e a2 3d
       -0.058425177 0.0062199375 0.18468751 0.07931154
0000f0 79 42 01 bf a8 e7 96 be 6b 25 9e 3d 98 88 88 be
       -0.50492054 -0.29473615 0.07721981 -0.26666713
000100 ba 67 42 be f1 05 7a be a8 a0 0f 3e 20 e0 d8 3d
       -0.18984881 -0.24416329 0.14026129 0.105896235
000110 0c 61 5b be 27 b8 b2 3e 40 a3 60 be ed 04 c1 3e
       -0.21423739 0.34906122 -0.21937275 0.3769907
000120 e6 01 1a 3e 96 b1 09 be bb 14 b6 3e 44 1b 35 3e
       0.15039787 -0.1344665 0.3556269 0.17686182
000130 87 4f 69 3e 7b 39 b8 be 4a 97 2d be 1d 61 98 be
       0.22784244 -0.35981354 -0.16952243 -0.29761592
000140 bf 71 df 3d 33 e9 fb 3d 63 3c 98 be 87 d9 7d be
       0.10910367 0.123003386 -0.2973357 -0.24790011
000150 96 83 b1 3e 5f a2 3e 3e 5f 6d eb 3c f4 02 ac be
       0.34670705 0.18616627 0.028738676 -0.33596003
000160 b9 7e 97 be 8f 9f 27 3e 11 fd 59 3e 0e 70 8e 3e
       -0.2958887 0.1636946 0.21287943 0.27819866
000170 a6 bb 6f 3e ff 20 88 be 7b bd 68 3e 66 e9 da bd
       0.23411426 -0.26587674 0.22728531 -0.106890485
000180 da c1 0b b9 c1 11 47 be 91 7e a6 3c fc 16 3b 3d
       -0.00013328288 -0.19440366 0.020324023 0.045676216

fc4.bias f4 [2]
000000 e5 ed 9a 3d 8f d5 18 3e
       0.07564906 0.14925216
