Results/BS_256_EP_2000_TMAX_1000_NOISE_0.01/last_checkpoint_critic.pth (torch_old, 72821 bytes, 7 tensors)

fc1.weight f4 [100, 26]
00000000: 2e26 123f 5d6c d8bd 7145 07be 04c6 debd
00000010: 447f 213f f1f1 32bf 1749 d03c 0fa3 433e
00000020: c5a7 d73d b26b b7be fced 22bd 1a1f 6ebe
00000030: 6270 d7bd 0a71 04be f54b 7bbd bc34 3fbe
00000040: a5cd 5a3d b5c5 45be 0f81 0cbe 6f99 713e
00000050: 0ee0 94bd b906 0a3f d3bf 36bd 65a9 ef3e
00000060: 1da8 21c0 259d 2b3d 264b d43e 4c0d 863e
00000070: d9ab a4bd 03f8 54be 3616 83bd f9dc 3ebd
00000080: a928 acbd 7192 7ebe 36d5 33bd 76c8 30be
00000090: aa4a 15be e236 61bd 93a6 ae3d ed15 8b3e
000000a0: 3400 acbc daf1 a5be 2010 ab3d 3da6 6dbe
000000b0: dd66 debd 701f 0fbf 747d a0bc b9b4 cd3e
000000c0: f2a1 5cbd fe19 eebe 3e18 853e d4ae bdbe
000000d0: ad05 363e 79a6 313f b9e9 81bc fc87 17bd
000000e0: 97a9 fabc 8b84 72bf a109 91be a909 bbbc
000000f0: f958 653e 403d 4f3f de20 41bd 6fa6 993d
00000100: 319c 903d 7951 9dbf a6af 9c3d 18bf 7a3d
00000110: 1d19 4c3e 281e 673f b663 85be c101 eabd
00000120: 958a 823d 0279 bfbf 2cf1 7a3d 61ca 053e
00000130: a56d 733d bc9d 39be 7d93 543d e065 19bf
00000140: 3a3a 11be aac9 4b3e f683 cd3e a9b7 9b3c
00000150: 3d08 9f3d ec8c 07bc 16f6 89bd a797 49bf
00000160: 6207 913d a528 17be d89c 493e 09bf 0dbe
00000170: 280d 0b3e ae84 2b3d 6540 66be 57b0 6ebf
00000180: 42bc 653d b710 3d3d cdd9 07bf 1130 41bf
00000190: 8115 123e 9b8d 0c3e 72b4 20bc 7db8 cd3e
000001a0: 0c00 793c a10f 35bf a6af f1bc cced 77be
000001b0: cf6a 123f 213b 053e 0e1d 1b3d b419 d13c
000001c0: f280 303e a3c1 13bf 7774 f63d 9e7b e5bd
000001d0: b66d a83e 6435 70be 4875 6e3c d379 cc3d
000001e0: 90ab a93e e9a7 34bf f406 9cbd bf3a 7fbe
000001f0: 537c 07bf 0aa3 1bbf 2665 f2bc 490a e0be
00000200: 7d23 56be dbf4 913f 0244 123e f1e5 82be
00000210: 6d01 a0bd 88c9 143e 4d8a 293f 3c64 a83e
00000220: 6ea0 613d dac4 0d3e 29c1 4b3e 64d3 bcbe
00000230: 7c07 1a3e f864 5a3e a520 d63e 33b7 bcbd
00000240: 629a 58be 440c 8bbb 2bfe 853e d4df cfbe
00000250: 31c7 2ebe 0cab 28bd 7378 34bf 8c79 58bf
00000260: 8a63 e7bd 6bdb 5d3e 31b6 2bbd 997f 08bf
00000270: 9808 113e ffa3 8b3e 2b10 94bc 2073 eb3c
00000280: a03c 6d3e bbcf 4fbf 5e42 1cbe 4025 7abd
00000290: 150c 823d 66a4 f13e 581e 03be 9447 733e
000002a0: 15ff b4bd 50d2 8bbf 29b8 083e cb6d ab3d
000002b0: e74f 943e 52c5 0d3f 986f 80bd 2ad7 22be
000002c0: 4384 9cbe d796 a9bf becd 8a3e fa17 e2be
000002d0: de3e ebbe 0114 c03d d9c3 7a3e a8d4 bf3e
000002e0: 5737 f13d 3748 2d3e d8a4 7f3d ed64 bcbe
000002f0: ea61 0dbe d42c 533e b9c0 973e 9771 133f
00000300: 3454 bebd 41cb a2bd d4b7 c0be b23b 45bf
00000310: bd0e 8dbd 55c7 adbc 68de 673e 64bf d93d
00000320: 3f72 c03d faef b9bd 5e29 62bf 0b3c 90bf
00000330: 1eb0 e6bc e6b8 a3bd 2748 e33e 8185 44be
00000340: ed43 533e aba5 d83d 3c32 5a3d 4005 df3d
00000350: 1be0 d83d 1bb8 d7be 1188 5a3d e1d4 303e
00000360: 917e dfbd e3d2 86bc 38af c03d 79f6 1bbe
00000370: 3e3d 423d 3909 a23d c239 d73b 242f 4b3c
00000380: 2575 9cbe 7a5b a33d cac9 1fbe fcce d23d
00000390: f536 1fbd 1aca 363d cbc6 68bc 9506 a43e
000003a0: 6337 323e 93f1 283e b16d f23d f246 413d
000003b0: 270e 623d 8ad3 61bd 4855 1b3e 8af0 513e
000003c0: 7503 033d 9f2a 6c3e b7bc 2fbe 4387 333e
000003d0: 6703 db3d ed8d 30be 8789 073f 7dac 91bf
000003e0: e42e 0e3c 78df 83bc 88f2 34be 1e18 efbd
000003f0: 8179 573e 9d28 023f 2ed6 b8be c8fc 8fbf
0.5708951 -0.10567544 -0.13210084 -0.10877612 0.63084817 -0.69900423 0.025425477 0.1910517
0.105300464 -0.35824353 -0.03977774 -0.23254052 -0.10519482 -0.12933746 -0.061351735 -0.1867246
0.053418774 -0.193137 -0.13721107 0.23593687 -0.072692975 0.5391651 -0.04461653 0.46808925
-2.5258858 0.04189791 0.41463584 0.2618202 -0.0804059 -0.20797734 -0.06400721 -0.046597455
-0.08406193 -0.2486055 -0.043904506 -0.1726397 -0.14579263 -0.05498398 0.08527865 0.27165166
-0.02099619 -0.3241108 0.08352685 -0.23207946 -0.10859463 -0.55907345 -0.01959107 0.40176943
-0.05386538 -0.46504205 0.25995058 -0.37047446 0.17775603 0.6939464 -0.015858518 -0.03699492
-0.030598445 -0.94733495 -0.2832766 -0.022831755 0.22397222 0.80952835 -0.047150485 0.07502448
0.07061041 -1.2290488 0.0765069 0.061217397 0.19931455 0.9028039 -0.26052636 -0.11426116
0.06374089 -1.4958804 0.061265156 0.13065483 0.059430737 -0.18126577 0.05189847 -0.59921074
-0.14182368 0.19901147 0.4013974 0.019008474 0.07765243 -0.0082733445 -0.0673639 -0.7874703
0.07081486 -0.14761598 0.19688737 -0.13842405 0.13579237 0.04187458 -0.22485502 -0.93237823
0.05608774 0.04615852 -0.5306671 -0.7546397 0.14266016 0.13725893 -0.0098086465 0.40179816
0.015197765 -0.7072697 -0.029502701 -0.24211806 0.57194227 0.13010837 0.037869506 0.025524952
0.17236689 -0.5771734 0.12033933 -0.11205219 0.32896203 -0.23457867 0.014554329 0.099841736
0.33138704 -0.7056871 -0.07618514 -0.24924754 -0.5292408 -0.6079565 -0.029589247 -0.43757847
-0.20911975 1.1402849 0.14283755 -0.25566056 -0.07812772 0.14530003 0.66226655 0.32888973
0.05508464 0.13844624 0.19897904 -0.36880028 0.15041918 0.21327579 0.4182178 -0.0921463
-0.21152642 -0.0042434055 0.26170477 -0.40600455 -0.17068173 -0.041178748 -0.7049629 -0.84560466
-0.112982824 0.21665733 -0.0419218 -0.533197 0.14163435 0.27273557 -0.018074116 0.02874142
0.23167658 -0.81176347 -0.15259692 -0.06107068 0.06349961 0.4719574 -0.12804544 0.23757774
-0.088377155 -1.0923557 0.13351502 0.08370551 0.2896721 0.5537921 -0.06271285 -0.15902391
-0.30569658 -1.3249158 0.27110094 -0.44158918 -0.459464 0.093788154 0.24488772 0.3746693
0.11778133 0.16922079 0.062413067 -0.3679575 -0.13806883 0.2062257 0.29639223 0.575952
-0.09293404 -0.07948924 -0.3764025 -0.7704421 -0.06887577 -0.021213213 0.22643435 0.10632208
0.09396791 -0.09078975 -0.8834437 -1.1268324 -0.028160151 -0.07994251 0.44390985 -0.19191553
0.2063138 0.10578474 0.053270563 0.10889673 0.1058962 -0.4213265 0.05335242 0.17268707
-0.109128125 -0.01645798 0.0940842 -0.1523074 0.047421686 0.07911915 0.0065681646 0.012401376
-0.30558124 0.07976432 -0.1560432 0.102933854 -0.03887077 0.044626333 -0.014207552 0.32036272
0.17403941 0.16498403 0.11837328 0.0471868 0.055189278 -0.05513338 0.15169251 0.20501915
0.03198572 0.23063134 -0.17161833 0.17532067 0.10694008 -0.1724164 0.52944225 -1.1380764
0.008678172 -0.01609777 -0.17670643 -0.11674522 0.21042444 0.5084322 -0.36100906 -1.1249018

fc1.bias f4 [100]
00000000: e7f6 693e 424f 80be 3483 eabc 313f abbe
00000010: af15 09bd 1693 d03d 0f60 b83d 0145 d5bd
00000020: 6f1e 86be e5cf bdbd 2fe3 1bbf c18a ebbd
00000030: 95a3 afbe fac4 5ebe e1de c5be d126 d0be
00000040: 5b73 bebe 671e b3be 626a 64be 3e77 593e
00000050: 8022 f2be 1879 55be 2d7b 203e a21e 13be
00000060: 5a82 a9be 8451 d4be 729e 2ebe 9115 1bbf
00000070: bc93 b7bd d4bc 6c3d 2724 05be b36d abbe
00000080: 206a 01bf 2dec ac3a 6a07 233d 02d2 8e3e
00000090: 8d8d aabd a2a1 153e 50cb af3e 3828 15bf
000000a0: b8b8 4abe f98b 43be 4a43 423c 62a4 3abe
000000b0: 2cf4 42be 3bf4 2bbe 84f0 753d e646 863d
000000c0: 248a c63d 33e0 45bd c84e a6bd 7956 13be
000000d0: e926 2ebe bc9c 40be c470 fb3c 0ff2 84be
000000e0: bae6 b2bd 698f 863c ab26 31bf 67bc 093e
000000f0: e65b f1be ad94 883e e613 8a3b 04bc 8d3d
00000100: f5ef febc e188 01be 95fc bebe 3b24 b33e
00000110: 3d6e 81be 5399 0fbe 7f39 ffbe bcba 83be
00000120: 4dce e3be 2ce8 91be d512 d1be 59fa 5ebd
00000130: cc1c ec3d da6e d73c ee65 c6bd 5879 aebc
00000140: bcbb 3dbe dabb 4bbd a0f8 92be c566 1a3e
00000150: a754 e6be 0b0f a73e 2cc2 563e bb95 0abe
00000160: 1a1b 9f3e 8f4a 2ebe 05f8 893e 75b2 26bd
00000170: 19b8 7abe ecaf 83be ea17 89bd fe75 b0be
00000180: 7060 143d 8c26 07bf 5bf0 363b 57db 31be
0.22848092 -0.2506047 -0.028627016 -0.3344665 -0.033467945 0.101843044 0.09002697 -0.10413552
-0.26195094 -0.09268168 -0.6089353 -0.115010746 -0.3430449 -0.21754828 -0.38646606 -0.40654615
-0.37197384 -0.34984133 -0.22306207 0.21236894 -0.47291946 -0.20846975 0.15671988 -0.14367154
-0.33107263 -0.4146844 -0.1705263 -0.6057978 -0.08963725 0.057797268 -0.13002072 -0.3348213
-0.5055256 0.0013192944 0.039801992 0.27894598 -0.0832778 0.1461244 0.34334803 -0.58264494
-0.19797027 -0.19096364 0.011856863 -0.1822677 -0.19038457 -0.16792385 0.060043827 0.065564916
0.09694317 -0.048309516 -0.08120495 -0.14388455 -0.1700703 -0.1880979 0.03069342 -0.25965926
-0.08735414 0.016425805 -0.6919963 0.13450776 -0.47140425 0.2667593 0.004213798 0.06920627
-0.03112028 -0.12649871 -0.3730208 0.3498858 -0.25279418 -0.14023332 -0.49848554 -0.25728405
-0.44493333 -0.28497446 -0.4083468 -0.05443797 0.1152893 0.026297975 -0.0968741 -0.021298096
-0.18528646 -0.049739696 -0.2870531 0.15078266 -0.4498646 0.32628664 0.20972508 -0.1353368
0.31075364 -0.1702063 0.26947036 -0.040697534 -0.2448429 -0.25720155 -0.06694014 -0.3446502
0.036224782 -0.5279319 0.002791426 -0.17368828

fc2.weight f4 [100, 100]
00000000: fd90 16bd baf2 10be 2cda e93c 1602 fabd
00000010: 11c1 53be 67c2 d9bd 9a40 18bd 7064 6d3d
00000020: 23ea a9bd 0a8f 4dbb 51d9 7bbd 64f2 35be
00000030: 1b55 e7bd 7a7c 3ebc 8c05 07be 1e7b 0fbe
00000040: f0f4 e7bc b455 34be 2692 96bd d38f 54be
00000050: 9dc2 e0bd 0d3b 093d 4a49 66bd a1e6 5f3d
00000060: 6184 30bd 747b 14bd 296e 19bd 969d 34be
00000070: 321f 21be 64bb 863b 5ee4 bebd bde1 dfbd
00000080: 77f3 bb3d 8119 4ebb cdab d3bc 6a7a d9bd
00000090: fcc4 1ebe ebee 36be e734 773d 64d5 81bb
000000a0: 2c55 0dbd 0aed 99bd 88d4 aabd 0059 3dbe
000000b0: 364a 91bd a523 eabd 7832 bcb7 aba3 383d
000000c0: 5114 f53c 9ccf 3ebd d66c a3bc f283 3ebc
000000d0: 3b54 84bd 144b 2c3c 3ace c2bd f331 4dbc
000000e0: 9889 48bd afdd 7f3d 2511 fabd fa5d cfbc
000000f0: 4ec0 d63c a24f d0bd de24 3bbe 35d6 04bd
00000100: 5334 5cbd d8ec 4ebd ddaf 433d dedd b73d
00000110: b78b 29bd 0152 53bd ccce 21be beee e3ba
00000120: 5d84 a1bd 86aa 8b3d a4e8 a4bd 8748 17bd
00000130: 6bbc 8a3d 39ac c0ba 15d0 38bd 510e b53c
00000140: d6d6 15be bc64 a13d 9368 c1bd feb0 14bb
00000150: 1ef9 adbd d760 69bd 9997 aa3b bbfe 003d
00000160: 1265 90bd 2c5b 90bb dbcd 123d afc4 aabc
00000170: 76c9 eebd b3d3 31be ffc5 cebd f1e4 8c3d
00000180: f365 a6bd d55d 513d 6d3f 37bd a00d d5bd
00000190: 3f9c 093e 30ab 9cbe 7490 36be 7955 393e
000001a0: 064e 3bbe 6f60 85be 648f 6e3e b808 b3bd
000001b0: 29aa 0dbf d942 a63e e0d7 c6bd ac07 753e
000001c0: d554 9ebd 752c 94be faa1 2a3d 505a 05be
000001d0: 1305 34be 8410 77be 7b76 143e e1ac 84be
000001e0: d8b5 0b3e 014c ad3e 1111 e8be bb9d bc3d
000001f0: bb6f 853d 3bd3 233e 1af9 6cbd a564 a23d
00000200: e498 82be 8b4a bebc 347f 21bf d032 14be
00000210: 8d99 36bd ff8c 8cbe d2a6 06bf 4f47 87be
00000220: 88ac 2f3d 5999 883e d6ec 85be c1e9 ba3d
00000230: a9cb 543e c130 a1bd 76ed 823e 1062 513e
00000240: 72bd fe3d ab6a 10bf 9300 e03d 2fa9 49bf
00000250: c027 c73e 276d a2be 9c09 4abe 78d5 773e
00000260: 1a3a dbbd 6282 e8be 10a5 33bf 2cc5 bdbd
00000270: f70f 34bd 8ca4 48be 5755 983e 129c f23b
00000280: 1137 33bf 72bf cabd 7ad2 8e3e 84fe 9f3c
00000290: 1851 1cbf d944 b43d c2d1 3cbd b6c5 27be
000002a0: 0b25 623e edd9 183e a469 ef3d 50a9 8fbe
000002b0: b058 a73d 03d8 a1bc 6283 85be 684a 50bb
000002c0: c13a 77be 363b a23e 1447 8abd a4f9 e23d
000002d0: 000e fcbe 0153 cdbc a4cb 9c3e fa3f b23d
000002e0: b587 c1be 2374 c0bb d3f5 253e e85d 453e
000002f0: fddd f43d cab8 80be f262 edbc bc7d 48bc
00000300: d404 e33b a4ee d93d fa55 94be 9065 dd3d
00000310: 7d16 8bbe 50b6 af3e 08e9 4d3e 52d2 55bf
00000320: cfc2 0c3e a6b0 943c d974 64bd 2bbf 54be
00000330: e072 3abe f0e5 a1be 4d2e 693e 9195 a3bf
00000340: 4ddb f6bc 55da 253e b882 dcbd 56f5 363d
00000350: 171a 543d f01e d2bc 3b7b 7abf 98db ed3d
00000360: 8bca 8abf f4dc bdbd f8f6 f5bc 5937 aabd
00000370: 4686 d5be 944a cbbe 6f19 13bf 0ee6 31be
00000380: 7a66 29be 438a 03be f171 9f3b 96f6 05bf
00000390: cf81 fe3e 514f 173e a817 3fbe 513b e5be
000003a0: b3b5 e03d 91c7 e03c cefc a0be 6c6a a1be
000003b0: e48a 943d 5ec4 fbbe e157 193e 1cb9 013e
000003c0: c34d 16be c91e a63e a64c f63d 4618 013e
000003d0: d189 273d b7b4 72be dc48 6fbe 8d61 92be
000003e0: 9f05 8dbe 0253 a33d b53c b93e 34d2 30bf
000003f0: f879 8f3d 8001 a2be 3851 4b3c 5802 ccbd
-0.036759365 -0.14155093 0.028546415 -0.12207429 -0.20679118 -0.106327824 -0.037170984 0.057957113
-0.08296611 -0.0031365776 -0.061486546 -0.17768246 -0.112955295 -0.011626357 -0.1318571 -0.14011809
-0.028315037 -0.17610818 -0.07352094 -0.2075799 -0.109746195 0.03350358 -0.056222238 0.054663304
-0.043094996 -0.036250547 -0.037458573 -0.1763824 -0.15734556 0.004111694 -0.09320901 -0.10931728
0.091772966 -0.0031448307 -0.025838757 -0.10619052 -0.15504831 -0.17864577 0.060353186 -0.0039622057
-0.034505054 -0.07515915 -0.08341318 -0.18490982 -0.07094233 -0.1143258 -2.2434848e-05 0.04507796
0.029916914 -0.04658471 -0.019949358 -0.011628138 -0.06461378 0.010515947 -0.09511991 -0.012524116
-0.048959345 0.062467273 -0.12210301 -0.025313366 0.026214745 -0.10171439 -0.18275782 -0.032430846
-0.053760838 -0.05051884 0.04777514 0.08977865 -0.041393008 -0.051591877 -0.15801543 -0.0017389876
-0.078865744 0.06819634 -0.08052185 -0.0369344 0.06774219 -0.0014699764 -0.045120317 0.022101553
-0.14632735 0.07880542 -0.09443774 -0.0022688503 -0.08494781 -0.05697712 0.00520606 0.03149293
-0.07050528 -0.0044054 0.03584085 -0.02084574 -0.116595194 -0.17365913 -0.100963585 0.068796046
-0.08124914 0.051114876 -0.044738222 -0.104029894 0.1343851 -0.30599356 -0.17828542 0.18099011
-0.18291482 -0.26050135 0.23296887 -0.08741897 -0.5533777 0.32472876 -0.09709144 0.23928708
-0.07731024 -0.28940168 0.04165838 -0.13022733 -0.1758006 -0.24127394 0.14498322 -0.25913146
0.13643587 0.3384705 -0.4532552 0.09209772 0.065154515 0.15998547 -0.05785475 0.07929353
-0.2550727 -0.023228904 -0.6308472 -0.14472508 -0.04458003 -0.2745132 -0.525983 -0.26421592
0.042889148 0.26679495 -0.26157254 0.09126616 0.20780815 -0.07870627 0.25571793 0.20447564
0.124384776 -0.5641276 0.109376095 -0.7877378 0.38897514 -0.31723902 -0.19730228 0.24202526
-0.10704441 -0.45411974 -0.7017374 -0.09266123 -0.043960538 -0.1959402 0.2975261 0.007403859
-0.700059 -0.098997965 0.27894956 0.019530542 -0.6106124 0.08802194 -0.04609848 -0.16384014
0.22084443 0.14926882 0.11690071 -0.28058863 0.08171213 -0.019756323 -0.260768 -0.003178263
-0.24143507 0.316858 -0.06751838 0.110827714 -0.4922943 -0.025063993 0.30624115 0.08703609
-0.3779885 -0.0058732196 0.16207056 0.19274104 0.119564034 -0.25140983 -0.028977845 -0.012237009
0.006928066 0.1064122 -0.28971845 0.10810387 -0.27165595 0.3431878 0.20108426 -0.8352405
0.13746189 0.018150639 -0.055775497 -0.2077605 -0.18207884 -0.3162074 0.22771569 -1.2780019
-0.030133868 0.16196568 -0.1076712 0.044667564 0.051782694 -0.025649518 -0.97844285 0.1161415
-1.0843061 -0.09270659 -0.03002499 -0.08311338 -0.41704005 -0.39705336 -0.57460684 -0.17372915
-0.16542998 -0.12845711 0.004865878 -0.52329385 0.4970841 0.1477635 -0.18661368 -0.44771817
0.109721564 0.02743891 -0.31442875 -0.31526506 0.07253054 -0.49173254 0.1497493 0.1266827
-0.14678101 0.32445362 0.12026338 0.12606916 0.040902916 -0.2370175 -0.23367637 -0.2859005
-0.2754335 0.07974817 0.36179128 -0.69070745 0.070056856 -0.3164177 0.012409501 -0.099613845

fc2.bias f4 [100]
00000000: fb44 19bd f312 103e 962f ff3c c5c5 ebbe
00000010: 8733 d1be c58e f83e 696c 6d3e 022f c5bc
00000020: f69b 4cbe 681e 89be d5eb 923c 3d6c e0bd
00000030: 63c4 44be eca1 19be 16c3 88bb c03f a03d
00000040: 09b0 993d 4642 0fbe b4e3 b5bd f143 003f
00000050: 96cd 8b3d 0fad f9bd c1e5 98bd 88d3 4ebd
00000060: 3ec3 b5bb 5ec1 d33d ba0b 8f3e cefc df3d
00000070: ad50 47be 8f60 7e3e 2a9e 4abf 8d5c 72bd
00000080: 585e 91bd f4bc 3c3e 05ed 65bd b048 933e
00000090: 42d1 ecbe e567 a8bc 34d5 4abd cc6b a23d
000000a0: 8fd6 f5bd bfe3 35bf 0cc0 873e 43ef 953e
000000b0: 3997 8fbe 4a95 72be c98f edbd 9c46 06bf
000000c0: dd68 e1be 4014 39bd 9dde 88bd 1dc0 fb3d
000000d0: 8eae 1c3e 625a 493e 4ab2 9f3d c64e 04be
000000e0: 1646 01be f6b1 703e e292 a33c 3c12 ba3d
000000f0: cc55 8abe ea4f c5be 7dd9 463d c0fb 6dbe
00000100: 7a23 ab3e 9c48 243e 2357 523e 6bda 8c3e
00000110: 36d3 a53e c26a 31be 0193 9c3c b30c 99bd
00000120: 959c 323d 091a 993e 72b9 4ebe 8611 18be
00000130: 0425 633e a54b acbd e26d 1fbe 78fc 533d
00000140: e621 63bd 7556 32bd 79b8 99bd 5e45 a3be
00000150: 8c93 1e3c 4066 e9bc 4494 ac3e ed2e c4be
00000160: 7927 9abd 7686 c9bd ed52 d2be 6e2d 19be
00000170: 0f9e e7bc 65f4 a53c 9320 29be e438 413e
00000180: 9aa3 6f3d fa43 07be 2b52 09be a707 32be
-0.0374193 0.14069729 0.03115062 -0.46049324 -0.40859625 0.48546425 0.23185886 -0.024070267
-0.1998137 -0.2678101 0.01793472 -0.10958145 -0.1921554 -0.15003175 -0.0041736467 0.07824659
0.07504279 -0.13990125 -0.088813215 0.5010367 0.06826322 -0.121912114 -0.07465697 -0.0504947
-0.0055469563 0.10339616 0.27938634 0.109368905 -0.19464369 0.24841522 -0.7914759 -0.059170295
-0.07098073 0.18431455 -0.056134243 0.28766394 -0.462534 -0.020557353 -0.049519733 0.07930717
-0.120038144 -0.7105064 0.26513708 0.29284105 -0.2804506 -0.23689762 -0.115996905 -0.5245149
-0.44025317 -0.045185328 -0.06683085 0.12292502 0.15300962 0.19663385 0.07797678 -0.12920675
-0.12624392 0.23505387 0.0199675 0.09085509 -0.27018583 -0.38537532 0.048547257 -0.23240566
0.33425504 0.16043323 0.20541053 0.2751039 0.32387704 -0.17325881 0.019113066 -0.07473125
0.04360636 0.29902676 -0.2018793 -0.14850435 0.22182089 -0.084128655 -0.1556926 0.051754445
-0.05545225 -0.043539483 -0.075058885 -0.3188886 0.009678733 -0.02849114 0.33706868 -0.38317052
-0.0752706 -0.098400995 -0.41078892 -0.14958736 -0.02827361 0.020258138 -0.16516332 0.18869358
0.058505632 -0.13209525 -0.13410251 -0.17385732

fc3.weight f4 [50, 100]
00000000: fbc7 5abc 693e 39be 388d c8bc 8418 edbe
00000010: eb82 673e d5c1 3a3d 18f4 71bd 1574 9dbd
00000020: 7b23 dabc a709 2c3e 1acf 14be a1ea 823c
00000030: 359e 09be 2913 6e3c cce9 31bc ce61 973e
00000040: e86a 51be a4f9 abbe 992b 25be de25 38be
00000050: d75b 33be 68dd e83d 5d91 ec3d dc0f 0a3e
00000060: d89e 69be 9c4b 143e 4db2 d53d 76af ecbd
00000070: 03fc b5bd e388 603d 0886 70be 5eba a2bd
00000080: 1f14 cbbe 5919 a5be eb46 e83d 5768 08be
00000090: 3a31 17be a159 543e 432f 0cbf 443a 3abd
000000a0: b0ea d2be 885c e5bc d01b 753e e257 45be
000000b0: d964 95be 39f8 f8bd e306 17be 77e0 763d
000000c0: f725 c33c 9831 14be fe10 c8bd 744f c7be
000000d0: bc20 f53d 2736 06be 8078 ee3e 3075 eb3a
000000e0: 4013 41bf df88 003e 5f07 d03d aff7 283d
000000f0: 0a1f de3e c8d8 aabd b4db 44bc 94dd 0fbf
00000100: 2d82 a3bb 280d e13e 3cfd 9cbe c469 6d3d
00000110: a6e1 b63d 2c7f 6a3e 2914 70be e0ea 213e
00000120: b958 2ebe 92f1 e43d 9439 9abe b6ea 263d
00000130: cad4 ed3c 616a a2bf cff3 093d f6af 633e
00000140: 3cbc 033c 3b37 ae3d cbe4 e0bf 20a5 78be
00000150: 247f 613d b94d 54be 569b 193e e490 13be
00000160: 8221 763e b05f c03d 6b8a c5bd a3fb 29be
00000170: c882 6ebe b9fd 16be 84b2 1bbe b56d 0a3d
00000180: 140b 83be c534 60be 8dd3 583c cd62 78bd
00000190: 4c84 733d 3b05 16be b220 c2bc b2e9 b53d
000001a0: 07d8 79bd 309b d7bd 9ebf b33e 2f0f b33c
000001b0: df6f 893d 5be6 543e 13fc 193d 55b3 22bd
000001c0: 7cb4 4fbe 312e 4cbe 78e6 85bd 290c 84be
000001d0: a0c4 89bd da83 f5bc 6339 0cbe 8eb5 86be
000001e0: d25d 2bbd a7fe bb3c 2552 07bf 0205 75bc
000001f0: 2e80 dcbd 77f4 573e 5f35 69be 4e4d 7bbe
00000200: 85ec 40be ef15 7a3d 8686 05bd fe18 83be
00000210: 2a48 c1bc 9799 11bf ed1c dc3c c34c 0a3d
00000220: 1011 cdbd 6f66 cebd 751a ddba 9567 19be
00000230: dcb9 bebd 32fc 843d c9f5 68be f583 00bf
00000240: 7f98 173e af85 3b3e 312d 30be a637 973d
00000250: a3fb b63d b84b d93b 2e61 703d 7bce a03e
00000260: 3fcf 1fbe bda3 04be 865f 8ebe f1b1 99bc
00000270: db72 1a3c a486 48be b5f5 c1be fe85 3cbc
00000280: 612e eebe 02c5 99be 88ef e7bd e3f8 043e
00000290: 63fe b2be d4ef a5bd 98e2 843c 5e90 66be
000002a0: b5d9 9b3c 3fe8 873e 069d 29bd c19e d3be
000002b0: 646d b0bd 84a2 80bc 4d16 c6be a6ef 163d
000002c0: 0167 f4bd fcfd 01be 970b 923d 1367 5ebd
000002d0: 5fba 9bbd b715 4f3d 18ea 5fbd c6fb 533d
000002e0: ed58 e8bb 8743 06bd cf53 233e 41c2 a0bd
000002f0: b996 12bf 5746 8d3d 01cb 583c e128 d73d
00000300: 78a6 f9bd 6d76 403e 442b 933c 46d2 9ebe
00000310: c034 8f3b 2c9e 38be 4ee1 e7ba db3e 753d
00000320: 60ae f5bc 0157 003c fee8 24be 8bfe a2bd
00000330: 50fa 5c3d aa2f 0bbe 2963 df3d f1e6 4cbc
00000340: 1464 243d 0cce e7bd 1f43 79bb 5826 f9bd
00000350: 5f7d 38bd 7c3e d43c e842 bebc 8340 0c3d
00000360: 33af 61bd e7f0 33be fa62 3fbe 35e4 68bd
00000370: e542 0a3e 54a3 1f3e c5ba 613d 94ab c33d
00000380: c113 81bd 4d02 41be f317 6fbe 65ec 483e
00000390: 9448 263d 8dd4 253e 76ac c13d 2136 21be
000003a0: 680c b43c 32da 8c3d 49ec 59bb d0e5 af3d
000003b0: 1591 3fbd f8f1 3dbe fc47 753e 4144 3e3e
000003c0: 0c0b 82be 37ca 0ebe 15dd 963e 7650 933e
000003d0: 1469 bdbd babf eebe f36b fe3d 0668 8d3d
000003e0: 00d0 063b cd27 fb3c ff7a 9d3c 5d94 483c
000003f0: fadf e4bd 02dd 8abe 122e 46be ba63 5cbd
-0.013353343 -0.18090214 -0.0244814 -0.46307766 0.22608535 0.04559501 -0.059070677 -0.076881565
-0.026628247 0.16800557 -0.14532128 0.01598102 -0.13439257 0.014530935 -0.010858964 0.29566807
-0.20450938 -0.33588898 -0.16129912 -0.17983195 -0.17515503 0.11370355 0.11551163 0.13482612
-0.228145 0.14481968 0.10434399 -0.11556904 -0.08885958 0.054818045 -0.23488629 -0.07945703
-0.3966379 -0.322459 0.113416515 -0.13321052 -0.14764872 0.20737316 -0.54759616 -0.045465723
-0.41194677 -0.027998224 0.23936391 -0.19271806 -0.29178503 -0.1215672 -0.14748721 0.06027266
0.023821814 -0.14472044 -0.09768866 -0.38927805 0.11969134 -0.13106595 0.4657631 0.0017964002
-0.7542 0.12552212 0.10157656 0.041251834 0.43383056 -0.08342129 -0.012015272 -0.56197476
-0.0049898834 0.4395535 -0.30661952 0.057962194 0.08929758 0.22900075 -0.2344519 0.15812254
-0.17026033 0.111788884 -0.30122054 0.04075118 0.02903213 -1.2688714 0.03367978 0.22235093
0.008040484 0.08506628 -1.7569822 -0.2428174 0.05505289 -0.20732774 0.15000662 -0.1441074
0.2403622 0.09393251 -0.09645542 -0.16599898 -0.23292077 -0.14745225 -0.15204817 0.03379603
-0.2559439 -0.2189513 0.013234031 -0.0606411 0.05945234 -0.14650433 -0.023697231 0.088824645
-0.060997035 -0.105276465 0.3510713 0.021857826 0.06710791 0.20790999 0.037593912 -0.039721806
-0.20283693 -0.19939496 -0.06538099 -0.25790527 -0.06726956 -0.029970098 -0.13693766 -0.2631039
-0.04183752 0.022948576 -0.5285972 -0.014954807 -0.10766636 0.2108935 -0.22774266 -0.24541208
-0.18840225 0.061056074 -0.032598995 -0.25605005 -0.02359398 -0.56874985 0.026869262 0.033764612
-0.1001302 -0.100781314 -0.0016868847 -0.1498092 -0.093127936 0.06493415 -0.2275001 -0.5020135
0.14804266 0.18312715 -0.17204739 0.07383661 0.08934715 0.006631341 0.058686428 0.31407532
-0.15606402 -0.12953086 -0.27807254 -0.018761607 0.009426798 -0.19582611 -0.37882772 -0.011506556
-0.4651976 -0.30033118 -0.11324984 0.12985568 -0.34959707 -0.08102384 0.01622133 -0.22516009
0.01902471 0.26544377 -0.041409515 -0.41332057 -0.086146146 -0.015702493 -0.3868889 0.03684964
-0.11933709 -0.12694544 0.07131117 -0.054297518 -0.07603907 0.05055782 -0.05466661 0.05175378
-0.007090679 -0.032779243 0.15949939 -0.07849551 -0.57261235 0.06898182 0.013231994 0.10505844
-0.121899545 0.18795176 0.017964967 -0.310198 0.004370302 -0.18029088 -0.0017691047 0.059874397
-0.029990375 0.007833243 -0.16104504 -0.079587065 0.053949654 -0.13592401 0.10907585 -0.012506233
0.040134504 -0.11318597 -0.0038034392 -0.121655166 -0.04504144 0.025908701 -0.023225263 0.03424121
-0.055098724 -0.17572366 -0.186901 -0.05685826 0.1350208 0.15589648 0.055109758 0.0955421
-0.06302596 -0.18848534 -0.2334898 0.19621427 0.04059656 0.16194363 0.094567224 -0.15743305
0.021978572 0.06877555 -0.003325241 0.08588755 -0.04676922 -0.18549335 0.23953241 0.18580724
-0.25399053 -0.13944326 0.29465547 0.28772324 -0.09248558 -0.4663065 0.124229334 0.069046065
0.0020570755 0.030658627 0.019223688 0.012242404 -0.11175533 -0.2712174 -0.19353512 -0.053806044

fc3.bias f4 [50]
00000000: eb5a 133e 5673 71bf 162e 403f 39da bc3d
00000010: 87bf 843e 0ea5 e93e b31c 823e 77b2 9cbe
00000020: a59c 52be e5e4 68bd 8c39 6b3e 7996 a33e
00000030: ee11 8a3d 6dcb 593e 2e2c d13e cb53 61bf
00000040: 8c06 463e d14b b5be c220 67bd 380c 49be
00000050: b982 973e 87b1 0d3f 29a9 5b3f 11fd 19be
00000060: e944 81be daf8 a0be ee7c b53e 17fc c63e
00000070: a899 d83e 8009 2bbe bf6a 7cbf 17df afbd
00000080: 4a69 833d ec1f 9b3d b191 06be cf4e fabe
00000090: 1352 753e 0431 46be 3206 f03d 6dfd b8bd
000000a0: ec77 de3e 71d3 b9be 777f e0bd 44a1 d1bd
000000b0: e24f 4fbe 591e e33e 4f3e c63e c6f7 bebc
000000c0: 5962 bcbe fa83 243f
0.14390151 -0.94316614 0.7507032 0.0922131 0.25927374 0.4563374 0.2541252 -0.30604908
-0.20567568 -0.056858916 0.22971171 0.3195074 0.06741701 0.21269007 0.4085402 -0.8801848
0.19338435 -0.35409406 -0.056427725 -0.19633567 0.2959192 0.5534901 0.8580499 -0.15037943
-0.25247887 -0.3143986 0.35446876 0.38864204 0.4230473 -0.16702843 -0.9860038 -0.08587473
0.06416567 0.07574448 -0.13141514 -0.4888825 0.2395709 -0.19354635 0.11719932 -0.09032712
0.43450868 -0.3629413 -0.10961812 -0.10235837 -0.20245317 0.4435909 0.38719413 -0.023311507
-0.36793783 0.6426388

fc4.weight f4 [1, 50]
00000000: 03f0 9a3c 2ad0 9a3c 4c8c 67bc 4eda 82bc
00000010: 3f97 563c 3563 133d 100f 343c af59 b6bc
00000020: 4e21 6ebc da8b cfbc 9a1d 1a3c f3a7 b93c
00000030: 6a0b adbc 7c35 7abc cfa2 14bc 3ffe 3b3c
00000040: 6f28 ea3c edf1 993c d5a6 1cbc 5f25 56bc
00000050: d9c8 833c cbad 9b3c fa1e a23c 1e69 293c
00000060: 60ab 123c 9ad4 0ebd 81dc 293c d1ac a03c
00000070: 684a c5bc 4902 c3bc dd22 34bc 3f97 2ebd
00000080: 6bd4 383c 1f6b a9bc fe97 a13c ed2d 193c
00000090: 57be a83c 3d69 cdbc b2d8 323c 279a e03c
000000a0: b52e 9abc 14d3 a9bd b335 6c3d 6f08 153c
000000b0: 4c8a 23bd ed32 4f3c 6079 c13c 374e 3abc
000000c0: 1ea2 1dbc cc19 41bc
0.018913275 0.018898088 -0.0141325705 -0.015973236 0.013097583 0.035983283 0.010989919 -0.022259561
-0.014534308 -0.025335241 0.009406472 0.022663092 -0.021123607 -0.015271541 -0.00907202 0.011474191
0.028583733 0.018792117 -0.00956126 -0.013070433 0.016086983 0.01900377 0.019790161 0.010340003
0.008951992 -0.03487072 0.010367514 0.019613655 -0.024083331 -0.0238048 -0.01099464 -0.04262471
0.011281113 -0.020680962 0.019725796 0.0093493285 0.020598574 -0.025074596 0.010915922 0.027417256
-0.0188211 -0.08292213 0.0576684 0.009096249 -0.039926812 0.012646419 0.023617446 -0.011371187
-0.009621171 -0.011785936
