Results/BS_256_EP_6000_TMAX_200_NOISE_0.1/checkpoint_actor.pth (torch_old, 72217 bytes, 8 tensors)

fc1.weight f4 [100, 24]
0	0x3e6a6958	0.22891748
1	0x3ecdf434	0.40225375
2	0xbda91272	-0.08255471
3	0xbd32ba4f	-0.04363471
4	0xbe9e0229	-0.30861023
5	0xbe8bb5ac	-0.27287042
6	0x3da6b806	0.081405684
7	0x3e897258	0.2684505
8	0x3e454ea5	0.19268282
9	0x3eadaf6c	0.339229
10	0xbb1eefd4	-0.0024251835
11	0xbd3205ea	-0.04346267
12	0xbeeac36f	-0.4585223
13	0xbf036703	-0.5132906
14	0xbccbd49c	-0.024881653
15	0x3b8a58f8	0.0042220317
16	0x3e8785bb	0.26469216
17	0x3ebbdb48	0.36690736
18	0xbdb3cdb0	-0.08779466
19	0xbd75ca0d	-0.060007144
20	0xbe8db3d6	-0.27676266
21	0xbecfdd6b	-0.40598616
22	0x3c0c9034	0.008579303
23	0x3e39fdf8	0.18163288
24	0x3cd9a540	0.026568055
25	0xbe724553	-0.23659258
26	0x3e1be7c7	0.15225135
27	0xbdb3b255	-0.087742485
28	0xbe5447fd	-0.20730586
29	0x3c85bc45	0.016325125
30	0xbde5acfd	-0.112146355
31	0x3e8e53ef	0.2779841
32	0xbe1370fd	-0.1439857
33	0xbeed8d85	-0.46397033
34	0xbe029409	-0.12751783
35	0xbe830886	-0.2559244
36	0xbe7042ce	-0.23462984
37	0x3e00b9c2	0.12570861
38	0x3dd97446	0.106178805
39	0x3d0c05ca	0.03418521
40	0x3da17d4a	0.07885225
41	0xbeafd8f7	-0.3434522
42	0xbd3a2658	-0.045446724
43	0xbdc58afe	-0.09645651
44	0xbe3821f1	-0.17981698
45	0xbf367228	-0.7126794
46	0x3d47eb38	0.048808306
47	0x3e5af3f1	0.21382119
48	0xbe38548e	-0.18001005
49	0xbd8d5db3	-0.06902637
50	0x3d7df78f	0.06200367
51	0x3e3ef629	0.1864859
52	0x3ea0858c	0.31351888
53	0xbd8e6381	-0.069525726
54	0x3d8be9c8	0.068316996
55	0xbe0be999	-0.13663329
56	0x3d11c9f3	0.035592984
57	0xbe891589	-0.26774243
58	0xbde1b860	-0.11021495
59	0xbb213c46	-0.0024602576
60	0x3e430928	0.19046462
61	0x3db3d122	0.08780123
62	0xbdb79b6e	-0.08965193
63	0x3e2899ef	0.16464971
64	0x3e5b3ebe	0.21410653
65	0xbd7ed1a0	-0.062211633
66	0x3c83dff5	0.016098002
67	0x3d868db5	0.06569997
68	0x3da46478	0.080269754
69	0x3ef335dc	0.4750203
70	0xbe189278	-0.14899623
71	0xbd6700dc	-0.056397304
72	0x3e463a44	0.19358164
73	0x3f14bf78	0.5810466
74	0x3e1c70b8	0.15277374
75	0x3e5b9a8b	0.21445672
76	0xbe0d049a	-0.13771287
77	0xbeb70ea2	-0.3575335
78	0xbbc71bc9	-0.0060763103
79	0xbdbf30e2	-0.093354955
80	0xbe3f3452	-0.18672302
81	0x3ed5db38	0.41768813
82	0x3e1186c4	0.14211565
83	0xbec8f5a4	-0.3924991
84	0xbc0fd84b	-0.008779596
85	0xbda63f69	-0.08117563
86	0xbd3f329e	-0.04667913
87	0xbe908d0c	-0.2823261
88	0x3db8143d	0.08988235
89	0x3cbf4f8a	0.023353357
90	0x3d8b3484	0.06797126
91	0x3d7c8803	0.06165315
92	0x3e928755	0.28618875
93	0x3e31bbcb	0.17356794
94	0xbe55e609	-0.20888533
95	0xbe32295e	-0.17398593
96	0x3e038c25	0.1284643
97	0x3ef49201	0.47767642
98	0xbbb4f610	-0.005522497
99	0xbe8f1a38	-0.2794969
100	0x3e02b000	0.12762451
101	0x3e035238	0.12824333
102	0x3d8484d6	0.06470649
103	0xbe5a731f	-0.21332978
104	0xbe3ed06a	-0.18634191
105	0x3e97393c	0.29535854
106	0xbdad506b	-0.08462604
107	0xbe8c1d8b	-0.2736629
108	0xbdef5d05	-0.11687664
109	0xbc0b0bbe	-0.008486686
110	0xbc6d9495	-0.014500757
111	0x3ba0d481	0.004908145
112	0xbe0ddb8f	-0.13853286
113	0x3ee95484	0.45572293
114	0x3e133a02	0.14377597
115	0xbe91235c	-0.2834729
116	0xbe92b5fe	-0.28654474
117	0xbea90fd0	-0.33019876
118	0x3d09ed00	0.033673286
119	0xbd80dfbd	-0.06292675
120	0xbcf50c5e	-0.029913124
121	0xbe2bc2c7	-0.1677352
122	0xbd47e52e	-0.048802547
123	0x3d9f41aa	0.07776196
124	0xbe9fc0af	-0.31201693
125	0xbda5c8aa	-0.08094914
126	0xb99e5dbd	-0.0003020595
127	0xbdf23393	-0.11826243
128	0xbe2a827a	-0.16651335
129	0xbe8c9026	-0.27453727
130	0xbd8711d2	-0.06595196
131	0x3b821aa6	0.003970462
132	0xbd590f0a	-0.052992858
133	0xbe4da7ca	-0.20083538
134	0x3dfd1df2	0.12359227
135	0xbd786824	-0.06064619
136	0xbddfe55c	-0.10932419
137	0xbe129f7d	-0.14318652
138	0xbd6ab6ea	-0.057303347
139	0x3e31c0b6	0.1735867
140	0x3eda416e	0.42628044
141	0xbeefb7ef	-0.46820018
142	0x3dc2eea4	0.09518173
143	0x3ceddf71	0.02903721
144	0xbcbbb255	-0.022912184
145	0xb945028f	-0.00018788337
146	0x3e11f5a3	0.14253859
147	0x3e222201	0.15833284
148	0xbdd19d1c	-0.10235044
149	0xbea7c9bf	-0.32771108
150	0xbe3ffb05	-0.187481
151	0xbc4eda02	-0.012625219
152	0x3e16a859	0.14712657
153	0x3e6d72db	0.23188345
154	0x3d6086b1	0.05481595
155	0xbe11e152	-0.14246109
156	0x3e37d1f6	0.17951187
157	0xbf03f099	-0.51539
158	0xbdca21b8	-0.098697126
159	0xbce85b9a	-0.028363992
160	0x3e0256a0	0.12728357
161	0x3dfb2572	0.122630015
162	0xbe326204	-0.17420202
163	0xbe6e9983	-0.23300748
164	0x3cbc946c	0.023019992
165	0xbf2d18d5	-0.67616016
166	0xbdab8ca4	-0.083764344
167	0x3ca4edb8	0.020132884
168	0xbe1e51fa	-0.15460959
169	0x3d9dae1b	0.076992236
170	0x3e4de204	0.2010575
171	0x3cb0cda0	0.021582425
172	0x3ebe4521	0.37162116
173	0xbd10d06f	-0.035355028
174	0xbe269243	-0.16266732
175	0x3e6f9c47	0.23399459
176	0xbd8d27aa	-0.06892331
177	0x3cb6ab12	0.02229837
178	0x3d827c2d	0.06371341
179	0xbcd3dfbc	-0.02586352
180	0x3ddcbe6f	0.1077851
181	0xbe76ce25	-0.24102075
182	0x3d3d7289	0.046251807
183	0x3e48c751	0.19607283
184	0x3dcfb3a5	0.10141686
185	0x3e879e9f	0.26488206
186	0xbd92e567	-0.07172661
187	0x3e460d3c	0.19340986
188	0xbe1f9b22	-0.15586522
189	0xbe750069	-0.23925938
190	0x3e0ec598	0.13942564
191	0x3ec08417	0.37600777
192	0xbdb60d50	-0.08889258
193	0x3da2806f	0.07934653
194	0xbd43de63	-0.047819506
195	0xbebf43ab	-0.37356314
196	0xbc135291	-0.008991853
197	0x3e040491	0.12892367
198	0xbcd1708b	-0.02556636
199	0xbe88035d	-0.26565066
200	0x3dcbc0c9	0.0994888
201	0x3e08d615	0.13362916
202	0xbde79343	-0.11307385
203	0xbec34959	-0.38141897
204	0xbdc854e4	-0.097818166
205	0x3e9713d7	0.29507324
206	0xbd03ac97	-0.032147016
207	0xbd8d8ba1	-0.06911398
208	0x3e40cd59	0.18828334
209	0x3d461245	0.048357267
210	0xbbf61201	-0.0075094705
211	0xbe360f5f	-0.17779301
212	0xbdd65145	-0.1046472
213	0x3e856157	0.26050827
214	0xbbf3477f	-0.0074242945
215	0xbde4228d	-0.111394025
216	0xbd106c88	-0.035259753
217	0x3dc6e993	0.097125195
218	0x3d96371f	0.07334732
219	0xbd833bfd	-0.06407926
220	0xbe1f580f	-0.15560935
221	0x3f125852	0.57166016
222	0xbc91597f	-0.01774287
223	0x3ddbdd52	0.10735573
224	0xbdb2150c	-0.086954206
225	0x3ec83920	0.39106083
226	0xbda44166	-0.08020286
227	0xbc045e93	-0.008079189
228	0xbe573c5f	-0.21019123
229	0x3d2085e5	0.03919019
230	0x3d8a156d	0.06742368
231	0x3e5f764d	0.21822472
232	0x3d45ee36	0.04832288
233	0x3ee5048c	0.44730031
234	0x3db70376	0.08936207
235	0xbe6c8354	-0.23096973
236	0xbc4f02e4	-0.0126349665
237	0xbf024633	-0.50888366
238	0xbdf9e35a	-0.12201567
239	0xbd2b8f33	-0.041884612
240	0xbd8b4409	-0.06800086
241	0x3eeec4ba	0.46634465
242	0xbdb8ffa7	-0.09033137
243	0x3dd62c26	0.104576394
244	0x3e63dbaa	0.22251764
245	0xbee9f670	-0.4569583
246	0x3dfbd276	0.122960016
247	0xbd8430df	-0.06454634
248	0xbe061b73	-0.13096409
249	0x3e37ed32	0.17961577
250	0x3cf7ba49	0.030240195
251	0x3db85d05	0.09002117
252	0x3e6b064b	0.2295162
253	0xbbcfd321	-0.006342307
254	0x3c87a538	0.016558275
255	0xbc4bf993	-0.01244964

fc1.bias f4 [100]
0	0x3e30375f	0.17208622
1	0x3dbde24c	0.09271678
2	0xbe9e00fc	-0.30860126
3	0x3e1301c9	0.1435615
4	0x3da1309e	0.07870601
5	0x3e09725f	0.13422535
6	0xbe167e4c	-0.14696616
7	0xbe520958	-0.20511377
8	0xbeb15a03	-0.34638986
9	0x3e2461e9	0.16052975
10	0xbe37265b	-0.17885725
11	0x3e681762	0.2266517
12	0xbd7b2e26	-0.061323307
13	0xbddd31a8	-0.10800487
14	0x3e1145d2	0.1418679
15	0xbea00bbb	-0.3125895
16	0xbd156c6d	-0.036480356
17	0x3d88bfec	0.06677231
18	0xbe8e5186	-0.27796572
19	0x3a5335ec	0.0008057046
20	0xbe2e695c	-0.17032379
21	0xbd239df2	-0.03994555
22	0xbeb8b7c2	-0.36077696
23	0xbb5a8a84	-0.0033346722
24	0xbd9b97a0	-0.075972795
25	0xbdd27107	-0.102754645
26	0xbeca1253	-0.39467105
27	0xbe721af6	-0.23643097
28	0xbdda6288	-0.106633246
29	0xbe6cc124	-0.23120552
30	0xbdbbf46c	-0.09177479
31	0x3e14e087	0.14538775
32	0xbe0c0ae1	-0.13676025
33	0x3e905a8f	0.2819409
34	0x3d9eccf8	0.077539384
35	0x3e5a91e5	0.21344717
36	0x3c06dd43	0.008231464
37	0x3b9fe609	0.0048797172
38	0xbdaf9fa4	-0.08575371
39	0x3e360d1f	0.17778443
40	0x3e2ddcc8	0.16978753
41	0xbcf176cf	-0.029475598
42	0xbc84981f	-0.016185818
43	0xbccdece6	-0.025137376
44	0xbcec4b89	-0.028844612
45	0x3e1e7534	0.15474397
46	0xbdca6b15	-0.098837055
47	0x3daa2474	0.08307734
48	0xbd63a5e8	-0.055578142
49	0x3d9755b7	0.07389396
50	0x3e0274f2	0.12739924
51	0x3e64aa99	0.22330703
52	0xbd9c05b0	-0.07618272
53	0x3d6fd3e9	0.058551703
54	0x3e9ffaa1	0.31245902
55	0xbe15b2a3	-0.14618926
56	0xbe34c341	-0.17652608
57	0x3e548c70	0.20756698
58	0x3e10c0cd	0.14136048
59	0x3d79779a	0.060905077
60	0xbe0d3b9d	-0.13792272
61	0xbe42c42f	-0.1902015
62	0xbbbfd3ab	-0.00585409
63	0xbe915cfa	-0.28391248
64	0x3dfa5e55	0.12225024
65	0x3d37f47e	0.0449109
66	0xbc3cafce	-0.0115165245
67	0xbde14cef	-0.11001002
68	0xbe77ee01	-0.24211885
69	0x3ea9460c	0.33061254
70	0x3e8826de	0.26592153
71	0xbe1e07ff	-0.15432738
72	0xbe9dc2bc	-0.30812633
73	0xbcf627cc	-0.030048274
74	0xbd964ebe	-0.07339238
75	0xbe6f5c64	-0.23375088
76	0x3eb7cbb0	0.3589759
77	0xbe8fcbfb	-0.28085312
78	0xbdd8c144	-0.105837375
79	0x3d35645a	0.044285156
80	0xbe95a365	-0.29226223
81	0x3aa46edf	0.0012545249
82	0xbd46dab7	-0.048548426
83	0xbd9bbb35	-0.07604066
84	0xbe318724	-0.17336708
85	0xbe850f64	-0.25988305
86	0x3e339ac2	0.17539504
87	0xbdb17136	-0.086641714
88	0xbe37d659	-0.17952861
89	0x3e39f7ca	0.1816093
90	0xbd8cca6a	-0.06874545
91	0x3e675c98	0.22593915
92	0x3d9e5707	0.07731443
93	0x3da0679f	0.07832264
94	0xbd84c12c	-0.06482157
95	0x3e084997	0.13309322
96	0x3ee07c14	0.43844664
97	0x3e7d0fea	0.24713102
98	0xbe07f509	-0.13277067
99	0x3e073fee	0.13207981

fc2.weight f4 [100, 100]
0	0xbe2551f3	-0.16144542
1	0xbdf7a15a	-0.12091322
2	0xbbd73f24	-0.0065688062
3	0x3ddbcf3f	0.107328884
4	0xbde29996	-0.110644504
5	0xbd54091b	-0.051766496
6	0xbdde47ec	-0.10853562
7	0x3dcef403	0.10105135
8	0xbde9ba26	-0.11412458
9	0x3a2db7b6	0.00066268013
10	0x3d588f1a	0.052870847
11	0xbe03b74d	-0.12862892
12	0x3d97d301	0.07413293
13	0x3e75d18a	0.24005714
14	0xbdc17f15	-0.09448067
15	0xbde4c2a6	-0.11169939
16	0x3d59ec44	0.053203836
17	0xbe099ba4	-0.13438278
18	0x3d30f21a	0.043199636
19	0xbedb7055	-0.4285914
20	0xbdc253e4	-0.09488657
21	0xbcc830e6	-0.02443738
22	0xbda894be	-0.08231495
23	0xbe9c20d7	-0.30493805
24	0xbe02e9b0	-0.12784457
25	0xbda6b57b	-0.081400834
26	0xbcb43bcc	-0.02200117
27	0xbe4676a2	-0.19381192
28	0xbe16e470	-0.1473558
29	0xbbbec624	-0.00582196
30	0xbc8e7a65	-0.017392347
31	0xbe023f30	-0.12719417
32	0xbdb07953	-0.08616891
33	0xbde2be8a	-0.11071499
34	0x3e0d2899	0.13785018
35	0xbdfbb48c	-0.12290296
36	0xbdaf19ec	-0.08549866
37	0x3e2abf85	0.16674621
38	0x3d14f78e	0.0363689
39	0xbe864127	-0.26221582
40	0xbcbd5e03	-0.023116117
41	0xbe1527e5	-0.14566
42	0x3d424516	0.047429167
43	0xbd389301	-0.04506207
44	0xbe0ce1af	-0.13757966
45	0xbda414fe	-0.080118164
46	0xbdd75ba2	-0.105155244
47	0x3e0deef2	0.13860682
48	0xbd8f2583	-0.06989577
49	0x3d7c8ff8	0.061660737
50	0xbba1976e	-0.004931382
51	0x3e20e6fb	0.15713112
52	0x3cf366fb	0.02971219
53	0x3e2e9d36	0.17052159
54	0xbe0827b4	-0.13296396
55	0x3cc587f4	0.024112679
56	0xbd1a9a3e	-0.037744753
57	0x3d9cce3e	0.07656525
58	0x3dca4a80	0.09877491
59	0x3c3f12a3	0.011662158
60	0xbebee23d	-0.3728198
61	0xbe92aecd	-0.28648987
62	0x3e23b407	0.15986644
63	0x3d47e85e	0.048805587
64	0xbd266c64	-0.040630713
65	0xbd8659cd	-0.06560097
66	0xbcf10ca4	-0.029424973
67	0x3d595eef	0.05306905
68	0xbe17a0d7	-0.1480745
69	0x3d639097	0.055557813
70	0x3d9fb54e	0.07798253
71	0xbc873311	-0.016503843
72	0x3d5b066d	0.053472925
73	0x3d1937be	0.037406676
74	0x3de8965f	0.11356806
75	0x3df55ff7	0.119811945
76	0xbdde596e	-0.10856901
77	0x3dc4275c	0.0957782
78	0xbc92b5ae	-0.017908897
79	0xbdb8660c	-0.09003839
80	0xbdb32e16	-0.087490246
81	0x3d5a453e	0.05328869
82	0xbdd37af5	-0.103261866
83	0x3e29779e	0.16549537
84	0xbe808100	-0.2509842
85	0x3e3b4cd0	0.1829102
86	0x3dbbf183	0.09176924
87	0x3d49e315	0.049288828
88	0xbdccc190	-0.099978566
89	0xbe110178	-0.14160717
90	0xbe1bd549	-0.1521808
91	0xbc339612	-0.0109610725
92	0xbd601b2b	-0.05471341
93	0x3d0e86c5	0.034796495
94	0xbdf4960b	-0.11942681
95	0x3e14e6e7	0.14541207
96	0x3daea3bf	0.08527326
97	0xbdf4ca3d	-0.119526364
98	0x3e176462	0.14784387
99	0x3dfa82a4	0.12231949
100	0x3e568722	0.20949987
101	0xbd325506	-0.043538116
102	0x3d6fd0a1	0.058548573
103	0xbe2853b0	-0.16438174
104	0xbe563d64	-0.20921856
105	0xbde0dd8c	-0.10979757
106	0x3e105b79	0.14097394
107	0xbb5577ec	-0.00325727
108	0x3bde6191	0.006786533
109	0xbd5272fc	-0.05137919
110	0xbe4335ed	-0.1906354
111	0x3e47ff43	0.19530968
112	0xbd605448	-0.054767877
113	0xbd8892af	-0.06668603
114	0xbce5c8ca	-0.028049845
115	0xbd521d5f	-0.05129754
116	0xbc0f6c3c	-0.008753832
117	0xbd6d5a42	-0.057947405
118	0x3d339337	0.043841567
119	0x3d954680	0.072888374
120	0xbd9e915c	-0.07742569
121	0xbd471e0b	-0.048612636
122	0x3e07dda7	0.13268147
123	0xbb241bbb	-0.0025040943
124	0xbe97a883	-0.29620752
125	0xbdc9bd92	-0.09850611
126	0x3dcd1d64	0.100153714
127	0xbdcb727e	-0.09933947
128	0xbdd303ee	-0.10303484
129	0xbe05dba7	-0.13072072
130	0xbe099cb5	-0.13438685
131	0xbd906710	-0.070509076
132	0xbdfccc71	-0.123436816
133	0x3c944e42	0.018103722
134	0xbc8c4465	-0.017122457
135	0xbe5bcacc	-0.2146408
136	0xbf4e6310	-0.8061991
137	0x3d851fdc	0.06500217
138	0x3d8f0fa3	0.06985404
139	0xbc82215a	-0.015885044
140	0x3b0fe91d	0.0021959015
141	0xbd5fd9f1	-0.054651204
142	0xbe03d7ad	-0.12875243
143	0xbc59d964	-0.013296459
144	0xbc6e3c7e	-0.01454079
145	0x3e3cad5d	0.18425508
146	0x3dcc7fce	0.09985314
147	0xbd97c7b7	-0.074111395
148	0x3e0673d0	0.13130116
149	0x3e209e4f	0.1568539
150	0xbd84dd27	-0.06487494
151	0x3cba797d	0.022763008
152	0x3d8f09fc	0.06984326
153	0xbe2d39a8	-0.16916525
154	0xbc2c2a5c	-0.010508146
155	0x3d6129d4	0.05497153
156	0x3d160ba0	0.03663218
157	0xbc1507c5	-0.009096091
158	0xbc9805e5	-0.018557498
159	0x3e4a8a43	0.19779305
160	0xbddaffad	-0.106932975
161	0xbeefa545	-0.46805778
162	0xbd7fe772	-0.062476583
163	0xbab95588	-0.001413987
164	0x3dfbe44a	0.12299402
165	0x3e752ff4	0.23944074
166	0xbd1a36e3	-0.03765
167	0xbd378005	-0.044799823
168	0xbd3c0f14	-0.045912817
169	0x3ce3c117	0.027802033
170	0x3c35b0ca	0.011089513
171	0xbd0296d0	-0.031882107
172	0x3d842dd0	0.064540505
173	0x3d2313a9	0.03981367
174	0xbe7c6ede	-0.24651667
175	0xbc68a022	-0.014198335
176	0xbccd9625	-0.025096009
177	0xbdfa6ef9	-0.122281976
178	0xbd4eccb5	-0.050488193
179	0xbe566d98	-0.20940244
180	0x3c11e536	0.008904746
181	0x3d1b9564	0.037984267
182	0xbd86a2a3	-0.06573989
183	0x3c67fa55	0.014158805
184	0xbdc80ece	-0.09768449
185	0x3d3b97c5	0.045799036
186	0xbd4c15aa	-0.049825348
187	0x3d98959b	0.0745041
188	0x3df8471a	0.121229365
189	0x3c84d05d	0.016212637
190	0x3e498fee	0.19683811
191	0x3d054772	0.03253884
192	0x3dddbb7d	0.10826776
193	0xbd8255c7	-0.06364017
194	0x3e64c27d	0.22339816
195	0xbe48f328	-0.19624007
196	0x3db957a5	0.0904992
197	0xbe61e422	-0.22059682
198	0xbd763085	-0.060104866
199	0xbdba2a3b	-0.09090086
200	0x3dea7dde	0.114497885
201	0xbc0bbb40	-0.008528531
202	0xbc281ca4	-0.010260735
203	0xbd9629d5	-0.073321976
204	0xbe4f7780	-0.2026043
205	0xbd4be3b1	-0.04977769
206	0x3caf6f3c	0.021415345
207	0x3b897a93	0.00419552
208	0x3bef5cc1	0.0073047583
209	0x3def0fe3	0.11672952
210	0xbe25018a	-0.16113868
211	0xbda1c281	-0.07898427
212	0xbe3bfd15	-0.18358262
213	0x3d582590	0.052770197
214	0x3cd70fa9	0.026252585
215	0xbd56757d	-0.05235814
216	0xbd93ebf8	-0.07222742
217	0xbe9a766c	-0.30168474
218	0x3d5d0334	0.053958133
219	0xbdb7e524	-0.08979252
220	0xbe027332	-0.12739256
221	0x3dda22a1	0.10651136
222	0xbd5b9907	-0.053612735
223	0x3d7870bc	0.060654387
224	0xba76c3e1	-0.00094133435
225	0x3d870ae2	0.065938726
226	0xbbbca5f4	-0.005757088
227	0xbe3af044	-0.18255717
228	0xbdc25b95	-0.09490124
229	0x3de3282c	0.110916466
230	0xbc1041ff	-0.008804797
231	0xbd3f9c6c	-0.046780035
232	0x3dab0f48	0.08352524
233	0x3d82d220	0.063877344
234	0xbdf865ed	-0.12128816
235	0x3d91659e	0.0709946
236	0xbdf2152a	-0.11820443
237	0x3cbcc73f	0.023044227
238	0x3e629640	0.22127628
239	0x3d94bca1	0.072625406
240	0x3e0aa92d	0.13541098
241	0xbc9c16dd	-0.01905387
242	0xbdfbd2a1	-0.12296034
243	0xbe090576	-0.1338099
244	0x3daf408d	0.08557234
245	0xbd4003ed	-0.046878744
246	0x3d8384ad	0.0642179
247	0xbe27b420	-0.16377306
248	0x3e262f5d	0.16229005
249	0x3e38ded0	0.18053746
250	0x3da289a2	0.079364076
251	0xbc28c99a	-0.010301972
252	0x3d3001f2	0.042970605
253	0xbd2f2cc1	-0.04276729
254	0xbd0f4d17	-0.034985628
255	0x3dfc99a8	0.12333995

fc2.bias f4 [100]
0	0x3cddb56b	0.027064046
1	0x3cf4bcac	0.029875122
2	0x3cddbb5c	0.027066879
3	0x3dcbb5cc	0.099467844
4	0xbe1df9ee	-0.15427372
5	0x3c2c34bb	0.010510619
6	0xbe03539c	-0.12824863
7	0xbd558bec	-0.052135393
8	0x3d470326	0.048586987
9	0xbbadb9d9	-0.005301696
10	0xbdc1bb2b	-0.094595276
11	0x3d0d56e8	0.03450671
12	0x3da3ecac	0.08004126
13	0x3df104db	0.11768504
14	0xbcf07aff	-0.029355524
15	0x3d9fe1e0	0.07806754
16	0x3e096675	0.1341799
17	0xbe12fc38	-0.14354026
18	0xbd863088	-0.06552225
19	0xbd0a9982	-0.033837803
20	0xbd3b876b	-0.04578344
21	0xbdf26afa	-0.118368104
22	0xbd42ac3e	-0.047527544
23	0xbd93ade6	-0.07210903
24	0xbe11d55d	-0.14241548
25	0x3ccc7b08	0.02496101
26	0x3d592f8e	0.053023867
27	0x3d9e2369	0.07721598
28	0x3e1bf9d0	0.15232015
29	0xbdc6789f	-0.096909754
30	0xbc884cdd	-0.016638214
31	0x3da7358d	0.08164511
32	0x3da3f913	0.080064915
33	0x3dc940c4	0.09826806
34	0xbdb03b09	-0.0860501
35	0xbd86a251	-0.06573928
36	0x3d876bcb	0.06612357
37	0x3d9336a7	0.071881585
38	0xbd8556d4	-0.06510702
39	0x3c5f21cb	0.013618897
40	0x3dcf63d3	0.10126462
41	0xbe1d3bb9	-0.15354814
42	0xbceebcd8	-0.029142782
43	0xbde4154f	-0.11136877
44	0x3d3d3936	0.04619714
45	0xbdc9a9a5	-0.0984681
46	0xbd15cd4b	-0.036572736
47	0xbdebaf6b	-0.11508068
48	0x3c479dac	0.012183588
49	0x3dd6e3e7	0.10492688
50	0xbdf858f2	-0.1212634
51	0x3e05baa5	0.1305948
52	0xbd2a700b	-0.04161076
53	0x3e196e39	0.14983453
54	0xbe2dcb51	-0.1697209
55	0x3e0e05d4	0.13869411
56	0xbd8bc2a3	-0.068242334
57	0xbdeff416	-0.117164776
58	0xbc8f9459	-0.017526792
59	0xbdc29825	-0.095016755
60	0xbda6364a	-0.081158236
61	0xbdb5ce75	-0.08877269
62	0x3ca02d01	0.01955271
63	0xbd3e2012	-0.046417303
64	0xbe237ade	-0.15964839
65	0xbe79de7b	-0.24401276
66	0x3c837865	0.01604862
67	0x3c23f885	0.010007982
68	0x3c94093c	0.01807081
69	0xbdb701c6	-0.08935885
70	0xbd9bed0b	-0.07613572
71	0xbdef2660	-0.11677241
72	0xbd5a5594	-0.05330427
73	0x3d090e93	0.033461165
74	0xbe16cc8e	-0.14726469
75	0x3d176194	0.036958292
76	0xbd11f219	-0.035631273
77	0x3dd869e1	0.1056707
78	0x3d82057f	0.063487045
79	0x3d9f37eb	0.077743374
80	0xbddb65cb	-0.10712775
81	0xbe09504a	-0.13409534
82	0xbda251c5	-0.079257526
83	0xbe24ef3e	-0.16106889
84	0x3e0161f9	0.1263503
85	0xbdeb1982	-0.114794746
86	0x3d36eccd	0.044659425
87	0xbce8e4f1	-0.02842948
88	0x3d5a315e	0.053269736
89	0xbd6e2d91	-0.058148924
90	0x3df3c573	0.11902895
91	0x3bf9ceba	0.0076235207
92	0xbdfed0a2	-0.12442137
93	0xbdb20fcd	-0.0869442
94	0xbe301d51	-0.17198683
95	0x3e2e1fb8	0.17004287
96	0xbe202c60	-0.15641928
97	0x3df550c5	0.11978296
98	0xbe121a37	-0.14267813
99	0x3c056a08	0.008142956

fc3.weight f4 [50, 100]
0	0x3d6caa23	0.057779443
1	0x3e200120	0.15625429
2	0xbe52e2d4	-0.2059434
3	0x3d63a2d7	0.055575218
4	0x3dbc90f8	0.09207338
5	0x3d5a71df	0.053331252
6	0xbe363783	-0.17794614
7	0x3de970ec	0.11398491
8	0x3e117aea	0.14207044
9	0xbd12923e	-0.035784
10	0x3e0f87e7	0.14016686
11	0xbdeabf34	-0.1146225
12	0x3c0d0a25	0.008608376
13	0xbd84b708	-0.06480223
14	0x3d0ac7ff	0.033882137
15	0xbd2d5ea1	-0.042326573
16	0xbd63d429	-0.055622254
17	0x3df7a4c5	0.12091974
18	0xbe0fd166	-0.14044723
19	0x3c929015	0.01789097
20	0x3e1db6fb	0.15401833
21	0x3cef147a	0.029184569
22	0x3d6ecf25	0.058303017
23	0xbd9106af	-0.07081353
24	0xbe9bbae5	-0.30416027
25	0x3e8d3848	0.27582002
26	0x3dbc3da8	0.091914475
27	0xbe8a3bc5	-0.26998726
28	0x3c620b66	0.013796663
29	0x3e7b2739	0.24526681
30	0xbd0d97d0	-0.034568608
31	0x3df7719f	0.120822184
32	0x3e020cc6	0.12700185
33	0x3a66d705	0.0008805844
34	0x3dbcd745	0.09220747
35	0xbd152fb0	-0.03642243
36	0xbc9fbde4	-0.019499727
37	0x3d2d20ac	0.042267486
38	0xbd231ffe	-0.039825432
39	0x3e1f8c77	0.15580927
40	0xbe6fa8ae	-0.2340419
41	0x3d64e62d	0.055883575
42	0xbe114a81	-0.14188577
43	0x3d2e4b0e	0.042552046
44	0xbe19ead9	-0.15030994
45	0xbd602fdd	-0.054733146
46	0xbd5cbbd5	-0.053890068
47	0x3db96106	0.09051709
48	0x3b8377b1	0.004012071
49	0xbe130480	-0.14357185
50	0xbe9ff150	-0.31238794
51	0x3e627991	0.22116686
52	0x3e2c3180	0.16815758
53	0xbe05c369	-0.13062824
54	0x3d592895	0.053017218
55	0x3d4c07ce	0.04981213
56	0x3d1d34b0	0.038380325
57	0xbea8b981	-0.32954028
58	0xbd94ca2c	-0.07265124
59	0xbc90159f	-0.017588435
60	0x3d092dd5	0.033490974
61	0x3d378460	0.044803977
62	0x3dfe9b9f	0.12432026
63	0xbd454b8f	-0.04816776
64	0x3de74c30	0.112938285
65	0x3e014a83	0.1262608
66	0xbc214fab	-0.0098456545
67	0x3ec83ece	0.39110416
68	0xbba30ada	-0.004975659
69	0x3e484e61	0.19561149
70	0xbe1a234b	-0.15052526
71	0x3c5be403	0.013421061
72	0x3d85c7ff	0.06532287
73	0xbd80a38c	-0.06281194
74	0x3e7f058c	0.2490446
75	0x3e064347	0.13111602
76	0x3e3f354d	0.18672676
77	0x3ebdd993	0.37080058
78	0x3dd0f00c	0.10202035
79	0xbd8c2b19	-0.06844158
80	0x3e16a78e	0.14712355
81	0xbdd0442c	-0.10169253
82	0x3d21c1d3	0.039491486
83	0x3e9af4b7	0.30264828
84	0x3c2723bf	0.010201394
85	0xbdcd9062	-0.100373045
86	0x3ccc56e0	0.024943769
87	0xbe27909e	-0.16363761
88	0xbd7ac14d	-0.061219502
89	0xbd7886ed	-0.06067555
90	0xbdca52ed	-0.09879098
91	0x3e6bbde5	0.23021658
92	0x3dc01dae	0.09380661
93	0x3cbec115	0.023285428
94	0x3e0d3ca1	0.1379266
95	0xbeaae62f	-0.3337874
96	0x3e5c6b82	0.21525386
97	0x3b2d9bb6	0.0026490516
98	0xbdb484eb	-0.088144146
99	0x3e087639	0.13326348
100	0x3d3e1db8	0.04641506
101	0xbec4f6b0	-0.38469458
102	0x3dcb0e98	0.09914893
103	0x3c7249cf	0.014788105
104	0xbead6877	-0.33868763
105	0xbd8999c1	-0.06718779
106	0x3e0d133e	0.13776872
107	0x3a5de95b	0.00084652536
108	0xbe1e8b22	-0.15482762
109	0x3d187339	0.03721926
110	0xbe2661f6	-0.16248307
111	0x3e480cff	0.19536208
112	0xbe0eb812	-0.13937405
113	0xbd8d8970	-0.0691098
114	0x3c9e3858	0.019313976
115	0x3e76a820	0.24087572
116	0xbd0d46ba	-0.03449128
117	0x3e04a862	0.12954858
118	0x3e1c0fa1	0.15240337
119	0x3c9f1a59	0.019421743
120	0xbbfaf25d	-0.0076582865
121	0xbcfabc47	-0.030607356
122	0x3cf0630c	0.029344104
123	0xbd22e853	-0.039772343
124	0x3e931eb0	0.2873435
125	0xbe45d78b	-0.19320504
126	0x3d6ac612	0.0573178
127	0x3e85d313	0.261376
128	0x3cbf19e2	0.023327772
129	0xbe955fe8	-0.29174733
130	0xbdecb792	-0.11558451
131	0xbe139010	-0.14410424
132	0xbdb9d5a4	-0.09073952
133	0x3de19f36	0.11016695
134	0x3d8dfc4f	0.0693289
135	0x3d2ecd22	0.0426761
136	0xbe36df00	-0.17858505
137	0x3dcf6309	0.10126311
138	0xbdbb3c94	-0.09142414
139	0xbedac555	-0.42728677
140	0x3e9091a9	0.2823613
141	0xbc41cfa5	-0.0118292915
142	0x3dceddcf	0.101009004
143	0xbaba3e1f	-0.0014209187
144	0x3d65ded8	0.056120723
145	0x3d98b18d	0.0745574
146	0x3d774afe	0.060374252
147	0x3e2d3c77	0.16917597
148	0xbd6a8331	-0.05725402
149	0xbd6ffcd9	-0.058590744
150	0x3e41544e	0.18879816
151	0xbcad19a0	-0.021130383
152	0xbea37ec6	-0.31932658
153	0x3de7e31a	0.11322613
154	0x3c5b8d11	0.013400332
155	0x3dabd180	0.08389568
156	0x3db5bebb	0.088742696
157	0x3e4aaa08	0.19791424
158	0xbe7d7f2d	-0.24755545
159	0x3cecd3c3	0.02890957
160	0xbb387f29	-0.0028151965
161	0xbeba57a1	-0.3639498
162	0x3d96456f	0.07337462
163	0x3db50203	0.08838274
164	0x3d9fa089	0.077942915
165	0x3de8a3fe	0.11359404
166	0x3b5ec53b	0.003399207
167	0xbea10b94	-0.31454146
168	0x3d471054	0.048599556
169	0xbe8d5e90	-0.27611208
170	0x3e683d53	0.22679643
171	0x3e8bd422	0.27310282
172	0x3dde7886	0.10862832
173	0x3e44d291	0.1922095
174	0x3d91a08c	0.071107
175	0xbdc67591	-0.09690393
176	0xbcd89671	-0.026438924
177	0xbe7c3ba6	-0.24632129
178	0xbe250242	-0.16114143
179	0xbdb294c0	-0.08719778
180	0xbd1f0d3b	-0.038830977
181	0x3db16a3e	0.08662842
182	0x3d64462f	0.055730995
183	0xbe639937	-0.22226416
184	0x3d70c8d2	0.058785267
185	0x3e4f506f	0.20245527
186	0x3db5fe88	0.088864386
187	0xbdba5eff	-0.0910015
188	0x3e0a407c	0.13501161
189	0xbcb32dd6	-0.021872442
190	0xbd3a4038	-0.0454714
191	0xbe603ca6	-0.21898136
192	0xbc23bbfa	-0.009993548
193	0xbd8b22f3	-0.067937754
194	0x3d17d47d	0.03706788
195	0x3df17c5d	0.117912985
196	0x3d837cb8	0.064202726
197	0xbd3195c3	-0.043355715
198	0x3dbaca0a	0.09120567
199	0x3d738384	0.059451595
200	0x3ab99386	0.0014158345
201	0xbded982e	-0.116012916
202	0x3e2575f9	0.16158284
203	0xbe771daa	-0.2413241
204	0xbcdf6890	-0.027271539
205	0xbd376db7	-0.044782367
206	0x3dd53cb7	0.10411971
207	0x3c2d2ac6	0.01056928
208	0xbe6a0217	-0.2285236
209	0x3d82232c	0.06354365
210	0xbe04b08c	-0.12957972
211	0xbc0d21c5	-0.008614008
212	0x3d3d17b7	0.046165194
213	0x3ddb35ab	0.10703596
214	0x3d509b30	0.05092925
215	0x3e0bf1e4	0.13666493
216	0xbd297617	-0.041372385
217	0x3e3bce87	0.18340503
218	0x3c8f18a8	0.017467812
219	0x3db46fe1	0.08810402
220	0x3cb8718e	0.022515085
221	0xbcff393f	-0.031155227
222	0x3dd92a14	0.10603729
223	0x3dfe0c03	0.12404635
224	0x3edc5be1	0.43038848
225	0x3deb92af	0.11502587
226	0x3db3c270	0.087773204
227	0x3e1ea634	0.15493089
228	0x3cef5999	0.029217528
229	0xbd7e4599	-0.062078092
230	0xbe5d4d24	-0.21611458
231	0xbe367089	-0.17816366
232	0xbcf538b2	-0.029934261
233	0x3d8a8306	0.06763272
234	0x3e0d3941	0.13791372
235	0x3bdb4863	0.006691979
236	0xbdc930f7	-0.098237924
237	0xbe99d448	-0.3004477
238	0xbe42cb03	-0.19022755
239	0xbd78af05	-0.060713787
240	0xbddafa79	-0.10692305
241	0xbe54365f	-0.20723866
242	0x3e80d4cc	0.2516235
243	0x3d1d5e30	0.038419902
244	0xbc83c2f0	-0.016084164
245	0x3d2c976f	0.042136606
246	0x3db09b2d	0.086233474
247	0xbc907000	-0.01763153
248	0xbdc08ac5	-0.09401468
249	0x3c18d0b1	0.0093271
250	0x3e06f0ee	0.13177845
251	0xbb1461ef	-0.002264138
252	0x3d019b0f	0.031642016
253	0xbcdd03da	-0.026979376
254	0xbe14ce1c	-0.1453175
255	0x3e2979b9	0.1655034

fc3.bias f4 [50]
0	0xbdcd0fdd	-0.10012791
1	0x3ddd6e1c	0.10812017
2	0x3d568f29	0.052382622
3	0xbe1521cb	-0.14563672
4	0xbdbe2213	-0.09283843
5	0x3e268ce2	0.1626468
6	0x3e1d956d	0.15389033
7	0x3d9321e2	0.07184197
8	0xbcdc2bb1	-0.026876302
9	0xbe2b443a	-0.16725245
10	0x3d3febb7	0.046855655
11	0x3d4a6bba	0.049419142
12	0xbe07bd0f	-0.13255714
13	0x3d8bb4ca	0.06821592
14	0xbd94c746	-0.07264571
15	0xbcdd1ec5	-0.026992211
16	0xbd7c7e19	-0.061643694
17	0x3c4411dd	0.01196715
18	0xbd24d88e	-0.040245585
19	0x3d866dd8	0.0656392
20	0xbaa6243b	-0.0012675592
21	0x3bf5fa56	0.007506649
22	0xbdb77d71	-0.08959473
23	0xbcc0ffaf	-0.02355942
24	0xbdefaa1c	-0.11702368
25	0x3c625f7c	0.013816711
26	0x3da11860	0.07865977
27	0x3da4b6a9	0.08042652
28	0x3de56f94	0.112029225
29	0x3d83b032	0.06430091
30	0xbbd691be	-0.0065481355
31	0xbd5f6c8c	-0.054546878
32	0xbcca8486	-0.024721395
33	0xbdeb06fa	-0.1147594
34	0x3e068865	0.13137968
35	0xbd590e2a	-0.052992024
36	0xbdeabd90	-0.114619374
37	0x3e6681b6	0.22510418
38	0xbd06cac1	-0.032908205
39	0xbd933934	-0.07188645
40	0x3e1656ed	0.14681597
41	0x3da5f9d1	0.08104289
42	0x3d2e05bb	0.042485934
43	0xbe0fd1c7	-0.14044867
44	0xbdbbc09a	-0.09167595
45	0xbe35743b	-0.1772012
46	0x3deb97ad	0.11503539
47	0x3ddfbc66	0.10924606
48	0x3d2e67c9	0.042579446
49	0xbc1366ed	-0.008996707

fc4.weight f4 [2, 50]
0	0xbd567ab9	-0.05236313
1	0x3dce6683	0.10078146
2	0x3f1aeaba	0.60514414
3	0xbdd27855	-0.10276858
4	0xbe418ec0	-0.18902111
5	0x3e80c2cb	0.25148615
6	0x3dc499de	0.0959966
7	0x3f1d35fd	0.61410505
8	0x3e5f5284	0.21808821
9	0xbd0d2449	-0.034458432
10	0x3f2b717d	0.66970044
11	0xbd9fccb2	-0.078027144
12	0xbe1c6259	-0.15271892
13	0xbe36e76b	-0.17861716
14	0x3e923288	0.28554177
15	0x3ec563a0	0.3855257
16	0x3e1ad3f8	0.15119922
17	0xbe7fdcfe	-0.24986646
18	0xbe071d34	-0.13194734
19	0x3f50ac9a	0.8151337
20	0x3e217c82	0.15770152
21	0x3ec5ea4b	0.38655314
22	0xbe0263d9	-0.12733401
23	0xbdb0405d	-0.08606026
24	0xbd0a0f49	-0.033705983
25	0xbe23537a	-0.15949813
26	0x3e9f5938	0.31122756
27	0x3db0522d	0.08609424
28	0x3e7776a8	0.24166358
29	0x3ea8e270	0.32985258
30	0xbde9fc49	-0.11425073
31	0x3e80a14c	0.2512306
32	0xbcaa45ed	-0.020785296
33	0xbec09d15	-0.37619844
34	0x3e4f7dbf	0.20262812
35	0xbe5a8ec0	-0.21343517
36	0x3daadd8c	0.08343038
37	0x3e24ab8b	0.16081063
38	0xbc1d1b20	-0.009588987
39	0xbeb18a52	-0.34675843
40	0x3e477cb4	0.19481164
41	0x3f3227d5	0.6959203
42	0x3f1fe2d3	0.6245548
43	0x3eec899f	0.46198747
44	0xbe8b5c52	-0.27218872
45	0xbe989594	-0.2980162
46	0x3e645fb5	0.22302134
47	0x3e34bc52	0.17649963
48	0x3ecb6ded	0.39732304
49	0x3ee3738c	0.44424093
50	0xbe028f4b	-0.12749974
51	0x3ee00d5e	0.43760198
52	0x3c9dcf26	0.019263815
53	0xbe878861	-0.26471236
54	0x3e8ba3fe	0.27273554
55	0x3f1319d6	0.574613
56	0xbe9d66bb	-0.3074244
57	0xbc669c84	-0.014075402
58	0xbe9165ac	-0.28397882
59	0x3f2abe1a	0.6669632
60	0x3eb9f64c	0.36320722
61	0xbea441f3	-0.32081565
62	0x3ea7ec0d	0.3279728
63	0xbe84b767	-0.25921175
64	0xbe4181d1	-0.18897177
65	0xbeb0735a	-0.34463006
66	0x3f375b90	0.7162409
67	0x3e2c9b84	0.168562
68	0xbe38d1f0	-0.18048835
69	0x3efdc454	0.4956385
70	0xbe854acd	-0.2603363
71	0x3eef210c	0.467049
72	0x3e91672e	0.28399032
73	0xbe82a4b1	-0.25516275
74	0x3f66e468	0.9019227
75	0x3edc90b7	0.4307916
76	0x3f37dcbc	0.7182119
77	0xbee3c0bc	-0.44482982
78	0xbe8e9ffb	-0.2785643
79	0xbcd722c1	-0.02626169
80	0x3e51e687	0.20498095
81	0x3f15bbb0	0.58489513
82	0xbeecb32c	-0.46230447
83	0xbe84ad2b	-0.25913367
84	0x3ef19c46	0.4718954
85	0x3ec12507	0.37723562
86	0x3eb5c408	0.35501122
87	0xbefeb2c7	-0.4974577
88	0xbe8fc930	-0.2808318
89	0x3ec605e9	0.38676384
90	0x3ed7d4d4	0.42154562
91	0x3ec0ec7d	0.37680426
92	0x3f60fe6d	0.8788822
93	0xbe217d75	-0.15770514
94	0x3eba2770	0.36358213
95	0xbef2ce33	-0.47422943
96	0xbe15f9ed	-0.1464612
97	0xbece0ab3	-0.40242538
98	0x3ddf796c	0.10911831
99	0xbd72eea2	-0.05930961

fc4.bias f4 [2]
0	0x3e047b12	0.12937573
1	0x3dca0d3b	0.09865805
