Results/BS_256_EP_6000_TMAX_200_NOISE_0.1/checkpoint_critic.pth (torch_old, 72813 bytes, 7 tensors)

fc1.weight f4 [100, 26]
0	0x3f5792ed	0.84208566
1	0x3f8a4663	1.080273
2	0xbe0e2ce4	-0.13884312
3	0x3e25b6fd	0.16183086
4	0xbe98dd69	-0.29856423
5	0xbe15411b	-0.14575617
6	0x3c990f08	0.018683925
7	0x3eec5d63	0.46164998
8	0x3f5ec131	0.87013537
9	0x3f8f71d7	1.1206616
10	0xbe001c59	-0.12510814
11	0xbe6360e1	-0.22204925
12	0xbef69002	-0.48156744
13	0xbf029675	-0.5101083
14	0xbe163393	-0.14668112
15	0xbe347784	-0.17623717
16	0x3f69c96b	0.91322964
17	0x3f398e93	0.72483176
18	0xbe1c12b9	-0.15241517
19	0xbea601cb	-0.32423243
20	0xbf0f1e76	-0.55905855
21	0xbe774ed5	-0.24151166
22	0xbd750458	-0.059818596
23	0xbdbc8f09	-0.09206969
24	0x400b7bce	2.1794314
25	0xbfe7a792	-1.8098013
26	0x3eb867f4	0.3601681
27	0xc002a625	-2.0413907
28	0xbc1c2aee	-0.00953172
29	0x3d922fde	0.07138036
30	0xbe4bedfe	-0.19915006
31	0xbf97f62a	-1.1871998
32	0xbc581025	-0.013187443
33	0x3cfbdfc1	0.030746343
34	0x3e307450	0.1723187
35	0xc02f37c4	-2.7377787
36	0xbe4e7ba9	-0.2016436
37	0xbdc7815c	-0.0974147
38	0x3e6f454f	0.23366283
39	0xbe3b51a6	-0.18292865
40	0xbd9d61e0	-0.07684684
41	0xbebbab17	-0.3665397
42	0x3ef59493	0.47964916
43	0xc033573a	-2.802199
44	0xbe055bc8	-0.13023293
45	0xbefc5a6c	-0.49287736
46	0x3e6ffc20	0.23436022
47	0x3ee77464	0.45205986
48	0xbd9aa083	-0.075501464
49	0xbecc37ba	-0.39886266
50	0x3f72fdeb	0.949187
51	0xbea65b60	-0.3249159
52	0xbc5cabfd	-0.01346874
53	0x407ed1d4	3.981557
54	0x3dc7da8c	0.097584814
55	0x3f1aa374	0.6040566
56	0x3e6d48a7	0.23172246
57	0xbfc67ece	-1.5507448
58	0xbe2de9b1	-0.16983677
59	0x3f1e4392	0.61821854
60	0x3f5b94ce	0.8577393
61	0x40233c31	2.5505488
62	0xbdd61f14	-0.104551464
63	0x3e4a5a05	0.19760902
64	0x3f911942	1.1335833
65	0x3f04288b	0.51624364
66	0x3c9c7bd8	0.019102022
67	0x3e3c36d0	0.18380284
68	0x3f8d3b7b	1.1033777
69	0x3feaf858	1.8357038
70	0xbe36e5a3	-0.17861037
71	0xbefcedd0	-0.49400187
72	0xbf169e59	-0.5883537
73	0x3fa8b12c	1.3179069
74	0x3e129e4b	0.14318196
75	0xbe7f1138	-0.24908912
76	0x3f899216	1.0747707
77	0x3eaf81ba	0.3427866
78	0x3e848876	0.2588536
79	0x3ecc54bd	0.399084
80	0xbdd42e10	-0.10360348
81	0x3e502f37	0.20330511
82	0x3f8ddfd2	1.108393
83	0x3fb54c81	1.4163972
84	0x3ded4fad	0.115874626
85	0xbb828f3e	-0.003984361
86	0x3df8642e	0.12128483
87	0x3ea3aaca	0.3196624
88	0x3a1819c6	0.00058021804
89	0xbddc6e3b	-0.10763212
90	0x3fe15b50	1.7605991
91	0xbfa6a7f4	-1.3020005
92	0x3d864278	0.06555647
93	0x3da7a58f	0.08185875
94	0xbef70f20	-0.48253727
95	0xbf058623	-0.521578
96	0xbcc94f15	-0.024573842
97	0xbf070d79	-0.5275493
98	0xbfabacaa	-1.3412068
99	0xbf111416	-0.56671274
100	0x3d7df2e4	0.061999217
101	0xbedf762c	-0.43644845
102	0xbe7f958a	-0.24959388
103	0x3ecef6ab	0.40422568
104	0xbdc20327	-0.094732575
105	0x3f6db5bc	0.9285543
106	0xbd2df4a0	-0.04246962
107	0xbdfa6005	-0.122253455
108	0x3f29167d	0.6604994
109	0x3e761ff5	0.24035628
110	0x3ccbfc35	0.024900535
111	0x3e14e1ef	0.14539312
112	0xba4f67e0	-0.0007911902
113	0x3f67aff6	0.9050287
114	0x3d1e426b	0.03863756
115	0xbe31e6c5	-0.17373188
116	0xbddf3bbe	-0.10900067
117	0xbe895360	-0.26821423
118	0xbd8984a9	-0.06714756
119	0x3d1c50d6	0.03816303
120	0x3eb4c40a	0.35305816
121	0x3fe4bf07	1.7870797
122	0xbdd65219	-0.10464878
123	0x3f6ce05c	0.92529845
124	0xbfafe581	-1.3741914
125	0xbfc7c791	-1.5607778
126	0xbd6dc8cc	-0.058052823
127	0x3f3caa18	0.7369704
128	0x4075c9dd	3.8404458
129	0x3f8047e8	1.0021944
130	0x3e0909d4	0.13382655
131	0x3f145538	0.57942533
132	0xbdc6aba8	-0.097007096
133	0xbca00bd2	-0.019536886
134	0xbe727531	-0.23677517
135	0x3d74a269	0.0597252
136	0x3d144b80	0.036204815
137	0xbcd83275	-0.026391247
138	0x3ee05acd	0.43819275
139	0x3f941079	1.1567527
140	0x3e3efa5d	0.18650194
141	0x3f49f341	0.788868
142	0xbbce0219	-0.006286871
143	0xbfa63737	-1.29856
144	0xbe33a784	-0.17544371
145	0x3f124483	0.5713579
146	0x3e872b9c	0.2640046
147	0x3f4b9d36	0.7953676
148	0xbe8c8857	-0.2744777
149	0xbf6cec7a	-0.92548335
150	0xbebd8a97	-0.37019798
151	0xc0a401e4	-5.125231
152	0xbe5dfad6	-0.21677718
153	0xbf2ae9c9	-0.6676298
154	0xbf64e86f	-0.89417166
155	0x3faa3ac2	1.3299181
156	0x3ddee295	0.10883061
157	0x3f7a4d8f	0.97774595
158	0x3ddb546a	0.1070946
159	0x3bd7248a	0.006565635
160	0xbee2b40f	-0.44278
161	0xbf7d56c7	-0.98960537
162	0xbce0ad7a	-0.02742647
163	0xbdaa7f5e	-0.083250746
164	0x3eb00e77	0.34386036
165	0x3f3d5680	0.73960114
166	0xbe22ba14	-0.15891296
167	0x3f2985ac	0.6621959
168	0xbf288147	-0.6582226
169	0xbfb99090	-1.4497242
170	0x3dd23816	0.10264604
171	0x3f022102	0.50831616
172	0x3fd995cf	1.6998843
173	0x3fad01df	1.3516196
174	0xbdacd727	-0.084394746
175	0x3f1f2a24	0.62173676
176	0xbf0da11f	-0.55323976
177	0xc02dcbee	-2.7155719
178	0x3e7f68cd	0.24942322
179	0x3eada87c	0.33917606
180	0x3df0ceee	0.11758219
181	0x3f75ab9e	0.9596499
182	0x3e8a2867	0.2698395
183	0x3e7cb3c2	0.24677947
184	0x3e1db71f	0.15401886
185	0xbef6b6fa	-0.48186475
186	0x3e127af8	0.14304721
187	0xbeddb523	-0.4330226
188	0xbdd08dcd	-0.10183296
189	0xbee3c4b1	-0.44486
190	0x3ef8325b	0.48475918
191	0x3e679156	0.22614035
192	0xbcc74b39	-0.024327861
193	0x3e0b4a9a	0.13602677
194	0xbdee74d0	-0.11643374
195	0xbf609cc5	-0.8773921
196	0xb98d4ec7	-0.0002695231
197	0x3e46f65e	0.19429919
198	0x3e294bc3	0.16532807
199	0xbe99f142	-0.30066878
200	0xbbe6f003	-0.0070476546
201	0xbdde6fa2	-0.10861136
202	0xbf4d2a64	-0.8014281
203	0xbf4fb5f4	-0.81137013
204	0xbe044685	-0.12917526
205	0xbdc83880	-0.097764015
206	0xc0f55c52	-7.6675196
207	0xbfdd8805	-1.7307135
208	0x3d6cad8f	0.057782706
209	0x3ef4f871	0.47845796
210	0xbccb4dca	-0.024817366
211	0x3dac56e1	0.08415008
212	0x3f87a56a	1.0597355
213	0x3f09cd47	0.53828853
214	0xbccaa22c	-0.024735533
215	0x3e177d63	0.14793925
216	0x3e1e7240	0.1547327
217	0x3ea1b787	0.31585333
218	0x3cd8c096	0.02645902
219	0x3d69241d	0.056919206
220	0x3f968c30	1.1761532
221	0xbea7f8b1	-0.32806924
222	0xbd7a198a	-0.061059512
223	0x3e62f376	0.22163185
224	0x3eebd62d	0.4606184
225	0x3f75a4a1	0.9595433
226	0xbd8156cc	-0.06315383
227	0x3fc1bfab	1.5136617
228	0xbf552593	-0.8326046
229	0xc07e492a	-3.9732156
230	0x3da12263	0.07867887
231	0x3fdd949d	1.7310978
232	0x3f2214a4	0.63312745
233	0x3eaeceda	0.3414219
234	0x3e8c1524	0.2735988
235	0xbf5f0615	-0.87118655
236	0xbc190e34	-0.009341765
237	0xbe0d4b25	-0.13798197
238	0xbe8268a8	-0.2547047
239	0xbe5b7a78	-0.21433437
240	0xbd054dfd	-0.03254508
241	0x3e1753e3	0.14778094
242	0x3eea4fb0	0.45763922
243	0xbf88ef69	-1.0698062
244	0x3d6981b5	0.057008464
245	0xbf07da18	-0.5306716
246	0xbe567e94	-0.20946723
247	0xbeae1199	-0.339978
248	0xbd28f9ba	-0.041253783
249	0xbebfac16	-0.3743598
250	0x3f5a405c	0.85254455
251	0xbfcd8e4f	-1.6059054
252	0x3e6e4ecc	0.23272246
253	0xbf3c88a7	-0.73646015
254	0xbe90cef0	-0.2828288
255	0xbebab81d	-0.36468592

fc1.bias f4 [100]
0	0xbee866f1	-0.45391038
1	0xbfc2917b	-1.5200647
2	0x40074db0	2.1141167
3	0x401df1a8	2.4678745
4	0xbf00bdb2	-0.5028945
5	0x3f3dbc3c	0.7411535
6	0x3ea31449	0.31851414
7	0xbe194baf	-0.14970277
8	0x3d17fd45	0.03710677
9	0xbf36412d	-0.711932
10	0x3f617fe1	0.8808575
11	0xbe7bc1ae	-0.24585602
12	0xc04675d6	-3.1009421
13	0xbf1303af	-0.57427496
14	0xbfd10488	-1.6329508
15	0xbeb4e0df	-0.35327813
16	0x3ec34c23	0.38144025
17	0xbe90ffd0	-0.2832017
18	0x40396e73	2.8973663
19	0x3d8dcc4a	0.06923731
20	0xc0251e65	-2.5799801
21	0x3fabaffc	1.3413081
22	0x3f53f68a	0.82798064
23	0xc09efde0	-4.9684906
24	0xc000dc1b	-2.0134342
25	0xbf69135c	-0.91045165
26	0x3f94f931	1.1638547
27	0x401b6965	2.4283078
28	0x3f9f6ac4	1.2454457
29	0x3f213ec9	0.6298643
30	0x3ee796af	0.4523215
31	0xbf2da593	-0.6783077
32	0x3c40eb0a	0.011774788
33	0xbf413b98	-0.7548156
34	0xbfd36239	-1.651435
35	0x3f115415	0.56768924
36	0xbf9c0587	-1.2189187
37	0xbf604508	-0.87605333
38	0x403bfc58	2.9372768
39	0xbd8fcaec	-0.07021126
40	0xbd3a8c80	-0.045544147
41	0xc0913114	-4.537241
42	0x3f95ad06	1.1693428
43	0x4032e1e7	2.795038
44	0x3f4415be	0.76595676
45	0x3f921ac1	1.1414415
46	0x3e176970	0.14786315
47	0x3f4606f2	0.7735435
48	0xbee879d5	-0.4540545
49	0x3d4f3fd1	0.05059797
50	0x3f1e822d	0.6191738
51	0x3e824fc4	0.2545148
52	0xbe87ead2	-0.2654634
53	0xbba3a42a	-0.004993935
54	0xbd8e1e50	-0.069393754
55	0xbe912089	-0.28345135
56	0xbe8eb177	-0.2786977
57	0xbf9d6f64	-1.2299619
58	0x3e583e4f	0.21117519
59	0xbed6c95f	-0.4195051
60	0x3f1fa9d8	0.62368536
61	0xc0c947b6	-6.290004
62	0x3fb3e93d	1.4055554
63	0xbdded314	-0.10880104
64	0x3fec9c35	1.8485171
65	0x3f0f361c	0.5594194
66	0xbf1daf6a	-0.61595786
67	0xbf543eeb	-0.82908505
68	0x3d1de032	0.038543887
69	0xbf0cf015	-0.55053836
70	0xbfd8fa0b	-1.6951307
71	0x3c807565	0.015680978
72	0xbfa451e9	-1.2837497
73	0xbea929e3	-0.3303977
74	0xbe730ab7	-0.23734556
75	0xbfd5f181	-1.6714326
76	0xbf463abd	-0.7743338
77	0x3ef4c216	0.47804326
78	0x3d9e1c3b	0.07720228
79	0x3fc2353b	1.5172495
80	0x3ea8bd96	0.32957143
81	0xc0841530	-4.1275864
82	0xbe843f08	-0.2582934
83	0xbfd7c0cc	-1.6855712
84	0x407a4087	3.9101884
85	0x3f91964f	1.1373996
86	0x3ecd26d0	0.40068674
87	0xbed3828c	-0.41310537
88	0xbf4060ef	-0.7514791
89	0x3eee0a95	0.46492448
90	0x3e67320e	0.22577688
91	0xbf804f23	-1.0024151
92	0xc02c7c76	-2.6950965
93	0x3d763c71	0.060116235
94	0xbed6affb	-0.41931137
95	0xbebfdd2e	-0.37473434
96	0x3fb2dc18	1.3973417
97	0xbf0b148d	-0.54328233
98	0x3f65116e	0.8947972
99	0x3f299f2f	0.6625852

fc2.weight f4 [100, 100]
0	0xbdd62053	-0.10455384
1	0x3e48f51f	0.19624756
2	0xbd37ac7e	-0.044842236
3	0xbe97522d	-0.29554883
4	0x3d768ed1	0.060194794
5	0x3d42e1d5	0.04757865
6	0x3e05f6d0	0.13082433
7	0x3da85eec	0.0822123
8	0x3f428d69	0.75997025
9	0x3d32540c	0.043537185
10	0xbdf4a6ca	-0.11945875
11	0xbf11f4c4	-0.5701411
12	0xbf90a7a9	-1.1301166
13	0x3d6c3f5c	0.05767761
14	0x3f1aad05	0.60420257
15	0x390c7b59	0.00013397391
16	0xbe17544e	-0.14778253
17	0xbdeaabbd	-0.11458538
18	0x3f2c7437	0.6736483
19	0xbe65a49f	-0.22426079
20	0x3ef13a1c	0.47114646
21	0xbe750027	-0.2392584
22	0x3e35ec91	0.17766024
23	0xbf8112f7	-1.0083913
24	0x3df28fb4	0.118438154
25	0x3e057731	0.13033749
26	0x3cf92eec	0.030417882
27	0xc0010097	-2.015661
28	0xbb9fef4a	-0.0048808204
29	0xbf484a27	-0.7823815
30	0xbf255b46	-0.645924
31	0x3ae2fd62	0.0017317946
32	0xbf6af96b	-0.9178683
33	0x3d630b55	0.05543073
34	0xbe7b9844	-0.24569803
35	0x3e309347	0.17243682
36	0x3c08e024	0.008354221
37	0x3ed0952d	0.40738812
38	0xbe912778	-0.28350425
39	0x3d9cd502	0.076578155
40	0x3d154e8b	0.036451858
41	0xbf2ced14	-0.6754925
42	0x3e7c9da0	0.24669504
43	0xc0788209	-3.8829367
44	0xbca7e63c	-0.020495526
45	0x3d7bfc53	0.061519932
46	0xbd7aa004	-0.06118776
47	0xbd62df9d	-0.055389035
48	0x3ea3de7e	0.32005686
49	0x3da5edcf	0.08101999
50	0x3db69765	0.08915595
51	0xbf9a867e	-1.2072294
52	0x3dda27b3	0.10652103
53	0xbe271613	-0.16317014
54	0xbd86574e	-0.06559621
55	0x3e85b605	0.26115432
56	0x3d662df8	0.056196183
57	0x3e1594f6	0.14607605
58	0xbefde84e	-0.49591297
59	0x3d6cc641	0.057806257
60	0x3e35ebca	0.17765728
61	0xbff8cd08	-1.943757
62	0xbe1515f0	-0.1455915
63	0xbe2d964b	-0.16951863
64	0xbe046cb6	-0.12932095
65	0xbde2126b	-0.11038669
66	0xbe7197b9	-0.23593034
67	0x3e8281d0	0.25489664
68	0xbd4abec0	-0.04949832
69	0x3e826170	0.25464964
70	0x3e1ff6cb	0.15621488
71	0x37ae6e38	2.0793741e-05
72	0x3d118657	0.035528507
73	0x3e0111b9	0.12604417
74	0x3eb4ab18	0.35286784
75	0xbe039320	-0.12849092
76	0xbc5526ee	-0.01300977
77	0xbe0d370c	-0.1379053
78	0xbced81a0	-0.028992474
79	0xbeeaae6c	-0.45836198
80	0x3ce0bd6e	0.027434077
81	0xbe906328	-0.2820065
82	0xbdf25cab	-0.11834081
83	0xbd9722e6	-0.07379703
84	0xbf941ebe	-1.1571882
85	0x3d32d2c4	0.043658033
86	0x3e433796	0.19064173
87	0xbc0be03f	-0.008537351
88	0xbe0f2fcc	-0.13983077
89	0xbe4ef40d	-0.20210285
90	0xbde5aa6d	-0.11214147
91	0xbe934027	-0.28759882
92	0x3f9af8e8	1.210721
93	0xbd4e1b1e	-0.05031883
94	0xbe01111e	-0.12604186
95	0xbf77fdf0	-0.9687185
96	0xbddbc44c	-0.107308
97	0x3e3f3aec	0.1867482
98	0xbe4f69bc	-0.20255178
99	0x3e026117	0.1273235
100	0x3eaff38e	0.34365505
101	0xbf07810e	-0.52931297
102	0xbf6ad687	-0.9173359
103	0xbe43ca6e	-0.1912019
104	0xbfc89fbe	-1.567375
105	0xbf4c9104	-0.79908776
106	0xbebabee0	-0.3647375
107	0x3dd4416b	0.1036404
108	0xbf568318	-0.83793783
109	0x3f663c30	0.8993559
110	0xbe5b9da3	-0.21446852
111	0xbed1061a	-0.40824968
112	0xbeeda7ac	-0.46416986
113	0xbf621855	-0.8831838
114	0xbeee669f	-0.4656267
115	0x3ebade27	0.36497614
116	0x3ef5f10d	0.4803547
117	0x3e37a423	0.17933707
118	0xc0064f69	-2.0985968
119	0x3da2f8d3	0.07957616
120	0xbf83574b	-1.0261015
121	0x3f398e2e	0.72482574
122	0xbfcb7172	-1.5893996
123	0x3ec95591	0.39323094
124	0xc079f95d	-3.905845
125	0xbe1e3784	-0.15450865
126	0x3df74009	0.120727606
127	0xbf3bb340	-0.7332039
128	0xbf427478	-0.7595897
129	0x3ee1789d	0.44037333
130	0xbd08600c	-0.033294722
131	0xbf5fc557	-0.8741049
132	0xbe6c6ac7	-0.23087607
133	0xbdee8441	-0.11646319
134	0x3eb89bcd	0.36056367
135	0xbc7f7da5	-0.015593921
136	0xbf1f1107	-0.62135357
137	0x3cb76ac4	0.022389777
138	0xbfcd3247	-1.6030968
139	0x3e888bd5	0.26669183
140	0xbfebba47	-1.8416222
141	0xbeb5fda3	-0.35545072
142	0x3f0b8d56	0.54512537
143	0x3f98cc33	1.1937317
144	0x3e3a1cdf	0.18175076
145	0xbe0fc464	-0.14039761
146	0xbdde6593	-0.108592175
147	0xbf68fb9d	-0.9100893
148	0xbe527d48	-0.20555604
149	0xbf0a00f2	-0.5390769
150	0xbe8d7732	-0.2763
151	0xbf09ceef	-0.5383138
152	0xbf8e72f7	-1.1128834
153	0x3e6295be	0.22127435
154	0x3ea8c57c	0.3296317
155	0xc04b564f	-3.1771429
156	0xbf981098	-1.1880064
157	0xbd9199af	-0.07109391
158	0xbe53c467	-0.2068039
159	0xbeeb14ae	-0.45914215
160	0x3e102e2d	0.14080115
161	0x3edebf2e	0.43505234
162	0x3e89d902	0.26923376
163	0x3dab5a17	0.08366793
164	0x3f3cf2a3	0.73807734
165	0x3e2b4235	0.16724475
166	0x3cd7eafe	0.02635717
167	0xbf86e303	-1.0538028
168	0x3c425986	0.011862164
169	0x3e38c1a3	0.18042617
170	0xbf1e24c5	-0.61774856
171	0xbe6d54f9	-0.23176946
172	0xbf170b96	-0.59002054
173	0x3f0f82a9	0.56058747
174	0xbdbf403b	-0.09338423
175	0xbfb4f445	-1.4137045
176	0x3fa0dba5	1.256703
177	0xbdf99259	-0.12186117
178	0xbe2f3d15	-0.17113145
179	0x3f9f95b9	1.2467567
180	0x3e15715f	0.14594029
181	0x3e73d4dd	0.2381167
182	0x3f42627d	0.7593153
183	0xbe88f40a	-0.26748687
184	0xbf8cabfc	-1.0989985
185	0xbda41c36	-0.08013193
186	0xbf71c457	-0.94440216
187	0x3de8017a	0.11328407
188	0x3f14c295	0.5810941
189	0xbf76854c	-0.96297145
190	0xbf74e5d7	-0.9566321
191	0x3e457200	0.19281769
192	0x3ddc513f	0.10757684
193	0x3e863e7e	0.26219553
194	0x3d80da72	0.06291665
195	0xc01753c4	-2.3644876
196	0xbf248262	-0.6426145
197	0xbed0b05a	-0.40759546
198	0xbe4ec81c	-0.20193523
199	0xbeba794f	-0.36420676
200	0xbf50c2e1	-0.8154736
201	0xbfaceac3	-1.3509144
202	0x3e4193a1	0.18903972
203	0xbe6e294a	-0.23257938
204	0xbe5aa483	-0.21351819
205	0xbe521140	-0.20514393
206	0xbed25201	-0.4107819
207	0xbea9b970	-0.3314929
208	0xbeefcd7c	-0.4683646
209	0xbefe7491	-0.49698308
210	0x3df9693c	0.12178275
211	0xbf0d9f45	-0.5532115
212	0xbdc48107	-0.095949225
213	0xbe816cab	-0.2527822
214	0xbf586335	-0.8452638
215	0xbf543aae	-0.8290204
216	0xbe46400a	-0.19360366
217	0xbe2b7e01	-0.16747285
218	0x3ca1ca3e	0.019749757
219	0xbfb0a62d	-1.3800713
220	0x3f5ac202	0.8545228
221	0xbff27bcd	-1.8944031
222	0xbfbd6bd7	-1.4798535
223	0x3e083d44	0.13304621
224	0xbf123a8d	-0.5712059
225	0xbeb1a2dd	-0.34694567
226	0xbb8a0a63	-0.004212664
227	0x3f3c27fa	0.734985
228	0xbf0fe8a3	-0.5621435
229	0x3d0e7d28	0.034787327
230	0x3f274e99	0.65354306
231	0xbfefcabe	-1.8733747
232	0xbf166ea9	-0.58762604
233	0xbe6da606	-0.23207864
234	0xbf0d768f	-0.5525903
235	0xbf9ee6d0	-1.2414188
236	0x3cdbc97b	0.026829472
237	0xbf1ae514	-0.60505795
238	0xbedd0d73	-0.43174323
239	0xbf2f4093	-0.6845791
240	0xbf185de9	-0.59518296
241	0xbec5dd71	-0.3864551
242	0xbf2835d6	-0.6570715
243	0x3f53872d	0.82628137
244	0x3ebae828	0.36505246
245	0x3ede8769	0.43462685
246	0x3eb89bc1	0.3605633
247	0xbf432ff6	-0.7624506
248	0xbfebdc79	-1.8426658
249	0xbea29137	-0.31751415
250	0xbfd1d898	-1.6394224
251	0x3f3abdbf	0.7294578
252	0xbd43a384	-0.047763363
253	0x3efc937d	0.49331275
254	0xbf19ca8f	-0.60074705
255	0xbe93e550	-0.2888589

fc2.bias f4 [100]
0	0xc016ded0	-2.3573494
1	0xbfb47705	-1.4098822
2	0xbe37afa8	-0.17938101
3	0x402c9e16	2.6971488
4	0xbfb220d6	-1.3916271
5	0xbf7ddc6b	-0.99164456
6	0x3e0ec394	0.13941795
7	0x3ce74ba3	0.028234309
8	0xbe0dc122	-0.13843206
9	0xbe1c09e8	-0.15238154
10	0xbedb94a9	-0.42886856
11	0xbfd943cd	-1.6973816
12	0xbe28b0d8	-0.1647371
13	0xbe2fe0fb	-0.17175667
14	0xbce58705	-0.028018484
15	0xbca5947a	-0.0202124
16	0xbda144b3	-0.078744315
17	0xbf9d277d	-1.2277676
18	0xbdd4f2ad	-0.10397849
19	0xc0bfda12	-5.99537
20	0x3ea52c64	0.3226043
21	0xbe0f3d28	-0.13988173
22	0x3e472fed	0.19451876
23	0x3e113f84	0.14184386
24	0x3f99eff8	1.2026358
25	0xbe0431fa	-0.1290969
26	0x3f3bacda	0.73310626
27	0x3c481ca1	0.012213857
28	0x3e24ff90	0.16113114
29	0xbe23788e	-0.15963957
30	0xc0202320	-2.5021439
31	0xbfe12912	-1.7590659
32	0x3f00e7ed	0.5035389
33	0x3f864a92	1.0491507
34	0xbfa2bd02	-1.2713931
35	0x3f2bcbee	0.67108047
36	0xbe260a00	-0.16214752
37	0x3ee696a5	0.45036808
38	0x3f2b14b3	0.6682846
39	0xc0214abe	-2.520187
40	0x3f3a94d4	0.72883344
41	0xbe06ddcc	-0.13170546
42	0x3d1a9c13	0.0377465
43	0x3cfa4cb9	0.030554162
44	0xbe941ca7	-0.2892811
45	0x3e83c9fb	0.25740036
46	0xbf83d56d	-1.0299507
47	0xc03228cd	-2.7837403
48	0xbdde56a3	-0.108563684
49	0xbdd29a07	-0.10283285
50	0xbebed106	-0.37268847
51	0x3cabf7ef	0.020992247
52	0x3ecd62e4	0.4011451
53	0xbe89e8cb	-0.2693542
54	0xbf1b1173	-0.605735
55	0xbe28129d	-0.1641335
56	0xbe354c02	-0.17704776
57	0xbdbd407c	-0.09240815
58	0xbeaa50af	-0.33264682
59	0x3e456e22	0.19280294
60	0x3db81a80	0.089894295
61	0x3f357db8	0.70894957
62	0x3f60373a	0.8758427
63	0x3fcad49c	1.5846133
64	0xc034d7a0	-2.8256607
65	0x3c5751af	0.0131420335
66	0xbe56b23c	-0.20966429
67	0xbf1cb4aa	-0.6121317
68	0xc07cf289	-3.9523032
69	0xbe0d1e5c	-0.13781112
70	0xbfc3e6bb	-1.5304788
71	0xbf1cf164	-0.6130583
72	0xbf2f2a58	-0.68423986
73	0x3ea7ad95	0.3274962
74	0x3dbf9ad8	0.09355706
75	0xbda994f8	-0.08280367
76	0x3f218630	0.6309538
77	0xbe109370	-0.14118743
78	0xbf042d0a	-0.51631224
79	0xbf64e530	-0.8941221
80	0xbd835c36	-0.06414072
81	0xbe8bfe9e	-0.27342695
82	0xbf727c80	-0.9472122
83	0xc00cf937	-2.2027109
84	0x3ee06a33	0.43831024
85	0xbc8267c9	-0.01591863
86	0xbed1c9b0	-0.40974188
87	0xbe3aa738	-0.18227851
88	0xbea48477	-0.32132313
89	0xbc4806ea	-0.01220868
90	0x3f02d2be	0.5110282
91	0x3ea8205c	0.32837188
92	0xbe79369d	-0.2433724
93	0x3e41058d	0.18849774
94	0x3ddd9008	0.108184874
95	0x3f8c4828	1.095952
96	0xbf784f52	-0.96996033
97	0xbdc15479	-0.0943994
98	0xbcd1cba4	-0.025609799
99	0xbd20e9c3	-0.039285433

fc3.weight f4 [50, 100]
0	0xbf6cfb41	-0.92570883
1	0xbe1cb463	-0.15303187
2	0xbdf2c27e	-0.11853503
3	0xbedb8f00	-0.42882538
4	0xbeb6b6b6	-0.35686272
5	0x3e0c7179	0.13715161
6	0xbd425a6a	-0.047449507
7	0xbd6cd93d	-0.057824362
8	0xbd1cca37	-0.038278785
9	0x3d94329d	0.07236216
10	0x3d83263d	0.06403778
11	0xbe1e3da1	-0.15453197
12	0x3d8446d2	0.064588204
13	0xbda003b2	-0.07813205
14	0x3cecbacc	0.028897665
15	0x3d7db7d5	0.061942894
16	0xbe3981e6	-0.18115959
17	0xbf39f7be	-0.7264365
18	0xbeccd8d3	-0.40009174
19	0xbe6d48cb	-0.231723
20	0x3f013367	0.5046906
21	0xbedbb9a4	-0.4291507
22	0x3e3768d5	0.17911084
23	0xbabecc79	-0.0014556787
24	0xbefc0d1b	-0.4922875
25	0x3db2c8f4	0.08729735
26	0x3de5581a	0.11198445
27	0x3c2c29ed	0.010508043
28	0xbeffe5c5	-0.49979988
29	0xbcaa5af8	-0.02079533
30	0xbe83f2a8	-0.2577107
31	0xbdaf85a9	-0.085704155
32	0xbe4be8bd	-0.19913001
33	0xbef5d8ab	-0.48016867
34	0xbc8ccf8b	-0.017188808
35	0xbdab368f	-0.083600156
36	0xbc95a19e	-0.018265542
37	0xbccc88f2	-0.024967644
38	0xbe366dc6	-0.17815313
39	0xbee6068a	-0.44926864
40	0xbe173da4	-0.14769608
41	0xbd4b8df4	-0.049695924
42	0x3d5ab276	0.05339285
43	0xbef4c883	-0.47809228
44	0xbe40a4df	-0.18812893
45	0xbda19b08	-0.07890898
46	0xbf179168	-0.5920625
47	0x3e0a708a	0.13519493
48	0xbe94e8db	-0.29083905
49	0xbcacec07	-0.02110864
50	0xbd6af23f	-0.05735993
51	0xbc3e86e3	-0.011628839
52	0xbcf87512	-0.030329261
53	0xbe9f8a98	-0.31160426
54	0xbd35408f	-0.04425102
55	0xbc60ec9e	-0.013728289
56	0xbda16c32	-0.07881965
57	0xbe3c5eda	-0.18395558
58	0xbdcdfd28	-0.10058051
59	0xbe4745d7	-0.19460236
60	0xbdf55949	-0.119799204
61	0x3d2d9ff8	0.042388886
62	0xbe6230ea	-0.22088972
63	0xbf283fee	-0.6572255
64	0xbe8d0a71	-0.2754703
65	0x3e262503	0.16225056
66	0xbed6a2e4	-0.4192115
67	0xbe636c5c	-0.22209305
68	0xbc237c4a	-0.009978363
69	0xbd18c9cd	-0.037301827
70	0x3c8f92be	0.017526027
71	0xbe647bd2	-0.22312859
72	0xbcf71a67	-0.030163957
73	0xbd9b72f5	-0.07590286
74	0xbe07b958	-0.13254297
75	0x38d8c948	0.00010337174
76	0xbf2d29ff	-0.67642206
77	0xbcd89f7f	-0.026443241
78	0xbced59dd	-0.028973514
79	0xbf3d4133	-0.7392761
80	0x3cf9c284	0.03048826
81	0x3e4d5067	0.20050202
82	0xbe3141b1	-0.17310216
83	0xbf35ad6c	-0.70967746
84	0xbebf448d	-0.37356988
85	0x3d4f4c9b	0.050610166
86	0x3dae7f59	0.085203834
87	0x3d2f1f2a	0.04275433
88	0x3d899253	0.06717362
89	0xbe1d6ae2	-0.15372804
90	0xbea96d29	-0.33091095
91	0xbe527981	-0.20554163
92	0xbf1b3288	-0.6062398
93	0xbda1999f	-0.07890629
94	0xbec99606	-0.3937227
95	0xbe7c3d45	-0.24632747
96	0x3bad7d4c	0.0052944776
97	0x3d9ae557	0.07563274
98	0xbdc46e75	-0.095913805
99	0xbee7777d	-0.4520835
100	0xbe0d9dc4	-0.13829714
101	0xbe4233f3	-0.1896513
102	0xbe439649	-0.19100298
103	0xbf321c1b	-0.69574136
104	0xbd388ceb	-0.045056265
105	0xbe997dfb	-0.29978928
106	0xbde00cdc	-0.10939953
107	0x3d34d998	0.044152826
108	0xbd83221c	-0.0640299
109	0x3d6c54c5	0.05769803
110	0x3ece89d8	0.4033954
111	0xbe92cec8	-0.28673387
112	0xbe9dcc70	-0.30820036
113	0xbeb7139f	-0.35757157
114	0xbd2f9d0f	-0.042874392
115	0xbe07b412	-0.13252285
116	0xbeac0324	-0.33596146
117	0xbf9f245b	-1.243297
118	0xbe5f2987	-0.21793185
119	0xbe824186	-0.25440615
120	0xbe90f778	-0.28313804
121	0xbef969fe	-0.48713678
122	0xbf1fbfde	-0.6240214
123	0xbdeff9ce	-0.11717568
124	0x3b33e32c	0.0027448637
125	0xbcb19c31	-0.021680923
126	0xbe672396	-0.22572169
127	0xbf2fd386	-0.68682134
128	0xbea3f897	-0.32025596
129	0xbe132278	-0.14368618
130	0xbf2967a7	-0.66173786
131	0xbe6418c2	-0.2227507
132	0xbe0aac2d	-0.13542242
133	0x3d48e17f	0.049043175
134	0xbc91460c	-0.017733596
135	0xbf1d6404	-0.61480737
136	0xbddb4801	-0.10707093
137	0x3ec5d4c4	0.3863889
138	0xbcc7d749	-0.024394648
139	0x3c3249a9	0.01088182
140	0x3ddcad31	0.10775221
141	0x3d588015	0.052856524
142	0xbdd47bba	-0.103751615
143	0x3e680021	0.22656299
144	0xbf11d238	-0.56961393
145	0x3e75e3ae	0.24012634
146	0xbe22767e	-0.15865514
147	0xbe8e04cd	-0.27738038
148	0xbcb96732	-0.022632215
149	0x3d5de0b4	0.05416937
150	0xbe72b22f	-0.23700784
151	0x3e73e937	0.23819433
152	0xbdde4d6a	-0.10854609
153	0xbf7024b9	-0.93806034
154	0xbee9c2c6	-0.45656413
155	0xbcfde9fd	-0.030995363
156	0xbea5494e	-0.3228249
157	0xbe75d329	-0.24006332
158	0xbe2c9bdd	-0.16856332
159	0x3cc8cf74	0.024512984
160	0x3ecf3f91	0.40478185
161	0xbdda0ac7	-0.10646587
162	0xbdd460be	-0.103700146
163	0x3d85b2dd	0.06528256
164	0xbe4cf8c7	-0.20016776
165	0xbe2b9f1e	-0.16759917
166	0xbdf8680e	-0.12129222
167	0x3d5fb1c3	0.054612886
168	0xbf1c138a	-0.60967314
169	0x3d0edc06	0.0348778
170	0x3daa3c86	0.08312325
171	0xbe94ed56	-0.29087323
172	0xbeb3cc71	-0.35116914
173	0xbe356892	-0.17715672
174	0xbe53a031	-0.20666577
175	0x3d812bfc	0.063072175
176	0x3e46503b	0.19366543
177	0x3cc7512f	0.024330704
178	0x3ea52f7b	0.32262787
179	0xbe202ef3	-0.1564291
180	0xbdc1ad53	-0.09456887
181	0x3d81b228	0.06332809
182	0xbdf0d418	-0.11759204
183	0xbe35d4ed	-0.17757006
184	0xbeb62362	-0.3557387
185	0xbd040317	-0.03222951
186	0xbe0e3bae	-0.13889953
187	0xbd956678	-0.07294935
188	0xbea0046e	-0.3125338
189	0xbdd03bfa	-0.101676896
190	0xbe886ee5	-0.26647106
191	0xbf31e299	-0.69486386
192	0xbe6ad248	-0.22931778
193	0xbd809a82	-0.0627947
194	0x3e01bcf5	0.12669738
195	0xbe833ea5	-0.2563373
196	0xbe934068	-0.28760076
197	0x3cba4df9	0.022742258
198	0x3e72b146	0.23700437
199	0xbf9efbf1	-1.2420636
200	0xbec48e16	-0.38389653
201	0xbeb3a817	-0.3508918
202	0xbf36247d	-0.71149427
203	0xbf48d568	-0.7845063
204	0xbeb4c935	-0.3530976
205	0xbf1b44ee	-0.60652053
206	0x3e1dcb90	0.15409684
207	0xbc811945	-0.01575912
208	0x3e2aab52	0.16666916
209	0xbd000e49	-0.031263623
210	0xbca8a4a0	-0.020586312
211	0xbe2dd25f	-0.16974781
212	0xbf9b60f5	-1.2138964
213	0xbfacb898	-1.3493834
214	0xbc82b91e	-0.015957411
215	0x3e3185b9	0.17336167
216	0xbefd2900	-0.49445343
217	0x3df4d988	0.11955553
218	0xbf8cf800	-1.1013184
219	0xbf0b355a	-0.54378283
220	0xbe02d6ac	-0.12777203
221	0xbe6e6704	-0.23281485
222	0xbf65c4f0	-0.8975363
223	0xbf47220d	-0.7778633
224	0xbf9ef396	-1.2418087
225	0x3de04005	0.10949711
226	0x3df28292	0.118413106
227	0xbe5d4185	-0.21607025
228	0xbf1dc25e	-0.61624706
229	0xbf89a9aa	-1.0754902
230	0xbf0e6119	-0.5561691
231	0xbf8f71d1	-1.1206609
232	0xbcecfc39	-0.028928863
233	0xbe76eb18	-0.24113119
234	0xbf373643	-0.7156717
235	0x3d26e77b	0.0407481
236	0x3d2cf4ea	0.042225756
237	0x3f197fa7	0.59960407
238	0x3e85f699	0.26164702
239	0xbf1951f9	-0.59890705
240	0xbd29135a	-0.04127822
241	0x3cb75f8a	0.022384424
242	0xbf08faf4	-0.53507924
243	0xbf83b735	-1.0290285
244	0xbe3d072a	-0.18459764
245	0xbf192594	-0.59822965
246	0xbf278396	-0.6543516
247	0xbf0b9ee5	-0.5453933
248	0x3d7b2f32	0.061324306
249	0xbd4b69bf	-0.049661394
250	0xbe506294	-0.20350105
251	0xbf3ab174	-0.7292702
252	0x3eaa52a2	0.3326617
253	0x3c95ff20	0.01831013
254	0xbd983970	-0.0743283
255	0xbd2305ed	-0.039800573

fc3.bias f4 [50]
0	0xbec8f2d6	-0.3924777
1	0x3f630cb3	0.8869125
2	0x3e8939a6	0.26801795
3	0xbe94c377	-0.29055378
4	0x3ea842fa	0.328636
5	0x3fa97615	1.3239161
6	0xbfa16924	-1.2610211
7	0xbf18de50	-0.5971422
8	0xc01994e9	-2.3997138
9	0xbef1721d	-0.47157374
10	0xbf3475e1	-0.7049237
11	0xbe9c16c7	-0.30486128
12	0xbefd057b	-0.49418244
13	0xbeca55d3	-0.39518604
14	0xc056287a	-3.3462205
15	0xbf7cbb54	-0.9872334
16	0xbe8ef734	-0.27922976
17	0xbeacd004	-0.33752453
18	0xbf845ba3	-1.0340465
19	0xbfada3a2	-1.3565562
20	0xbea6924b	-0.32533488
21	0xbf04b1d2	-0.5183383
22	0xc0741071	-3.8135035
23	0xbf13c5b2	-0.57723534
24	0xbf085e78	-0.5326915
25	0x3fb085d5	1.3790842
26	0x3fc7e5ab	1.5616964
27	0xbf2949fa	-0.66128504
28	0x3e9fcd49	0.31211308
29	0x3fa24f09	1.268037
30	0xbfa7d67d	-1.3112332
31	0x3f695f18	0.91160727
32	0x3f08ccac	0.53437304
33	0xbf3fa3cb	-0.74859303
34	0xbf09f57d	-0.5389021
35	0xbed89d2f	-0.42307422
36	0xbf53fb5b	-0.82805413
37	0xbeac0383	-0.3359643
38	0x3faf2ebc	1.3686137
39	0xbe8dc4c5	-0.27689186
40	0x3ffca0f8	1.9736624
41	0xbeb60849	-0.35553196
42	0xbf1d3aea	-0.6141802
43	0xbf371070	-0.71509457
44	0xbec10321	-0.376977
45	0x3f833156	1.0249431
46	0x40220720	2.5316849
47	0x3e525bab	0.20542781
48	0xbee01549	-0.4376624
49	0xbf42db30	-0.76115704

fc4.weight f4 [1, 50]
0	0x3ce10f53	0.027473127
1	0x3ce899c7	0.02839364
2	0xbc51f1fc	-0.012814041
3	0xbbc6652c	-0.006054541
4	0x3c18651a	0.009301448
5	0x3cdb83ca	0.02679624
6	0xbbba41d6	-0.005684118
7	0xbcda4648	-0.02664484
8	0x3c5b00e9	0.013366916
9	0x3c3b9120	0.011448175
10	0x3cbee4bd	0.02330243
11	0xbccc8a8c	-0.024968408
12	0x3c8b7502	0.017023567
13	0x3b0ab25d	0.0021163442
14	0xbca777a4	-0.020442791
15	0xbc82fce0	-0.01598972
16	0xbc21e2ae	-0.009880705
17	0x3c11c062	0.008895965
18	0x3b6a3cf9	0.003574191
19	0xbc835066	-0.016029548
20	0x3bd69b3e	0.006549268
21	0xbbb1756f	-0.0054156105
22	0x3cd497b3	0.025951242
23	0x3c3010c4	0.010746185
24	0x3d5c12db	0.05372892
25	0xbc2ad1cf	-0.010425999
26	0x3c94a538	0.018145189
27	0xba278cda	-0.0006391533
28	0xbc9a0a79	-0.018803822
29	0xbc8d7ed1	-0.017272385
30	0xbc5fcd98	-0.013659857
31	0xbcd0a2d8	-0.025468275
32	0x3b687672	0.003547099
33	0xbd1553f2	-0.03645701
34	0x3c417b48	0.011809178
35	0xbcf81968	-0.030285552
36	0xbbb82154	-0.0056192074
37	0xba7c8275	-0.0009632477
38	0x3c68187b	0.014165993
39	0xbcb9db5f	-0.022687612
40	0xbcac2032	-0.021011446
41	0x398a31e1	0.00026358574
42	0xbcd6f8cd	-0.026241684
43	0x3bf48098	0.0074616186
44	0xbbc898e5	-0.006121742
45	0x3bff9d39	0.007800725
46	0x3c8c9fca	0.017166037
47	0xbce38193	-0.027771747
48	0x3d05633f	0.03256535
49	0x3b0b9094	0.0021295892
