Results/BS_256_EP_6000_TMAX_200_NOISE_0.1/last_checkpoint_critic.pth (torch_old, 72813 bytes, 7 tensors)

fc1.weight f4 [100, 26]
000000 b3 cb 5b 3f a2 e2 a4 3f 4a 00 e7 bd 81 d5 7f 3e
       0.85857695 1.2881663 -0.11279352 0.24983789
000010 35 15 b4 be 80 b4 96 be 4c 39 37 3d c6 b6 0c 3f
       -0.3517243 -0.29434586 0.044732377 0.5496639
000020 6a ce 61 3f 04 fe ae 3f 9d e8 e6 bd e8 d0 46 be
       0.8820559 1.367127 -0.11274836 -0.19415629
000030 75 6f 07 bf 09 98 29 bf 8c 8b 09 be d0 e7 17 be
       -0.52904445 -0.6624761 -0.13432139 -0.14834523
000040 89 2e 6e 3f 04 b3 75 3f a2 b4 11 be 49 18 ca be
       0.93039757 0.9597628 -0.14229062 -0.39471653
000050 10 e7 16 bf b0 dc c2 be 5e 8d 4b bd 1c 75 26 be
       -0.58946323 -0.38058996 -0.049695365 -0.16255611
000060 8b 3b 1d 40 04 32 0c c0 a1 19 90 3e 26 99 12 c0
       2.4567592 -2.1905527 0.28144553 -2.2905974
000070 31 98 da bb 46 3d 5f 3d 29 66 85 be a9 6d 8f bf
       -0.0066709747 0.054501794 -0.26054505 -1.1205341
000080 00 31 29 bc 12 36 63 3c 41 eb 99 3e 89 67 36 c0
       -0.010326624 0.013867872 0.30062297 -2.8500693
000090 28 66 39 be d4 0e b5 bc 50 f2 75 3e 55 cd 6b be
       -0.18105376 -0.022101797 0.24018216 -0.23027547
0000a0 28 6d 66 bd be 1b 95 be 6d 2c 1a 3f 0c 80 3a c0
       -0.056256443 -0.29122728 0.6022404 -2.9140654
0000b0 cf 39 fe bd 41 90 df be f6 f9 8d 3e 38 34 02 3f
       -0.1241337 -0.43664744 0.27729768 0.5086093
0000c0 b4 22 8e bd 8f 6d af be 96 ba 95 3f 7f ab f6 be
       -0.06940213 -0.34263274 1.1697567 -0.48177716
0000d0 55 a6 1f be 3b bc 86 40 fc 3f d8 3d 8a be 23 3f
       -0.15590794 4.2104774 0.10559079 0.63962615
0000e0 8b 86 98 3e f4 38 de bf 2c b7 25 be a8 5e 27 3f
       0.29790148 -1.7361131 -0.16183156 0.6537881
0000f0 13 75 5e 3f da ea 36 40 13 2f fe bd ab 4f 85 3e
       0.8689739 2.8580842 -0.124113224 0.26037344
000100 42 02 9a 3f 8e d5 fb 3e 89 28 f1 b9 e1 7b 7c 3e
       1.2031939 0.49186367 -0.00045997303 0.24656631
000110 56 a9 a7 3f fb 26 0d 40 e1 c8 42 be f1 32 07 bf
       1.3098552 2.2055042 -0.19021942 -0.52812105
000120 46 d7 12 bf 03 c9 a7 3f 4f bb 06 3e 92 00 91 be
       -0.5735973 1.3108219 0.1315739 -0.28320748
000130 b0 22 4b 3f 64 65 10 3e 91 24 86 3e b1 5d 41 3f
       0.79349804 0.14101177 0.26199773 0.75533587
000140 52 56 d9 bd 16 38 5d 3e d2 d4 97 3f 26 88 c0 3f
       -0.106121674 0.21603426 1.1861823 1.5041549
000150 45 27 e8 3d b2 44 0f 3c d6 a7 02 3e 4a 9e 12 3f
       0.11335615 0.008744406 0.12759337 0.5727278
000160 9f 9e 67 bc 6b 4c fc bd 5a 68 f7 3f 60 3d a3 bf
       -0.014136939 -0.12319263 1.932872 -1.2753105
000170 8f 3c 50 3d 1f c7 87 3d 65 dd 05 bf d1 6a 86 be
       0.050839003 0.06629776 -0.52290946 -0.2625337
000180 32 62 f1 bc c8 22 10 bf 0d 2d ad bf d0 0e e0 be
       -0.029465768 -0.5630307 -1.3529373 -0.437613
000190 0b e9 69 3d f3 a0 f1 be a7 f8 a1 be 3e 4b 6d 3e
       0.057107013 -0.47193107 -0.3163502 0.23173234
0001a0 dc 23 a5 bd a6 20 67 3f fc a9 48 bd 51 fa 2b be
       -0.0806348 0.9028419 -0.048990235 -0.16794707
0001b0 ce 33 27 3f 58 ef 7a 3e aa 92 96 3c 16 2e cc 3d
       0.6531342 0.24505365 0.018380482 0.09969728
0001c0 4d 18 fb 3c 5f a0 49 3f 82 fb 23 3d eb 8e 05 be
       0.030651236 0.7876033 0.04003478 -0.130428
0001d0 a2 83 cc bd 52 43 a9 be db a7 86 bd 1f d8 a6 3d
       -0.099860445 -0.33059174 -0.06574985 0.081466906
0001e0 24 4d ff 3e de 03 ee 3f b0 3f 0a be 8f 66 83 3f
       0.4986354 1.859493 -0.13500857 1.0265673
0001f0 34 af af bf 46 a5 d9 bf ed 11 b5 bd 9d 96 56 3f
       -1.3725343 -1.7003562 -0.0884131 0.8382357
000200 e2 a1 77 40 6e 4f 97 3f 74 63 0c 3e a2 be 23 3f
       3.8692555 1.1821115 0.13709813 0.6396276
000210 98 0c b8 bd 5f 5c b3 3d 22 16 75 be 07 cb a0 3b
       -0.08986777 0.08757853 -0.23934224 0.0049070152
000220 66 8a 31 3d 8f 52 a5 3d 34 bd 09 3f 06 68 ac 3f
       0.043344878 0.080723874 0.53804326 1.3469245
000230 38 a8 38 3e b8 57 63 3f 90 bd b9 bc 9f 65 b2 bf
       0.1803292 0.88805723 -0.022673398 -1.3937262
000240 a4 f9 39 be fa a8 2b 3f e0 05 a8 3e cf c7 7d 3f
       -0.18161637 0.6705471 0.32816982 0.9913301
000250 f3 31 93 be 6d b7 6f bf 55 e4 d2 be 77 11 ab c0
       -0.28749046 -0.9363926 -0.4118983 -5.345882
000260 c6 4f 6b be bc b4 2d bf 79 10 84 bf fd 82 c3 3f
       -0.2297965 -0.67853904 -1.0317527 1.527435
000270 14 0e a1 3d 58 aa 89 3f 77 59 c0 3d 83 fa 0b 3e
       0.07864013 1.075511 0.09392064 0.13669781
000280 72 38 e4 be 90 69 70 bf ca 4c 26 bd e1 06 40 3d
       -0.44574314 -0.93911076 -0.040600576 0.04688156
000290 9b da a7 3e b3 d3 61 3f f9 25 41 be c7 49 45 3f
       0.3278397 0.8821365 -0.18862142 0.770657
0002a0 96 0f 32 bf fa 8c ba bf dd 61 95 3d 1d e5 1d 3f
       -0.6955503 -1.4574273 0.072940566 0.61677724
0002b0 61 b0 e9 3f 05 fb d4 3f 27 97 2b bd c5 c7 12 3f
       1.8256952 1.6639105 -0.041892197 0.57336074
0002c0 05 2c 25 bf 01 6c 38 c0 5e 77 95 3e a9 e3 94 3e
       -0.64520293 -2.881592 0.29192632 0.2907994
0002d0 66 88 8e 3e 46 ad ac 3f 46 aa 83 3e 03 45 36 3e
       0.2783844 1.3490379 0.25715846 0.17799763
0002e0 24 00 10 3e 2d ac 05 bf c6 1e 16 3e 30 06 eb be
       0.14062554 -0.52215844 0.14660177 -0.45903158
0002f0 c9 fa eb bd 53 66 f8 be 4e f9 02 3f 87 7a 9c 3d
       -0.11522443 -0.48515567 0.5116166 0.07640558
000300 13 48 ca bc 1f 68 c0 3d b5 03 09 be 20 45 6b bf
       -0.02469257 0.093948595 -0.1338032 -0.9190235
000310 34 50 26 ba e3 df 1b 3e 4f fd 8a 3e d0 d2 bd be
       -0.00063443487 0.15222125 0.27146384 -0.370749
000320 30 6a bb bc 3a ad 20 be 7b 4f 68 bf d3 51 6b bf
       -0.022877783 -0.1569108 -0.9074628 -0.9192173
000330 6e 7c 14 be d4 91 15 be a1 b2 01 c1 9f b4 ee bf
       -0.14500591 -0.1460641 -8.106111 -1.8648871
000340 df 38 aa 3c 03 d5 0c 3f 67 43 51 bc a0 48 9c 3d
       0.020779071 0.5501253 -0.012772418 0.076310396
000350 5c 94 87 3f 46 ca e1 3e 1d ec 4f bc cc 76 0f 3e
       1.0592151 0.44099635 -0.012690571 0.14010161
000360 c5 91 0a 3e 1a 42 bf 3e 1f b5 f5 3c 54 cb 48 3d
       0.13532169 0.3735512 0.029993592 0.049022034
000370 36 10 97 3f e3 d8 b0 be 3e 9f 6b bd a2 dd 5a 3e
       1.1801822 -0.3454047 -0.057524912 0.21373609
000380 50 ab 0a 3f 4a 51 7a 3f 23 19 9b bd ef f5 cf 3f
       0.5416765 0.9778029 -0.07573154 1.6246928
000390 cd ca 67 bf bd 67 8d c0 17 60 87 3d e1 ca eb 3f
       -0.90543824 -4.4189134 0.066101246 1.8421289
0003a0 e8 86 65 3f 91 e7 a6 3e a1 7d bc 3e 76 97 a2 bf
       0.89658976 0.32598546 0.36814597 -1.2702472
0003b0 48 92 a1 3b da 32 70 be c2 00 86 be 63 c8 3c be
       0.004930768 -0.23456898 -0.26172453 -0.18435816
0003c0 f5 af 95 bc 23 b1 51 3d 4b 33 0c 3f 54 62 b1 bf
       -0.01827238 0.05119432 0.54765767 -1.3858132
0003d0 17 bd 35 3d 24 b8 bc be 6c af 84 be 55 33 d8 be
       0.044369783 -0.36859238 -0.25915086 -0.42226663
0003e0 fb bd 5c bd 84 5e 59 be 95 99 78 3f 46 7b e7 bf
       -0.053892117 -0.21227461 0.9710935 -1.8084495
0003f0 67 cb 28 3e b5 71 45 bf d7 1b 9b be 5d 12 af be
       0.16483842 -0.7712663 -0.30294678 -0.34193698

fc1.bias f4 [100]
000000 a2 f4 ff be 83 6b de bf 5e 05 03 40 32 c2 34 40
       -0.49991328 -1.737656 2.0472026 2.8243527
000010 0c a1 17 bf 95 2d 2c 3f 19 c7 ae 3e c9 29 a6 be
       -0.59230113 0.6725705 0.34136274 -0.32453755
000020 1b 1a ff bd a1 9f 83 bf 4e 0b 6a 3f 5b 5f 30 be
       -0.12456151 -1.028309 0.914235 -0.17223875
000030 ce df 5a c0 08 b4 24 bf 9c 29 e2 bf 45 c4 8f be
       -3.41991 -0.64337206 -1.7668948 -0.2807943
000040 33 80 d4 3e eb f5 87 be b6 51 52 40 3f 6e c5 3c
       0.41504058 -0.26554808 3.2862372 0.024100421
000050 f3 fb 2f c0 3f b7 d2 3f 9d 98 80 3f ce 5b ae c0
       -2.7497528 1.6462172 1.0046574 -5.4487066
000060 5c 65 08 c0 0e 6f 85 bf b9 4d 9b 3f 85 97 2d 40
       -2.1311865 -1.0424516 1.2133094 2.712373
000070 10 63 ad 3f 81 36 3c 3f ca 12 df 3e d7 81 5e bf
       1.3545856 0.73520666 0.43569022 -0.8691687
000080 77 ed a3 bd dc b6 74 bf 16 9c d3 bf a2 f1 1f 3f
       -0.08004277 -0.9559152 -1.6532009 0.6247808
000090 91 e1 98 bf 7d 66 85 bf b3 8b 4a 40 bb 49 8d 3b
       -1.1943837 -1.0421902 3.1647766 0.004311768
0000a0 6c 16 97 3d 65 c7 a3 c0 1c 87 b5 3f 92 bb 4c 40
       0.073773235 -5.11809 1.4181857 3.1989484
0000b0 a3 1c 80 3f b6 bf a1 3f f7 4b ac 3c 9a 9f 4f 3f
       1.0008739 1.263663 0.021032317 0.8110291
0000c0 9c ed 39 bf ef 44 e1 3d 69 18 40 3f 50 72 b0 3d
       -0.7262819 0.10999476 0.75037247 0.086155534
0000d0 47 38 8b be 4d e0 55 3d f5 3f e3 bd 12 5a ca be
       -0.27191374 0.052215863 -0.11096183 -0.39521843
0000e0 1d ad aa be 13 b9 ae bf dc e2 01 3e 81 9f d4 be
       -0.333352 -1.365023 0.12684196 -0.41527942
0000f0 0d 55 4a 3f db fd de c0 6d c6 b7 3f 1b 41 e5 bd
       0.7903603 -6.968488 1.435743 -0.111940585
000100 76 6f 08 40 2e 22 48 3f a5 73 2b bf cb 2c 50 bf
       2.131803 0.78177154 -0.66973335 -0.8131835
000110 27 33 9a 3d 87 76 31 bf 0f 7d fd bf 02 06 1c be
       0.07529288 -0.69321483 -1.980379 -0.15236667
000120 51 b2 b9 bf c7 08 b7 be 9d 78 59 be 06 dc de bf
       -1.4507543 -0.35748884 -0.21237417 -1.7410896
000130 57 f3 4b bf e5 0c 1f 3f 86 3e 39 3e 53 a6 cf 3f
       -0.7966818 0.6212905 0.18090257 1.6222633
000140 07 e4 dc 3d 2d 0f 92 c0 b6 04 36 be 63 62 ee bf
       0.1078568 -4.5643525 -0.17775235 -1.8623775
000150 a2 30 8c 40 3c e5 a3 3f 12 d7 a1 3e 83 0d 0d bf
       4.3809366 1.2804332 0.31609398 -0.5509874
000160 27 fe 2e bf d2 5c 04 3f 51 a9 5c 3d a7 26 9c bf
       -0.68356556 0.5170413 0.05387241 -1.2199296
000170 a6 5b 4d c0 66 a9 84 3d 77 c1 f6 be 4e af c7 be
       -3.2087188 0.06477623 -0.48194477 -0.39000934
000180 c8 5e b7 3f fb 93 36 bf 38 10 71 3f f8 50 4f 3f
       1.43258 -0.7131955 0.9416537 0.80982924

fc2.weight f4 [100, 100]
000000 1c 6a e9 bd 73 92 1b 3e 5b 93 30 3d b6 fa e6 be
       -0.11397192 0.15192585 0.04310928 -0.45113152
000010 9e 29 29 3d 8d 36 59 3d 49 06 8f bd 52 9c 4e 3d
       0.041299455 0.05303054 -0.06983621 0.050442047
000020 83 df 47 3f d8 d6 27 3e 95 cb b8 bd d3 42 1d bf
       0.78075427 0.1639055 -0.09023205 -0.6143009
000030 6a a1 ba bf 88 b6 14 3d fe 42 1f 3f 02 4f 02 bb
       -1.458051 0.036306888 0.62211597 -0.0019883518
000040 82 be 9d be 5d c6 db bd 42 12 4b 3f c4 eb cf bd
       -0.30809408 -0.10731194 0.79324734 -0.101523906
000050 50 40 e5 3e fa 18 72 be 8a e7 38 3e 9f 22 93 bf
       0.4477563 -0.2364234 0.18057075 -1.149494
000060 f4 2a e6 3c ea fd 04 3d 96 d4 a2 3d ad b5 1a c0
       0.028096654 0.032468714 0.07950704 -2.4173386
000070 b3 6e 97 bd 1f 24 64 bf 99 5b 14 bf b5 8e 1c 3d
       -0.07394161 -0.89117616 -0.57952267 0.038222034
000080 bc 17 99 bf 9c 89 47 3d 29 16 94 be c1 6e 56 3e
       -1.1960368 0.04871522 -0.28923157 0.20940687
000090 3e 71 6d 3d a9 d1 d8 3e 10 93 32 be 94 34 ab 3c
       0.057969324 0.42347458 -0.17438912 0.020899095
0000a0 16 0f 7b 3e 3e 82 47 bf 60 b2 77 3e b3 c6 81 c0
       0.24517474 -0.7793311 0.24189138 -4.0555053
0000b0 fe d1 e9 bd ab d8 99 3d 05 77 0a bb 23 79 87 bc
       -0.11417006 0.07512029 -0.002112807 -0.016537255
0000c0 2c 18 b6 3e b0 38 6d 3c 4a 98 0f 3e 44 9b 5d bf
       0.35565317 0.014478847 0.14022937 -0.8656504
0000d0 9e 85 85 3d 0c 42 f2 bd 81 f5 80 3d 15 67 93 3e
       0.06519626 -0.11829004 0.06296826 0.28789583
0000e0 51 cd 3f 3e 87 76 36 3e 44 9e d7 be c5 0c 3b 3c
       0.18730666 0.17818652 -0.42112935 0.011416619
0000f0 cb 11 8f 3e d2 aa 13 c0 62 47 6f be d9 52 85 be
       0.27943262 -2.307301 -0.23367074 -0.2603977
000100 ec 40 6a be 2a da f3 bd aa f8 4d be d9 45 95 3e
       -0.22876328 -0.11906846 -0.20114389 0.29154852
000110 9c de a1 bc ba 4c 82 3e 7f f5 3f 3e 1a 9b 99 3d
       -0.019759469 0.25449163 0.18745993 0.075002864
000120 52 c4 c2 3b df ac 9d 3c 35 8e 15 3f d5 8e d4 bd
       0.0059438134 0.01924747 0.58420116 -0.103788055
000130 6c 8a 38 bc 6f f6 b6 3c a4 78 b5 3c 52 4c d6 be
       -0.011263471 0.022334306 0.022152252 -0.41855103
000140 ee 81 55 3e 04 cd fa 3e 73 4f 94 bd 83 62 fa bd
       0.20850345 0.4898454 -0.07241716 -0.12225821
000150 a8 af a2 bf e2 2b 27 bd aa 9a 9e 3e 77 11 fc bc
       -1.2709856 -0.040813334 0.30977374 -0.030770047
000160 e8 6f f3 bd 37 4a 93 be a7 c5 22 3e 8d c9 8e be
       -0.11886579 -0.2876756 0.15895711 -0.27888146
000170 db 86 90 3f c3 4c cc bd a8 79 02 be fa 22 7f bf
       1.1291155 -0.09975579 -0.1274172 -0.99662745
000180 0b 39 a0 bd 7b 46 39 3e f4 2c 2a be 81 08 ce 3c
       -0.0782338 0.18093292 -0.16618711 0.02515054
000190 4f cf 92 3e 2d 57 18 bf f4 fd 84 bf ca 9f 5c be
       0.2867379 -0.5950802 -1.039 -0.2154533
0001a0 1e 1b d0 bf 4e 87 09 bf de ff 19 bf 10 74 a4 be
       -1.6258276 -0.53722084 -0.6015605 -0.321198
0001b0 27 45 59 bf d2 58 9c 3f 76 61 02 be 03 46 15 bf
       -0.84871143 1.2214606 -0.12732491 -0.58309954
0001c0 ba 82 0a bf f5 1a 15 bf f4 3d 0b bf 15 96 04 3e
       -0.5410572 -0.5824426 -0.5439141 0.12947877
0001d0 5b 73 ca 3e 19 79 44 3e cc 46 12 c0 bc 28 67 3e
       0.39541134 0.1918682 -2.285571 0.22574133
0001e0 22 42 61 bf ee a6 3e 3f 18 03 bc bf 47 27 d4 3e
       -0.87991536 0.74473464 -1.4688444 0.41436216
0001f0 f0 71 74 c0 aa b1 6b be 0f fb 59 3e e7 c0 41 bf
       -3.8194542 -0.23016992 0.21287178 -0.7568497
000200 ca 6f 68 bf 19 f0 df 3e d0 40 b5 bc f1 ab 4b bf
       -0.90795577 0.43737867 -0.022125632 -0.79559237
000210 fb c9 b6 be 68 72 1d be ee 4e c9 3e 82 e8 68 bd
       -0.35700974 -0.15375674 0.3931803 -0.05686236
000220 b5 71 1b bf 30 c0 ae bd 13 f6 da bf c4 d2 cc 3d
       -0.6072038 -0.085327506 -1.7106346 0.10001138
000230 fd ba 11 c0 f5 c2 f4 be f7 c5 18 3f 5f 29 a6 3f
       -2.2770379 -0.4780499 0.5967707 1.2981375
000240 8e 43 5f 3e c4 82 b7 bd 2f b5 78 bd e4 d3 91 bf
       0.21803114 -0.089604884 -0.060719665 -1.1392789
000250 0b 90 22 be bd 25 26 bf 25 d7 dd be 68 6f 1a bf
       -0.1587526 -0.64901334 -0.43328205 -0.6032624
000260 16 99 92 bf 43 70 85 3e 51 5e 78 3e 98 22 59 c0
       -1.1452968 0.2606221 0.24254729 -3.3927364
000270 50 77 c6 bf 90 b0 22 be d4 9b 51 be d5 cf 34 bf
       -1.5505161 -0.15887666 -0.204696 -0.70629627
000280 8b f7 1c 3e d8 f5 f1 3e 9b 96 d9 3e 82 80 44 bc
       0.15328805 0.47257876 0.42497715 -0.011993529
000290 bb 8b 76 3f b0 f7 2e 3e b4 88 b0 3d 12 90 94 bf
       0.9630696 0.17086673 0.08619824 -1.1606467
0002a0 7e 2f d8 3d 29 fc 96 3e 96 9a 13 bf 05 57 a5 bd
       0.105559334 0.29489258 -0.57657754 -0.08073238
0002b0 21 1b 18 bf 6f 9d 06 3f 7e d3 ba be a0 84 b0 bf
       -0.59416395 0.52583975 -0.3648948 -1.3790474
0002c0 ce cd bb 3f ab 6d 4a be 74 2d 6b be d9 63 97 3f
       1.4672182 -0.19768398 -0.22966558 1.1827346
0002d0 cf 25 0f 3e 2b c9 51 3e 55 55 59 3f 74 40 0a bf
       0.13979267 0.20486896 0.8489583 -0.540046
0002e0 c5 c9 8e bf 44 b6 68 bd f4 6a 2f bf 40 7e fb 3d
       -1.1155325 -0.056814447 -0.6852257 0.1227994
0002f0 37 c6 2f 3f 8e bf 82 bf 71 1f 74 bf fd ce 4b 3e
       0.68661827 -1.0214708 -0.95360476 0.19903179
000300 b8 bb 16 3e 91 7b b3 3e 52 1b 7c 3d 6b 3d 26 c0
       0.14720047 0.3505521 0.061549492 -2.5974987
000310 af 01 22 bf 4e 0d ae be 21 53 22 be 0f 18 d6 be
       -0.6328382 -0.33994526 -0.15852024 -0.4181523
000320 84 58 77 bf c6 c1 ad bf 9f 69 00 3e 6b d9 64 be
       -0.9661944 -1.357476 0.12540291 -0.22348563
000330 63 db 0c be f8 b5 37 bc 3f bd 22 bf 5f b2 b4 be
       -0.13755564 -0.011212818 -0.63570017 -0.35292336
000340 70 ac 1a bf d4 97 d1 be c7 36 df bd c3 cd 6d bf
       -0.6041937 -0.40936148 -0.1089912 -0.9289209
000350 3b 87 a8 3c d0 e8 28 bf f8 bb 85 bf 52 14 4c bf
       0.020572295 -0.65980244 -1.0447989 -0.79718506
000360 55 dd 82 be 17 e0 18 be 74 f8 bd 3d 91 d8 8e bf
       -0.25559488 -0.14929233 0.09275904 -1.1159841
000370 d9 f2 8c 3f 56 e6 ff bf d1 16 f0 bf c9 37 0e 3e
       1.1011611 -1.9992168 -1.8756963 0.13888468
000380 37 9b 01 bf fd 41 d7 be 27 83 4f bd 4d d9 37 3f
       -0.50627464 -0.42042533 -0.050662186 0.7181595
000390 15 9c 11 bf 37 68 15 bd 4e 80 30 3f 5d 13 0c c0
       -0.5687879 -0.03647634 0.6894578 -2.1886818
0003a0 e4 c9 49 bf 0e 1b ee bd 5a 15 39 bf fb 90 ca bf
       -0.78823686 -0.11626254 -0.72298205 -1.5825495
0003b0 1f 3b 05 3e 30 a6 9d bf ea 1b 87 be c4 e6 00 bf
       0.13010834 -1.2316341 -0.26388484 -0.5035212
0003c0 9a 84 8e bf 8e c7 23 bf 92 52 37 bf 76 44 54 3f
       -1.1134217 -0.6397637 -0.7161037 0.82916963
0003d0 61 dc 08 3f d7 c0 f0 3e 63 b9 f4 3e 3e 6c 57 bf
       0.5346127 0.47022125 0.4779769 -0.8414954
0003e0 d9 56 07 c0 66 bb a6 be 3f 06 c6 bf c2 93 37 3f
       -2.1146758 -0.3256485 -1.5470656 0.71709836
0003f0 fb 52 93 bd 63 bd d0 3e de 34 d2 be fb e0 ac be
       -0.07193562 0.4076949 -0.4105596 -0.33765396

fc2.bias f4 [100]
000000 8f 00 28 c0 d8 b5 bb bf e9 0d 5d be c5 3b 4a 40
       -2.625034 -1.4664869 -0.21587338 3.159898
000010 6c b6 ba bf 52 f2 8d bf 36 6f f4 3d a3 4b e7 3c
       -1.4586921 -1.1089575 0.11935274 0.028234309
000020 84 ab 1d be e8 09 1c be 75 b0 e5 be 05 a6 e8 bf
       -0.1539746 -0.15238154 -0.4486119 -1.8175665
000030 6b d1 db bd 0d 97 e6 bd 05 87 e5 bc 7a 94 a5 bc
       -0.10733303 -0.112592794 -0.028018484 -0.0202124
000040 1c fb 03 be 3f d3 aa bf f4 45 80 bd 67 ce d6 c0
       -0.1288876 -1.3345717 -0.062633425 -6.7126956
000050 7d ed b9 3e f2 bb 1b be 67 93 81 3e d2 3b 34 3e
       0.36314002 -0.15208414 0.25307772 0.17600945
000060 52 25 b5 3f fa 31 04 be 58 a0 2f 3f b7 3b 80 bd
       1.4152014 -0.1290969 0.6860404 -0.0626139
000070 d2 b6 22 3e 0a a9 5d be 87 43 2d c0 7c cd f0 bf
       0.15890053 -0.21646515 -2.7072465 -1.8812709
000080 6d b6 f8 3e 2c 32 8d 3f 73 34 97 bf 46 86 87 3f
       0.4857668 1.1030936 -1.1812881 1.0587852
000090 56 5f db bd 88 0f da 3e bc bd 37 3f a7 13 2d c0
       -0.10711543 0.42589974 0.71773887 -2.7043245
0000a0 e0 61 5d 3f cc dd 06 be 34 0d 31 3b ec 60 6f 3d
       0.8647747 -0.13170546 0.0027015926 0.05844204
0000b0 2d 8e 4c be 59 21 94 3e bf 4e 88 bf fb 3b 45 c0
       -0.19976111 0.28931692 -1.0649031 -3.081786
0000c0 a3 56 de bd 07 9a d2 bd 9b b3 9e be 59 27 c0 3d
       -0.108563684 -0.10283285 -0.30996403 0.09382505
0000d0 14 52 d5 3e 94 7f fa bd 61 08 3b bf 9d 12 28 be
       0.41664183 -0.12231365 -0.7305966 -0.1641335
0000e0 99 06 71 be 0b 5c 36 be 5d 24 b2 be 1d c4 31 3e
       -0.23537673 -0.17808549 -0.34793368 0.17359968
0000f0 20 35 cf bc 25 cb 2c 3f b7 98 69 3f 07 51 d2 3f
       -0.025293887 0.67497474 0.9124865 1.6430978
000100 b5 b4 40 c0 a5 29 be 3d 72 aa 17 be b8 b2 27 bf
       -3.0110295 0.09285287 -0.14811113 -0.6550708
000110 7a 5c 90 c0 5c 1e 0d be 96 f5 d5 bf 7e 47 38 bf
       -4.5112886 -0.13781112 -1.6715572 -0.7198409
000120 bd f3 27 bf f2 ed c9 3e ed 15 bb 3d f8 94 a9 bd
       -0.6560629 0.3943935 0.091350414 -0.08280367
000130 f4 fc 48 3f 70 93 10 be 45 46 f4 be 4a b2 a6 bf
       0.78510976 -0.14118743 -0.4770986 -1.302316
000140 36 5c 83 bd 19 a9 8f be 7c 2c a1 bf 1b 0b 1a c0
       -0.06414072 -0.280587 -1.25917 -2.4069278
000150 4d f4 e0 3e c9 67 82 bc 06 b4 cc be 38 a7 3a be
       0.43936387 -0.01591863 -0.39981097 -0.18227851
000160 2c 59 c5 be 7c 97 e8 bb 4c 35 f2 3e 98 10 a8 3e
       -0.38544595 -0.0070981365 0.47306287 0.3282516
000170 7b cf b3 be de 3e f2 3d 59 24 4c 3d ee 32 91 3f
       -0.35119233 0.11828397 0.04983935 1.1343668
000180 fc fb 8b bf 79 54 c1 bd a4 cb d1 bc 8a 9d 0f be
       -1.0936275 -0.0943994 -0.025609799 -0.1402494

fc3.weight f4 [50, 100]
000000 41 fb 6c bf 63 b4 1c be 7e c2 f2 bd 50 11 eb be
       -0.92570883 -0.15303187 -0.11853503 -0.45911646
000010 b6 b6 b6 be 79 71 0c 3e 6a 5a 42 bd 3d d9 6c bd
       -0.35686272 0.13715161 -0.047449507 -0.057824362
000020 37 ca 1c bd 9d 32 94 3d 3d 26 83 3d a1 3d 1e be
       -0.038278785 0.07236216 0.06403778 -0.15453197
000030 d2 46 84 3d b2 03 a0 bd cc ba ec 3c d5 b7 7d 3d
       0.064588204 -0.07813205 0.028897665 0.061942894
000040 e6 81 39 be 28 dd 3e bf 8b 8c cd be cb 48 6d be
       -0.18115959 -0.7455621 -0.40146288 -0.231723
000050 b9 d9 c1 3e a4 b9 db be d5 68 37 3e 79 cc be ba
       0.37861422 -0.4291507 0.17911084 -0.0014556787
000060 1b 0d fc be f4 c8 b2 3d 1a 58 e5 3d ed 29 2c 3c
       -0.4922875 0.08729735 0.11198445 0.010508043
000070 c5 e5 ff be f8 5a aa bc a8 f2 83 be a9 85 af bd
       -0.49979988 -0.02079533 -0.2577107 -0.085704155
000080 bd e8 4b be 2a c3 02 bf d6 de bd 3b ff 13 ee bd
       -0.19913001 -0.51079047 0.0057943864 -0.11624908
000090 9e a1 95 bc f2 88 cc bc c6 6d 36 be 2d bb f7 be
       -0.018265542 -0.024967644 -0.17815313 -0.4838499
0000a0 a4 3d 17 be f4 8d 4b bd 6d 91 19 bc 83 c8 f4 be
       -0.14769608 -0.049695924 -0.009373051 -0.47809228
0000b0 df a4 40 be 08 9b a1 bd 68 91 17 bf 8a 70 0a 3e
       -0.18812893 -0.07890898 -0.5920625 0.13519493
0000c0 db e8 94 be 07 ec ac bc 3f f2 6a bd e3 86 3e bc
       -0.29083905 -0.02110864 -0.05735993 -0.011628839
0000d0 12 75 f8 bc 98 8a 9f be 8f 40 35 bd 9e ec 60 bc
       -0.030329261 -0.31160426 -0.04425102 -0.013728289
0000e0 32 6c a1 bd da 5e 3c be 25 54 47 be d7 45 47 be
       -0.07881965 -0.18395558 -0.19465692 -0.19460236
0000f0 49 59 f5 bd f8 9f 2d 3d f6 b5 7d be a3 48 48 bf
       -0.119799204 0.042388886 -0.24776444 -0.78235835
000100 71 0a 8d be ba 9a 1f 3e e4 a2 d6 be 5c 6c 63 be
       -0.2754703 0.15586367 -0.4192115 -0.22209305
000110 4a 7c 23 bc cd c9 18 bd be 92 8f 3c d2 7b 64 be
       -0.009978363 -0.037301827 0.017526027 -0.22312859
000120 67 1a f7 bc f5 72 9b bd 58 b9 07 be 48 c9 d8 38
       -0.030163957 -0.07590286 -0.13254297 0.00010337174
000130 ff 29 2d bf 7f 9f d8 bc dd 59 ed bc 0d 56 53 bf
       -0.67642206 -0.026443241 -0.028973514 -0.8255318
000140 84 c2 f9 3c 67 50 4d 3e b1 41 31 be 6c ad 35 bf
       0.03048826 0.20050202 -0.17310216 -0.70967746
000150 8d 44 bf be 9b 4c 4f 3d 59 7f ae 3d 2a 1f 2f 3d
       -0.37356988 0.050610166 0.085203834 0.04275433
000160 53 92 89 3d d7 85 2f be 29 6d a9 be 81 79 52 be
       0.06717362 -0.171409 -0.33091095 -0.20554163
000170 88 32 1b bf 9f 99 a1 bd 06 96 c9 be 45 3d 7c be
       -0.6062398 -0.07890629 -0.3937227 -0.24632747
000180 4c 7d ad 3b 57 e5 9a 3d 75 6e c4 bd 7d 77 e7 be
       0.0052944776 0.07563274 -0.095913805 -0.4520835
000190 61 72 06 be f3 33 42 be 1e 74 0e be c6 8e a1 bf
       -0.1312957 -0.1896513 -0.13911483 -1.2621696
0001a0 5c 68 ee 3c 75 33 ed be 3a 69 e2 bd 98 d9 34 3d
       0.029102497 -0.4632832 -0.110552266 0.044152826
0001b0 5c 42 e4 bd c5 54 6c 3d d8 89 ce 3e 1d 35 47 be
       -0.111454695 0.05769803 0.4033954 -0.19453855
0001c0 88 23 a4 be 7d 28 d3 be 0f 9d 2f bd 12 b4 07 be
       -0.32058358 -0.41241828 -0.042874392 -0.13252285
0001d0 d1 0e bf be e6 23 98 bf fa d5 50 be dd b4 48 be
       -0.37315992 -1.1885955 -0.20394126 -0.19600244
0001e0 64 91 77 be 0f 33 5d bf 0b ab 60 bf b0 c5 2c be
       -0.24176556 -0.86406034 -0.8776099 -0.16872287
0001f0 75 33 27 bd 31 9c b1 bc 42 63 1c be 3f d0 21 bf
       -0.040820558 -0.021680923 -0.15272239 -0.63208383
000200 05 ea a0 be df 8e 5d be 83 05 fc be e5 2d e3 3b
       -0.31428543 -0.21636532 -0.49222955 0.0069329613
000210 c9 58 40 be b1 cd 11 b8 f4 d4 57 3e 21 79 38 be
       -0.18783869 -3.476226e-05 0.21077329 -0.18014957
000220 0f a9 11 bf 9a ca ca 3e 16 7f 8a 3d 26 8e 91 3d
       -0.5689859 0.39607698 0.06762521 0.07107191
000230 8c 7e b7 3d 15 80 58 3d 8f 84 93 be 99 d0 85 3e
       0.08959684 0.052856524 -0.28812072 0.2613571
000240 1d fa c9 be 02 93 5c 3e 6a 7e d4 bd 5a f7 9b be
       -0.39448634 0.21540454 -0.10375674 -0.30462152
000250 32 67 b9 bc b4 e0 5d 3d 5d fc a8 be 6a b7 ed 3d
       -0.022632215 0.05416937 -0.33005038 0.11607249
000260 3a d7 4a be fe fc 4e bf 5a 2a b4 be fd e9 fd bc
       -0.19808665 -0.80854785 -0.35188562 -0.030995363
000270 96 48 a6 be 92 3c b4 be cf 97 11 be dd f8 05 3e
       -0.32477254 -0.3520246 -0.14218067 0.13083215
000280 bc 15 a9 3e e2 d1 5a be 40 b9 1a be d6 6b 76 3d
       0.33024395 -0.21369126 -0.1510973 0.060161434
000290 0a 13 60 bd d8 51 b7 3b c2 55 75 be 33 2f 96 3d
       -0.054705657 0.0055944733 -0.23958495 0.07333221
0002a0 f7 bb 23 bf 06 dc 0e 3d 00 a8 2d 3d b6 92 65 be
       -0.63958687 0.0348778 0.042396545 -0.22419247
0002b0 42 1d 4b bd 0d 58 17 3c 4c 82 a2 be fc 2b 81 3d
       -0.04958845 0.009237302 -0.31740034 0.063072175
0002c0 18 95 26 3d 2f 51 c7 3c cd d9 94 3e 30 96 f2 be
       0.04066953 0.024330704 0.2907242 -0.4738021
0002d0 53 ad c1 bd 21 ae d5 ba 6f bd bf bd c0 7b 46 bd
       -0.09456887 -0.0016302505 -0.093623035 -0.04845786
0002e0 f5 5c 82 be 17 03 04 bd c6 76 15 bd 78 66 95 bd
       -0.25461546 -0.03222951 -0.036490224 -0.07294935
0002f0 f8 38 ce be d4 ad 6b be 7d 57 8d be 69 d3 87 bf
       -0.4027784 -0.23015529 -0.2760581 -1.0611392
000300 ba 13 d8 bd 86 bb 27 be 88 b3 7d 3e bc c0 77 be
       -0.105506375 -0.16380128 0.24775517 -0.24194616
000310 dc 09 46 be f9 4d ba 3c 46 b1 72 3e af 4c cf bf
       -0.19339699 0.022742258 0.23700437 -1.6195277
000320 12 5f 96 be 07 9b 67 be b9 1d 19 bf 19 58 bd bf
       -0.29369408 -0.22617732 -0.5981098 -1.479251
000330 68 a1 88 be 65 23 1c bf db f3 1c 3e 45 19 81 bc
       -0.26685643 -0.6099151 0.15327398 -0.01575912
000340 43 1b e2 3d 49 0e 00 bd 34 a5 47 bd a3 ff 92 be
       0.11040356 -0.031263623 -0.048741534 -0.2871066
000350 6c 17 a5 bf eb b9 8b bf 1e b9 82 bc b9 85 31 3e
       -1.2897773 -1.0916113 -0.015957411 0.17336167
000360 16 5d 25 be 41 b7 97 3d ef 90 8b bf 5e 43 c2 be
       -0.1614879 0.07408 -1.0903605 -0.37942022
000370 b0 d8 32 3d 10 15 88 be b9 c5 6e bf d0 c5 1b bf
       0.04366368 -0.2657857 -0.9327045 -0.6084871
000380 8a 54 a0 bf 05 40 e0 3d ac 26 23 3e a2 de b6 be
       -1.2525799 0.10949711 0.15932721 -0.3571673
000390 fa 96 f1 be 62 3b a5 bf 1f 15 00 bf 2a c3 77 bf
       -0.47185498 -1.2908747 -0.5003223 -0.9678217
0003a0 f1 68 b2 bc cd 4a 9d be 2b f0 3c bf b0 43 6c 3d
       -0.021778556 -0.3072113 -0.7380397 0.05768174
0003b0 ea ff 4c be a8 7e 52 3f b0 ef a3 3e 6e 1c de be
       -0.20019498 0.8222451 0.32018805 -0.43381065
0003c0 f4 d4 96 bc 8a 5f b7 3c 72 f5 a6 be 62 33 57 bf
       -0.01841209 0.022384424 -0.32609135 -0.8406278
0003d0 bb 56 3c be 76 07 e6 be e9 e7 87 bf a6 2d 39 bf
       -0.1839246 -0.44927567 -1.0617648 -0.7233528
0003e0 32 2f 7b 3d bf 69 4b bd 74 bd 95 be 39 8f 43 bf
       0.061324306 -0.049661394 -0.29246104 -0.76390415
0003f0 7b 25 94 3e fb b1 98 3c 1b dd 01 bc ed 05 23 bd
       0.28934845 0.018639555 -0.007926251 -0.039800573

fc3.bias f4 [50]
000000 66 4e 01 bf 62 b3 88 3f b4 ff f0 3d f5 09 92 be
       -0.5051025 1.0679743 0.117675215 -0.28523222
000010 25 ff 4a 3e 55 14 bd 3f fe c2 aa bf 4f d7 1f bf
       0.19823892 1.477183 -1.3340757 -0.6243791
000020 03 7e 2f c0 b0 a1 07 bf e6 dc 40 bf c7 16 9c be
       -2.7420661 -0.5298109 -0.75337064 -0.30486128
000030 dd 2b 02 bf e2 a9 d6 be 42 03 6a c0 bf ba 9a bf
       -0.5084818 -0.41926485 -3.6564488 -1.208824
000040 34 fb 8b be cc 57 c7 be bc 84 8b bf f3 dd cf bf
       -0.2734009 -0.3893417 -1.0899882 -1.6239609
000050 2e a6 b4 be d2 b1 04 bf 14 8a 97 c0 6a ae 16 bf
       -0.35283035 -0.5183383 -4.7356052 -0.58859885
000060 a1 5e 2c bf d8 e0 bb 3f 6c 92 d8 3f e6 07 2d bf
       -0.6733189 1.4677992 1.6919684 -0.6759018
000070 7c 89 22 3f a3 1c b7 3f 66 91 a8 bf 49 06 67 3f
       0.63491035 1.4305614 -1.3169372 0.90243965
000080 f0 2d 25 3e 93 1b 53 bf d8 a5 0e bf 5f 67 0b bf
       0.16130805 -0.8246395 -0.5572181 -0.54454607
000090 d3 50 5d bf 80 49 ae be d3 8e d3 3f c5 c4 8d be
       -0.8645145 -0.3404045 1.6527961 -0.27689186
0000a0 85 44 0e 40 84 e3 d5 be ee 46 41 bf 3e 79 3e bf
       2.222932 -0.41775143 -0.75498855 -0.7440375
0000b0 21 03 c1 be 94 d9 a0 3f 8c e9 2e 40 c5 19 85 3d
       -0.376977 1.25664 2.7330046 0.06499056
0000c0 18 52 ef be b0 98 49 bf
       -0.4674232 -0.7874861

fc4.weight f4 [1, 50]
000000 79 51 a6 bc 68 6c e7 3c 19 5d d4 bc 3d f2 b5 3c
       -0.020302521 0.028249934 -0.025923299 0.022210235
000010 b9 8b 16 3c 4c c0 ca 3c b0 d2 63 bc ef 97 8e bd
       0.009188586 0.024749897 -0.013905212 -0.06962573
000020 4f e8 8c bb 04 5c 13 3c 1a 19 8f bc 8c 8a cc bc
       -0.0043001543 0.008994106 -0.017468024 -0.024968408
000030 0a 9f 6b 3c c6 8f ed bc 89 b4 8f bc a3 67 47 bc
       0.01438118 -0.02899922 -0.01754214 -0.012170705
000040 7c eb 9a bc dc c3 ca bc 4f ec 5a 3b 90 22 4c bc
       -0.018911116 -0.024751596 0.003340501 -0.012459412
000050 fc 31 c8 bc 6f 75 b1 bb 00 f7 b6 3c a2 1e e1 3c
       -0.024437897 -0.0054156105 0.022334576 0.027480427
000060 de 59 c8 3c 60 17 04 bc 61 40 9a 3c 27 62 fe 3c
       0.024456915 -0.008062214 0.018829526 0.031052662
000070 d4 6a 9a bc 5f d2 8c bc 1a d1 26 bc 79 c1 1b bd
       -0.018849768 -0.017190157 -0.01018169 -0.038026307
000080 1c c9 fc 3b eb db 86 bb 05 88 eb 3b cf 5a ae bc
       0.007714404 -0.0041155717 0.0071878457 -0.021283535
000090 2f 64 81 3d b6 dc e6 3c 1d 46 7e 3c 5f db b9 bc
       0.06317937 0.028181415 0.015519646 -0.022687612
0000a0 10 6a ae bc a7 c3 b1 bc 50 ff 75 bd a3 55 c4 bc
       -0.021290809 -0.02169974 -0.060057938 -0.023966616
0000b0 e5 98 c8 bb 4e 53 18 3c 1a e9 84 3c fe 8b 12 bd
       -0.006121742 0.009297205 0.016224433 -0.03577804
0000c0 10 74 57 bd f8 d4 57 3b
       -0.05260092 0.0032933336
