Results/BS_256_EP_6000_TMAX_200_NOISE_0.1/last_checkpoint_actor.pth (torch_old, 72217 bytes, 8 tensors)

fc1.weight f4 [100, 24]
00000000: 8f37 763e e5dd d23e 9895 aabd 6f69 56bd
00000010: bc2d 9ebe b39c 92be e034 a53d 9efc 843e
00000020: 52f1 4e3e 0760 ab3e 98d2 14bc df46 93bd
00000030: 4202 eabe be9f 06bf e72f 01bd c378 c6bc
00000040: 8241 8f3e f0bc bc3e 2170 99bd 02dc 52bd
00000050: 4864 8bbe 521f d9be 66be af3c 4fb9 423e
00000060: 01e6 373d f7ea 69be 4bc7 1a3e d60b c0bd
00000070: eb93 43be d24a 2e3d 93ee e7bd 123d 8b3e
00000080: 9d4e fdbd f153 ecbe 488b 05be 8766 8fbe
00000090: 413d 6abe 8447 093e 6384 d33d 6d4c 243c
000000a0: 7321 b83d b9b7 b7be 5082 70bd 3058 00be
000000b0: ffc4 3fbe 4941 3ebf 398f 113d 6b61 3d3e
000000c0: 2748 4dbe 7d8d 35bd d8e1 843d 9f11 3a3e
000000d0: 5b9c ac3e 9064 ecbd e2cf 913d 23ce 10be
000000e0: 6136 b53c ef92 7cbe 3220 d8bd 3549 5cbc
000000f0: 2233 503e 2a0e 2b3d 4003 aebd 6d5a 1d3e
00000100: d1b8 513e 3e8f f2bc c095 1b3c cb58 683d
00000110: 9f16 a33d 4c0f ed3e 8154 1fbe 4ee1 85bd
00000120: 0663 383e 6247 193f 05fa 123e 831f 553e
00000130: fc4e 38be cc6a bebe 40fa 7abc 9e26 ccbd
00000140: c561 4fbe 3f6e d43e 529f 053e 86aa babe
00000150: 2daa dcbc ce7e 8bbd 35d0 6ebd ee41 82be
00000160: 5b66 aa3d 8ac8 cc3c b54a 8e3d 0c74 923d
00000170: a1fe 8f3e 0294 443e 025b 54be 3011 28be
00000180: 535f e83d 3e68 fa3e 305a 84ba 4dde 83be
00000190: 357a 1a3e 333b 173e e4c2 8d3d 8efa 43be
000001a0: 744c 51be cdbe 9a3e ee2d 7cbd 18a1 79be
000001b0: 2d3d d3bd a079 f63c ce36 0c3c d083 0e3d
000001c0: dd6c 35be fd2e e53e 452e 093e 54d1 8dbe
000001d0: 6f80 91be 00fe 9cbe 3179 c33c 522d 67bd
000001e0: 31f3 0bbd 1a4f 22be 6460 20bd 1254 823d
000001f0: 67e9 9cbe 5d8c 96bd b220 193c 9490 07be
00000200: 9cbb 2fbe 571f 92be 987e 86bd be89 96bb
00000210: 56bb 23bd f219 47be 08b1 fd3d 5cbe 8dbd
00000220: 994f f2bd 19bb 21be bc60 80bd 24cb 233e
00000230: 8eec e63e 85a9 f5be 6be9 b73d 5a61 7c3c
00000240: 2944 92bc c208 073d abe2 133e e3be 1d3e
00000250: f706 d8bd 6f4b a2be fd0d 3ebe 8c86 8abc
00000260: 0260 253e 1761 803e 3be4 8d3d 1553 1bbe
00000270: fee5 313e 2e71 04bf 9c80 acbd 17f5 19bd
00000280: 3d9e 0a3e 7fde 0e3e 85db 35be 2cf4 68be
00000290: 356a 7f3c aef0 35bf b87f b2bd ec1a d23c
000002a0: 0098 eebd 138f cb3d 1b9e 493e 8371 163d
000002b0: 4e5c d73e 40ae afbd 2cd6 2abe f31e 7f3e
000002c0: 3a14 2abd 6986 a33c f3c3 053d 6ab0 19bd
000002d0: ce95 133e a697 98be aff9 783c e2d6 3c3e
000002e0: df89 123e a798 8a3e 5875 a3bd c389 513e
000002f0: 426d 07be b1ac a2be d37d 063e 0642 c63e
00000300: 8b16 9cbd 3ce9 263d 592e 0bbd a9a7 bebe
00000310: 9044 adbc 3d36 143e 2c21 40bc 5b67 87be
00000320: ff88 e53d 7a99 cf3d 119e e8bd dbdf c0be
00000330: 4d33 e5bd d3ee a13e f6c1 05bd 88e5 83bd
00000340: 4467 503e 9297 5d3c a016 98bb 4549 21be
00000350: bc3d fcbd 9b25 933e 1f4c 95bb e195 babd
00000360: a7d6 a6bc 54f4 3c3d 13e1 9b3d ff33 aabd
00000370: c907 1fbe 0f8a 193f 2e64 75bc 5fe5 b43d
00000380: 10c8 99bd 518c b93e d10a babd 6493 813c
00000390: 38e3 52be 81e7 4c3d 7998 683d 13ef 773e
000003a0: 34e1 753d 4989 de3e b96d b83d 9a20 44be
000003b0: 0d4d 14bb 2ce4 06bf 0c79 f8bd 9445 20bb
000003c0: 8d0f 9fbd 00c6 de3e ee06 b4bd 93ad d73d
000003d0: a1a1 7c3e c31d ffbe ab65 003e 20af 82bd
000003e0: 1f1a 11be 85b0 283e 8822 da3c 5e87 fe3d
000003f0: edde 7a3e 15a6 a4bc 4f1b 543c b4ab b23c
0.24044631 0.41184917 -0.08329314 -0.052346643 -0.30894268 -0.28635177 0.08066726 0.25973982
0.20209244 0.334717 -0.009083413 -0.07191252 -0.45704848 -0.525875 -0.031539824 -0.024227506
0.27979666 0.36862898 -0.0749209 -0.051479347 -0.27224946 -0.42406708 0.021453094 0.19016002
0.044897083 -0.22843538 0.15115087 -0.093772575 -0.19099395 0.042551823 -0.11324801 0.2719503
-0.1236851 -0.46157792 -0.13041413 -0.2800791 -0.22874929 0.13406187 0.10327985 0.010027987
0.08990755 -0.35882357 -0.058718026 -0.12533641 -0.18727492 -0.7431837 0.03553698 0.18494193
-0.20047055 -0.044324387 0.06488389 0.18170784 0.3371304 -0.11542618 0.071197286 -0.14141135
0.022120656 -0.24665426 -0.10553016 -0.013445188 0.20332006 0.041761555 -0.08496714 0.15366526
0.20480658 -0.029609319 0.009496152 0.056725305 0.07963299 0.46300733 -0.1555958 -0.06537114
0.18006524 0.59874547 0.14353187 0.20812802 -0.1799888 -0.37190855 -0.015318453 -0.09968303
-0.2025214 0.4149036 0.13049057 -0.36458224 -0.026936615 -0.068112954 -0.05830403 -0.25440925
0.08320304 0.024997968 0.06947843 0.071510404 0.28123954 0.19197085 -0.20737842 -0.16412807
0.11346307 0.48907655 -0.0010097679 -0.2575554 0.15085681 0.14768676 0.06921938 -0.19138548
-0.20439321 0.30223694 -0.06156724 -0.24377859 -0.10314403 0.030087292 0.008557988 0.034793675
-0.1771731 0.44762412 0.13396557 -0.27698767 -0.284183 -0.30662537 0.0238615 -0.056439705
-0.034167472 -0.15850487 -0.039154425 0.063636914 -0.30646822 -0.07350991 0.009346174 -0.13238746
-0.17161411 -0.28539535 -0.065671146 -0.004594057 -0.03997358 -0.19443491 0.12387282 -0.06921074
-0.11831588 -0.15794028 -0.062684506 0.15995461 0.45102352 -0.47980896 0.08980068 0.01540407
-0.017854767 0.032967336 0.14441936 0.15404849 -0.105482034 -0.31698176 -0.18560024 -0.01690986
0.16149905 0.25074074 0.06928297 -0.15168412 0.17372891 -0.517352 -0.08422968 -0.03758725
0.13536926 0.13952063 -0.17759521 -0.22749394 0.015589287 -0.71070373 -0.08715767 0.025647603
-0.116500854 0.099393986 0.19689219 0.036729347 0.4206261 -0.085781574 -0.16683263 0.2491415
-0.041523196 0.019961553 0.032657575 -0.037521757 0.14412615 -0.298032 0.015196248 0.18441346
0.14310406 0.2706959 -0.07981366 0.20462708 -0.13225272 -0.31772378 0.13133936 0.38722247
-0.07621487 0.040749773 -0.033979747 -0.3723729 -0.021150857 0.14473815 -0.011726659 -0.2644604
0.112077706 0.10136695 -0.11358274 -0.37670788 -0.111914255 0.3162752 -0.03265568 -0.06440264
0.20351893 0.013524907 -0.004641369 -0.15750606 -0.123164624 0.28739628 -0.0045561935 -0.091106184
-0.020366026 0.046131447 0.07611289 -0.08310699 -0.15530314 0.59976286 -0.014977498 0.088328116
-0.07508862 0.36239865 -0.09084094 0.015817352 -0.2059449 0.050025467 0.056786034 0.24212293
0.060029224 0.43464115 0.09005303 -0.19153062 -0.0022628934 -0.5269191 -0.12132463 -0.0024455534
-0.07766638 0.43510437 -0.08790384 0.105311535 0.24671032 -0.49827394 0.12538783 -0.06381059
-0.1417012 0.16473587 0.026627794 0.12428163 0.24499102 -0.020098725 0.012945964 0.02181039

fc1.bias f4 [100]
00000000: 182b 2b3e df60 e13d df92 a1be 0ee1 0f3e
00000010: 97fd 043e 1223 103e 14a4 09be 1cd5 6cbe
00000020: 0a33 b6be f057 403e 008c 3cbe 1f36 7f3e
00000030: 19c2 68bd 3a9b 22be 4549 2e3e 3c7d 97be
00000040: d392 e9bc d6da c83d 10fd 90be 6310 b3bc
00000050: 9930 47be 0a90 86bc a5e1 c4be 3dd5 a1bc
00000060: 22bc c3bd 9f61 c9bd eff2 d4be 797a 92be
00000070: 7f2f d3bd 004b 8bbe 05f7 d2bd fe19 123e
00000080: febe 04be 06fd ab3e 3012 b63d 9881 673e
00000090: 0fb4 e3bc b5ce fb3c 793e a6bd 8186 4c3e
000000a0: caa9 3b3e a75a ccbc 41b6 6fbd 3cb0 3cbd
000000b0: 2d48 84bc 54ff 2d3e 04ee 84bd 46b5 853d
000000c0: 7575 1ebd 0a0b bb3d c1f7 e93d f9aa 773e
000000d0: 8c2f 5dbd 8fc5 a43d 2f8a a73e 8c73 0bbe
000000e0: 35e3 48be 9bec 753e 2efa 043e 50ff 733d
000000f0: e45c 12be 4d61 50be 1f7e 9cbc 6a1f 95be
00000100: 1f23 153e a479 603d afc8 cabc 69ae 02be
00000110: a4ee 74be e589 ab3e a55c 8f3e 168a 2dbe
00000120: 7e6d a7be 4ae7 b5bb 055d c2bd b3e6 82be
00000130: 9843 cb3e 81c0 95be 7520 a2bd 0cec 2f3d
00000140: 946a 9cbe d64b 043c d7d2 95bd b7ec aabd
00000150: 9d4f 2fbe f9bf 90be 19f3 293e 5536 c0bd
00000160: 97ef 45be 594f 483e 9855 18bd 8059 703e
00000170: f071 853d 0196 8d3d 01fc 47bd dbfb 0f3e
00000180: b8fc f53e 00e9 843e 49c3 01be 586e 0b3e
0.16715658 0.11004805 -0.31557366 0.14050695 0.12987362 0.14075878 -0.13441497 -0.2312817
-0.35585815 0.18783545 -0.18412781 0.2492299 -0.05682573 -0.15879527 0.17020138 -0.29587734
-0.028512394 0.09807365 -0.2831807 -0.0218584 -0.19452132 -0.016426105 -0.38453403 -0.019755
-0.09557368 -0.09833073 -0.41591594 -0.28609064 -0.103117935 -0.27205658 -0.103010215 0.14267728
-0.12963483 0.3359148 0.08890188 0.2260803 -0.02779582 0.030738214 -0.081173845 0.19973184
0.18326488 -0.02494557 -0.05852342 -0.046066508 -0.016147697 0.16991931 -0.064907104 0.06528716
-0.038686235 0.09132965 0.114242084 0.24186315 -0.054000422 0.08045494 0.32722613 -0.13618296
-0.19617923 0.24016039 0.12986061 0.059569657 -0.14293247 -0.20349617 -0.019103108 -0.2912553
0.14564179 0.054803506 -0.024753897 -0.12761845 -0.23919159 0.33503643 0.2800037 -0.16947207
-0.32700723 -0.0055512534 -0.09490398 -0.25566635 0.39700007 -0.2924843 -0.07916347 0.04294972
-0.30550063 0.008074721 -0.07315605 -0.08345931 -0.17120214 -0.28271464 0.1659664 -0.09385363
-0.19329678 0.19561519 -0.037191004 0.23471642 0.065158725 0.069133766 -0.048824314 0.14060919
0.48044372 0.25959015 -0.12672152 0.13616312

fc2.weight f4 [100, 100]
00000000: e6b1 14be b45e d1bd 99d7 b6bc 74ba ca3d
00000010: f9fe 16be 355b 943b 2706 ddbd e674 ae3d
00000020: 46a3 5ebd 6ab7 903b 722b ac3c b72d 2cbe
00000030: 257f 793d 0e30 673e 8601 b5bd 990e 04be
00000040: a5e8 b93c e0d9 19be aa22 603c 6dc5 d7be
00000050: 963f f4bd 706e 80bc 463e e5bc 4397 b7be
00000060: 6a6c f6bd 64bc e0bc 2083 22bc e7a8 52be
00000070: a912 11be b54d a83c 75ba e33c 16ce eebd
00000080: 1f2d 87bd cdfd 5abd d6a2 1c3e 3cb2 13be
00000090: dffb b3bd 811a 2b3e 2129 663d afb3 8cbe
000000a0: c45c edbc 49a1 9abd a71e 593d 202b 39bc
000000b0: 9a04 dabd 9bd7 debd 33da 93bd 3ffb 393e
000000c0: 5121 77bd 4b9c 953d 65c2 263d e477 383e
000000d0: c327 593d 0472 3b3e fe2a c5bd 5c9b d03d
000000e0: df2c 21bd e996 d53d fb52 0a3e 5dc1 ac3c
000000f0: 131f c0be 804b cabd 78f9 233e 3c34 3d3d
00000100: b44e ddbc 7697 a6bd 02c7 d9bc e561 1e3d
00000110: a3c0 41be 3a18 9d3d 4c27 be3d 3cee 103c
00000120: f6fc db3c 01f1 5d3d 6d95 983d 042a cd3d
00000130: f185 f8bd fd34 a83d a4d0 8cbc f9b9 79bd
00000140: 1af9 babd 0a7b 303d 0170 c4bd 0f9d 3b3e
00000150: 7488 7cbe 6742 203e 9695 c53d a4a1 8d3d
00000160: fa8b 49bd 637a ebbd df04 34be ef68 0f3c
00000170: d377 77bd 56ff 9a3d cc9c 43be 3841 193e
00000180: 447e 9d3d 43d1 f2bd 9a83 133e 68cb f43d
00000190: d95b 783e 269e 34bd 62cf 5c3d ca81 09be
000001a0: 277e 59be 7a4c acbd c284 1f3e c07d 103c
000001b0: ab51 903c 52a7 30bd 9c5a 5cbe b7ba 5a3e
000001c0: 8c06 62bd 269c cabd 121d d6bc f905 47bd
000001d0: 3854 f7ba 27bd 3ebd ce82 7e3d 89ff 8f3d
000001e0: ee0a 9fbd fe4d c7bd b224 f63d 78f7 63bc
000001f0: 5834 9bbe e5ea 22be 7534 a93d 5f9c b7bd
00000200: e1b8 bcbd f5b7 19be d8fc 19be 65fa a7bd
00000210: 49dc eebd 7013 f6bc 72d4 39bc 0c01 32be
00000220: fc34 56bf 291c b13d ed0e a1b9 f7b8 9fbb
00000230: f96b 153d f29b ffbc 1b1f eebd 9b52 bfbc
00000240: f1aa 82bd 2b33 593e 443d fc3d 9821 87bc
00000250: 1f66 0f3e 7043 023e e03d 50bd 00a8 263d
00000260: 5b93 a23d 9887 00be 3f1f f6bc 3448 243d
00000270: 579f e93c 5d34 c9bc e21d 89bd a710 4c3e
00000280: 167d d9bd ee17 d7be 6ed8 b1bd 9ec5 8ebb
00000290: 5201 243e 0dbd 903e 15ec 3cbe 99c2 7dbd
000002a0: 1c21 26bd 5cfe 473c 2faa a63c 79ae 39bd
000002b0: 1e2a 7e3d 0ba8 d8bb 16ce 72be 35a4 e4bb
000002c0: 49c7 99bc 1590 f8bd f63d 56bd 3d0f 2abe
000002d0: aff5 003c bf79 273d 34d5 64bd b518 023c
000002e0: 4353 cabd 207c 1c3d afa3 3bbd 4329 8d3d
000002f0: 9420 163e f7e2 353d b4e5 4e3e db8f 5fbb
00000300: 5452 b53d 3376 2bbd e319 613e 3fa8 7ebe
00000310: e5cf c73d 4dfc 23be a755 42bd 0a27 07be
00000320: 4bdc ef3d 6649 86bc 13e1 febc 77b7 72bd
00000330: 9cda 61be 6947 27bd 2b27 473d 7734 683c
00000340: b935 48bb 998e e73d ff18 1abe 2c5e 91bd
00000350: d234 44be a0ab 1e3d dc80 f93c b700 16bd
00000360: 9891 93bd 14aa 8ebe 833a 2a3d e945 cabd
00000370: 54cf f6bd 445d f33d 9e84 54bd 62cc 7d3d
00000380: d092 0cbc feb8 8a3d 81b8 1fbc 401a 33be
00000390: 637a e8bd 7eb9 e83d aa7d c5bc dc59 5abd
000003a0: 7c98 9d3d 2398 8d3d 6c0e cabd 9f1f 983d
000003b0: 9514 00be a082 5f3d 5b04 703e cbb1 683d
000003c0: d214 153e 3838 26bc 4723 efbd c8ba 02be
000003d0: 2703 c83d 4bfe 91bd f1d5 633d 42db 49be
000003e0: 2942 283e 72ef 383e b795 be3d 2de0 4bbc
000003f0: b202 993d ecea ccbc 6243 3ebd 5fd4 e73d
-0.14520988 -0.10223141 -0.022319602 0.09898844 -0.14745702 0.0045274743 -0.10792189 0.0851839
-0.05435493 0.004416396 0.02101681 -0.16814314 0.06091227 0.22576925 -0.08838181 -0.12896194
0.022693941 -0.15024519 0.01368014 -0.4214281 -0.119261906 -0.01567766 -0.027983796 -0.3585759
-0.12032397 -0.027433582 -0.009918958 -0.20572244 -0.14167275 0.020544866 0.02779887 -0.116604015
-0.06600403 -0.0534647 0.15296492 -0.1442346 -0.08788275 0.16709329 0.056191567 -0.27480838
-0.028974898 -0.07550294 0.053007748 -0.011301786 -0.10645409 -0.10880967 -0.072193526 0.18162249
-0.060334507 0.07305201 0.040712733 0.18014485 0.053016435 0.18305212 -0.09627341 0.101858824
-0.039349433 0.104291745 0.13508217 0.021088297 -0.37523708 -0.09877682 0.16013134 0.046192393
-0.027015068 -0.08134358 -0.026584152 0.03866758 -0.18921141 0.076706365 0.09284839 0.008845862
0.02685402 0.054184917 0.07450376 0.100177795 -0.12134922 0.08213232 -0.017189331 -0.060968373
-0.091295436 0.04308609 -0.095916755 0.18321632 -0.24661428 0.1565033 0.09647672 0.06915596
-0.049205758 -0.11497953 -0.17579983 0.008753045 -0.060417008 0.07568233 -0.19102782 0.14966285
0.07690099 -0.1185632 0.14405671 0.11952859 0.24253787 -0.044096135 0.053908713 -0.13428417
-0.2123953 -0.08413024 0.15577987 0.008819044 0.017617067 -0.04312832 -0.2151894 0.21360289
-0.055182025 -0.09893064 -0.026136909 -0.04858968 -0.0018869704 -0.04656711 0.062136464 0.07031161
-0.077657565 -0.09731673 0.12018718 -0.013913982 -0.30313373 -0.15909918 0.082619585 -0.08965372
-0.0921495 -0.1501158 -0.15037858 -0.08202056 -0.1166311 -0.030038565 -0.011342155 -0.17383212
-0.836746 0.08647949 -0.00030719434 -0.0048743444 0.036479924 -0.03120229 -0.11627027 -0.023354819
-0.06380261 0.21210925 0.12316373 -0.016495511 0.140038 0.12721038 -0.05084026 0.04068756
0.07938262 -0.12551725 -0.030044196 0.04010792 0.028518362 -0.024561102 -0.06695153 0.19928227
-0.106195614 -0.42010444 -0.08683859 -0.004357054 0.16016129 0.28269234 -0.18449433 -0.06195316
-0.04055892 0.01220664 0.020344822 -0.045332406 0.062051885 -0.006611829 -0.23711428 -0.006977583
-0.018771784 -0.121368565 -0.052305184 -0.16607375 0.0078710755 0.04088759 -0.05586739 0.007940461
-0.09879162 0.038204312 -0.045810398 0.06892636 0.14660865 0.044405904 0.20204812 -0.0034112844
0.088535935 -0.04186077 0.21982531 -0.24868868 0.097564496 -0.16014214 -0.047444966 -0.13198486
0.117119394 -0.016392421 -0.031113183 -0.059256997 -0.22056049 -0.040839586 0.048621338 0.014172665
-0.00305496 0.11306495 -0.15048598 -0.0709804 -0.19160774 0.038737893 0.030456953 -0.036621775
-0.07205504 -0.27864134 0.041559707 -0.098766156 -0.120512635 0.118830234 -0.051884286 0.061962493
-0.008579925 0.06773566 -0.009748579 -0.17490482 -0.113514684 0.11363505 -0.024107773 -0.053308353
0.076951 0.069137834 -0.09866032 0.07427906 -0.12507851 0.054567933 0.23439161 0.05681018
0.14558724 -0.0101452395 -0.116766505 -0.12766564 0.09766226 -0.07128581 0.055623952 -0.19712546
0.16431488 0.18060091 0.093058996 -0.012443584 0.07471217 -0.025014363 -0.04645098 0.113198034

fc2.bias f4 [100]
00000000: 933f 1c3d e445 0a3d 81ed fe3c 3039 ef3d
00000010: a6b8 0cbe d2c2 103c 6cb6 01be 73e0 66bd
00000020: 3961 123d ac96 a53b 9a94 b3bd ec04 a73c
00000030: da8d a73d 86d4 f53d 3471 c2bc f439 b33d
00000040: bb62 133e 6158 21be e654 8abd 0749 15bd
00000050: 4530 3cbd 2f47 04be 5667 57bd fd13 adbd
00000060: 8249 36be b1bd 563c 28e3 2e3d c279 a43d
00000070: 7ef9 113e f734 c6bd 6630 c839 2652 bb3d
00000080: 5a96 c63d 82ed df3d b86c c1bd b92e 8abd
00000090: 470f 813d fab0 a63d 6e73 8dbd 7724 b83c
000000a0: 15e8 f13d a0f4 1cbe 5ef0 64bd 94f7 d7bd
000000b0: d8dd 673c ccd8 c8bd ec37 87bd 2bbe aebd
000000c0: 0ff3 6a3c 7dfb 053e 6e7b f2bd 0a0f e73d
000000d0: 6ec4 b8bc 2cce 223e 004c 50be 01a6 003e
000000e0: 592e 26bd 97b2 e7bd 9a99 0bbd 8277 a4bd
000000f0: 3829 8ebd 8188 babd 4df1 743c 7a5d d5bc
00000100: 2668 45be 263c 8bbe 5fcb 7e3c 13b8 bdbc
00000110: 120a 8e3c 4924 c4bd ecc8 96bd d936 eabd
00000120: fe01 babd 1765 2e3d 68ea 28be ce59 033d
00000130: 522c 6cbd 5cac d03d 518a 7a3d c838 bd3d
00000140: 0b03 e6bd 09f8 0bbe 5e73 a9bd daf4 3fbe
00000150: 8d79 113e 2848 07be 8b94 ff3c 925c f6bc
00000160: 3948 533d defe 64bd 8549 033e 256f 923c
00000170: c488 07be c8c0 c0bd dc82 37be 67df 313e
00000180: 645a 25be 756a 063e 5b3f 11be f26b ef3b
0.038146567 0.03375806 0.03111911 0.116808295 -0.13742313 0.008835511 -0.12667245 -0.056366395
0.03573725 0.005053362 -0.08768578 0.02038809 0.08181353 0.12003426 -0.02373562 0.08751288
0.14393131 -0.1575637 -0.06754474 -0.036446597 -0.04594447 -0.1291778 -0.052588783 -0.08451078
-0.17801479 0.013106749 0.0426971 0.08031036 0.1425533 -0.09678071 0.00038183032 0.09146528
0.09696646 0.10933973 -0.094445646 -0.06747193 0.06301742 0.08139224 -0.06906782 0.022478325
0.11811844 -0.15327692 -0.055893295 -0.10545269 0.014152013 -0.09806976 -0.06602463 -0.085323654
0.014340176 0.13084216 -0.118399486 0.11282165 -0.022554602 0.15898961 -0.20341492 0.12563325
-0.040571544 -0.1131336 -0.034082033 -0.08030607 -0.069414556 -0.09108067 0.014950109 -0.02604555
-0.1927801 -0.27194327 0.015551417 -0.023159062 0.017338786 -0.09577233 -0.073625416 -0.114362426
-0.09082411 0.042576876 -0.16495669 0.032068066 -0.057659455 0.10189125 0.061167065 0.09239346
-0.11231049 -0.13668837 -0.08273958 -0.18745747 0.14206524 -0.13211119 0.03119876 -0.030073438
0.05158255 -0.055907123 0.12821014 0.017875263 -0.13235766 -0.0941177 -0.17921013 0.17370377
-0.16147763 0.13126548 -0.14184324 0.0073065693

fc3.weight f4 [50, 100]
00000000: f373 7c3d ac0c f13d 1204 7abe e42e fa3c
00000010: 717f 5c3d 4745 133d 4889 4ebe c4f0 dc3d
00000020: 1c44 533e f4f5 54bd ab17 113e c36f 3dbe
00000030: 8e41 fdbc 1bc8 c1bd 075b ac3c 8f26 64bd
00000040: fd50 80bd b62e e13d f66d 0bbe d20b a4bb
00000050: 4c4a 0c3e 18db 25bc 2269 a63d cb3c afbd
00000060: 8a48 8ebe 448b a03e 4f25 d13d dd87 9dbe
00000070: 9cbb 5f3c 1224 5b3e a3d4 acbc 01a2 0b3e
00000080: f0d6 243e 518f 7b3c 7958 e83d 48a1 83bd
00000090: 8625 eebc 1e80 373d 2293 7dbd 1d45 043e
000000a0: 223c 80be e130 803d 4905 2cbe b337 953d
000000b0: 7990 ecbd 7480 6abd 3bbe abbd f612 b93d
000000c0: db70 ec3c 8be3 40be 0e8d 89be 17e4 853e
000000d0: 3d13 243e e238 0cbe 0110 3e3d 071c e13b
000000e0: 5634 263d 19c9 bbbe 3b9c c0bd 1e9b f33b
000000f0: 43e4 113d 5b34 403d fc98 eb3d 5f5b 9cbd
00000100: a383 d13d 1f4e 1b3e cff3 94bc 2c65 dd3e
00000110: ba94 22bc 3d02 393e 1d1b ddbd 1f35 27ba
00000120: 01e3 b03d 202d 24bd bc50 613e d089 fb3d
00000130: e540 403e 826c c63e d5ff cf3d 197e 4cbd
00000140: 7d51 0b3e 4395 a0bd 1282 283d 1015 9e3e
00000150: 750f bc3b 8dfc f4bd a72a 503d 1515 36be
00000160: 85d9 19bd c376 96bd 9524 86bd eb2d 7f3e
00000170: 8544 cb3d db64 cf3c 6731 1d3e a73c a5be
00000180: 1474 6a3e 8c6f c0bc ffb6 5dbd 2b11 043e
00000190: 4df2 243d d075 cebe 47ac ac3d 1075 313d
000001a0: 03e1 d2be 0757 65bd a3d2 253e 6493 89bc
000001b0: 4ec3 76be 01bc 523d bd33 29be 9a66 513e
000001c0: edde 31be 3073 70bd 8ea5 1c3d 87f0 7e3e
000001d0: 3c25 e5bc fe2c f83d d0b8 113e aa29 093d
000001e0: 5b4e b6b9 cc54 a6bd 56d4 503d bf82 81bd
000001f0: 2d32 883e 26c2 a8bd 669b 8e3d fb9d 8f3e
00000200: e8d5 873c 80cb 86be d6de 09be ed4d 30be
00000210: facc fabd c2e8 9d3d 4bbc af3d f2b2 5d3d
00000220: e33a 25be b171 d03d 52cc b3bd 6a41 d2be
00000230: 1008 903e af70 3bbc e256 f33d d5d6 59bc
00000240: 0d48 5d3d b4e4 593d 3dc9 bc3d f44c 2b3e
00000250: bcd0 99bd 5844 9bbd 95e0 043e 3935 273b
00000260: a8de a8be 9e5f 113e 39a4 a03c 304e a73d
00000270: 36b9 9c3d 40d1 753e 3467 7bbe f261 a2ba
00000280: 6171 cabb 8e1a c9be 662b 9d3d bb08 0f3e
00000290: 1ad0 993d e904 913d 2381 0abd b933 c1be
000002a0: 89dd 173d 8780 77be 7ef6 3f3e b9f7 893e
000002b0: 2fdf a63d 5bd4 3f3e dd89 c43d e82b eabd
000002c0: 21e8 2bbd fe04 87be a9a5 28be 5978 c5bd
000002d0: aa7b 80bd eb0e 8b3d 0602 173d 8ac1 78be
000002e0: 9793 5d3d 333c 533e 26ce d13d 8441 cebd
000002f0: 6785 1b3e 4d2d 6fbc 8fdc 9ebd 5268 adbe
00000300: fa07 16bc e72b c1bd 3f3d 9f3d 86d8 c03d
00000310: fecb 183d 6c43 e0bc 7b3f b13d 1346 893d
00000320: 47f5 0f3c ace8 e5bd a28c 2e3e 08ca 8bbe
00000330: 6c72 05bd 2ba1 86bd fb8c cd3d 362d 053d
00000340: 7574 96be 34a9 6f3d 314b 3abe 9a6b 6c3d
00000350: 932c 763d 8197 eb3d 82b8 e33d 4447 d23d
00000360: 2415 9dbd 4d47 5d3e 25b0 0cbc 5623 d63d
00000370: 5c96 2a3d 51e9 bdbb 911d be3d f91a 223e
00000380: f5a5 e13e dd70 a63d 1f1c be3d d1c1 093e
00000390: 2f50 5c3d 3ee7 b6bd 3d35 44be 6230 11be
000003a0: 90fd 57bc 41f2 ab3d 1bec 223e 5ce8 113d
000003b0: f30f fabd ceeb 8fbe 8d07 75be 955e 2cbd
000003c0: 80eb eabd ded9 52be d159 553e 27f2 cf3a
000003d0: 7a01 dabc df84 ad3d 7ad9 c93d 7add 893c
000003e0: 1d9e c2bd 309f 0ebc fc67 863d 3fd2 043c
000003f0: 7849 b83c 8b25 83bc 2c37 16be 7cc2 153e
0.061634015 0.11769995 -0.24415615 0.030539937 0.053832475 0.03595474 -0.20169556 0.1078811
0.2063145 -0.05199237 0.14169185 -0.18499665 -0.030915048 -0.09461995 0.021039499 -0.055700835
-0.06265447 0.109952375 -0.13616166 -0.005006292 0.13700217 -0.010123037 0.08125521 -0.08556517
-0.27789718 0.3135625 0.10212194 -0.30767718 0.013655569 0.21400478 -0.021097487 0.13636018
0.16097617 0.0153539935 0.11345 -0.06427246 -0.029070627 0.044799916 -0.061907895 0.1291699
-0.25045878 0.06259323 -0.16798891 0.072860144 -0.115509935 -0.05725141 -0.08385893 0.0903682
0.028862407 -0.18836801 -0.2686543 0.2615058 0.16022964 -0.13693574 0.04640198 0.006869796
0.040577255 -0.36676863 -0.094047986 0.007434263 0.035618078 0.04692493 0.11503789 -0.07634615
0.10230186 0.1516652 -0.018182663 0.4324125 -0.0099231545 0.1806726 -0.10796187 -0.000637846
0.086370476 -0.040082097 0.22003454 0.12282145 0.18774755 0.3875466 0.10156218 -0.049924944
0.13605304 -0.078409694 0.04113967 0.30875444 0.0057391473 -0.11962233 0.050821926 -0.1778148
-0.03756096 -0.07346871 -0.06549946 0.2491986 0.099251784 0.025316646 0.15350877 -0.32272837
0.22895843 -0.02349069 -0.054129597 0.12897174 0.04027014 -0.4032426 0.08431297 0.04332453
-0.41187295 -0.0559912 0.16193633 -0.016793914 -0.2409794 0.051448826 -0.16523643 0.20449296
-0.17370196 -0.0587036 0.038243823 0.24896441 -0.027971856 0.121179566 0.14230657 0.033487
-0.00034772124 -0.081216425 0.05098375 -0.06323766 0.2660078 -0.08240156 0.06963234 0.28050217
0.01658149 -0.26327133 -0.13463911 -0.17217226 -0.122461274 0.07710411 0.08580836 0.054125734
-0.16135745 0.10177935 -0.087792054 -0.41065532 0.2813115 -0.01144044 0.11881806 -0.013295849
0.05402379 0.053196624 0.09218071 0.16728574 -0.07510516 -0.07581395 0.12976296 0.00255139
-0.32982373 0.14196631 0.019609557 0.0816921 0.07652514 0.24005604 -0.24551088 -0.0012388809
-0.0061780666 -0.39278072 0.07674293 0.13968174 0.07510395 0.07081015 -0.03381456 -0.37734774
0.037076507 -0.24170123 0.18746373 0.2694681 0.08148038 0.18733351 0.09596608 -0.11434156
-0.041969422 -0.26370996 -0.16469444 -0.09642095 -0.06273587 0.06789955 0.036867164 -0.2429258
0.05409583 0.20628433 0.10244398 -0.1007109 0.15187608 -0.014598203 -0.07756912 -0.33868653
-0.009157175 -0.09432202 0.07775354 0.094162986 0.037303917 -0.0273759 0.08654686 0.06702819
0.008786506 -0.11226019 0.17045835 -0.27302575 -0.032579824 -0.06573709 0.100366555 0.03251382
-0.29385725 0.058510974 -0.18192746 0.057719804 0.060101103 0.115035065 0.111191764 0.10267499
-0.07670048 0.2160923 -0.008586918 0.104559585 0.0416473 -0.0057956357 0.09282983 0.15830602
0.44071928 0.08126996 0.092827074 0.13452841 0.053787407 -0.08930825 -0.19160934 -0.14178613
-0.013183013 0.08395816 0.1591038 0.035621986 -0.12210073 -0.28109592 -0.23928662 -0.042082388
-0.11470699 -0.20590922 0.20835043 0.0015865014 -0.026612032 0.08472609 0.098559335 0.016829241
-0.09502814 -0.008704945 0.06562802 0.008106767 0.02249597 -0.016009113 -0.14669484 0.14624971

fc3.bias f4 [50]
00000000: 873a cfbd 1305 d93d 2d71 2d3d f019 24be
00000010: 6bd7 cfbd 98d5 273e 2a37 153e 3630 873d
00000020: ca7a 69bd bced 42be 8a74 ef3c c9a9 373d
00000030: 58ca e8bd 4071 7f3d bce2 c1bd 8318 99bb
00000040: 9031 91bd a83e 603c 506c 2cbd 1382 b53d
00000050: 7be8 aebc 5f9b 053c 7274 c0bd ee5d f2bc
00000060: 48ca c4bd 7a73 5a3c 1e79 cd3d c272 9f3d
00000070: 6ed0 eb3d b824 513d bcc7 08bc b10a 26bd
00000080: 9f79 95bc 6b97 cabd 5f55 0c3e f56c 7cbd
00000090: dc24 e9bd 9c77 6c3e 81d8 12bd fa73 8abd
000000a0: 1655 133e f99e be3d 8d92 093d 69ae 2cbe
000000b0: 2dda d1bd 0125 40be 0066 023e 83bf d23d
000000c0: 075b 723d f281 9cbc
-0.10118585 0.10596671 0.04234426 -0.1602552 -0.101485096 0.16390073 0.14571825 0.066009924
-0.057001866 -0.19036001 0.029230375 0.044839654 -0.11366719 0.062363863 -0.09467074 -0.0046721115
-0.070895314 0.013686813 -0.042095482 0.088627 -0.02135109 0.008154719 -0.0939721 -0.029585805
-0.096088946 0.013333196 0.10032867 0.0778556 0.11514364 0.05106041 -0.008348402 -0.04053754
-0.01824647 -0.09892162 0.13704441 -0.061627347 -0.113839835 0.23092502 -0.035851005 -0.06760402
0.14387926 0.093076654 0.033587027 -0.16863407 -0.10246692 -0.18764116 0.12734222 0.10290434
0.05916884 -0.019104932

fc4.weight f4 [2, 50]
00000000: bdb5 64bd d13c d23d b7bf 1f3f e5f4 cdbd
00000010: d0e2 61be 96e9 853e 5cf7 aa3d 98cb 223f
00000020: 920f 933e 5907 56bd ab5d 2e3f 6b01 9dbd
00000030: 183e 1dbe 971f 35be f581 a23e 53ff ce3e
00000040: dd95 383e 5d10 81be 372b 04be 2d3d 633f
00000050: a3ad 043e d252 e53e 0da1 1cbe 4dbf b6bd
00000060: b015 15bd 11d5 27be 9368 a23e 0ce8 b43d
00000070: 4a82 933e 98cd 943e 1476 dabd fb53 9f3e
00000080: 7ff4 05bb 248f c5be ed7a 553e 7862 5abe
00000090: bc8c d73d 6932 f73d 63c5 57bc 462e b5be
000000a0: cced 393e 37af 2f3f dbb3 453f fdea f33e
000000b0: 7455 97be 0559 95be 1679 683e 6b1f 363e
000000c0: 460f ce3e 6baf e23e db46 03be 986f e63e
000000d0: 4a39 3d3d 22b3 78be 8997 8a3e 12f8 293f
000000e0: 68df bebe a4ea a93a 39a8 edbe 8075 353f
000000f0: dc49 bb3e 8b18 99be 9036 af3e 6313 7dbe
00000100: 6cf3 3abe 6e10 aebe 3141 473f ba18 283e
00000110: 5568 2cbe a605 f23e 784a 96be 768f f83e
00000120: b5ab 9f3e 704f 82be 4783 853f 3e7f e43e
00000130: fcc0 473f 56ef e1be 0b78 89be effa 1ebd
00000140: 649d 4e3e 751b 2a3f b5db eabe 7c32 81be
00000150: f205 043f 6812 bf3e 5f2a ca3e 3001 0bbf
00000160: 82ba 84be 8e8f d13e 30bf f23e 9bcb c53e
00000170: c2d3 6a3f 5456 24be 3d25 bc3e 30ef 07bf
00000180: f5f2 0dbe 71b0 f1be a75b 0a3e 44bb 0abe
-0.05583738 0.10265506 0.6240191 -0.100564755 -0.22059178 0.26154774 0.08347961 0.6359191
0.28722817 -0.0522531 0.68111676 -0.07666286 -0.15355718 -0.17687832 0.31739774 0.40429172
0.18025918 -0.25207797 -0.1290711 0.8876522 0.12956862 0.4478975 -0.15295811 -0.089232065
-0.036397636 -0.16389872 0.3172041 0.08833322 0.2881034 0.29063106 -0.10667053 0.3111876
-0.002043992 -0.3858577 0.20847674 -0.21326625 0.1052489 0.12070162 -0.013169619 -0.35386866
0.18157119 0.6862673 0.7722756 0.4764022 -0.29557383 -0.2916948 0.2270244 0.17785423
0.40246028 0.44274458 -0.12819998 0.45007014 0.046197213 -0.24287084 0.27068737 0.6639415
-0.3727982 0.0012963605 -0.46417406 0.70882416 0.36579788 -0.29901537 0.34221315 -0.24714427
-0.1825692 -0.3399691 0.7783385 0.16415682 -0.16836675 0.47269934 -0.2935369 0.48546952
0.3118569 -0.2545123 1.0430688 0.44628328 0.78028846 -0.4412791 -0.26849398 -0.038813528
0.20177227 0.66448146 -0.45870748 -0.2523383 0.5157157 0.3731873 0.39485452 -0.54298687
-0.25923544 0.40929836 0.4741149 0.386319 0.91729367 -0.16048557 0.3674716 -0.53099346
-0.13862212 -0.47204927 0.13511525 -0.13547999

fc4.bias f4 [2]
00000000: 44de f83d 7c7d c93d
0.12151769 0.09838387
