Results/BS_256_EP_6000_TMAX_1000_NOISE_0.01/checkpoint_critic.pth (torch_old, 72821 bytes, 7 tensors)

fc1.weight f4 [100, 26]
0	0x3e633ba3	0.22190718
1	0x3e89b02b	0.26892218
2	0xbda4c4c3	-0.08045342
3	0xbe364434	-0.17799455
4	0xbfb39b82	-1.4031832
5	0xbfe72b76	-1.8060138
6	0x3d9dd9bb	0.077075444
7	0x3df9855f	0.12183642
8	0xbdcbdc24	-0.09954098
9	0xbdd6707d	-0.10470674
10	0x3b87d4e4	0.0041452516
11	0xbda04c70	-0.07827079
12	0xbe64ffd4	-0.22363216
13	0xbfad2cb8	-1.3529272
14	0xbc8ec97d	-0.017430061
15	0xbd04f152	-0.032456703
16	0x3eb5209b	0.35376438
17	0x3fe327c7	1.7746514
18	0xbd85c6e6	-0.065320775
19	0x3f242621	0.6412068
20	0x3fb716da	1.4303849
21	0x3fdd7338	1.7300787
22	0x3cdf6aea	0.02727266
23	0x3f5f946d	0.87335855
24	0xbf874197	-1.0566891
25	0x3e7107e4	0.23538166
26	0x3be87e9e	0.007095172
27	0x3de90ea6	0.11379747
28	0x3b5285e1	0.0032123255
29	0x3c382793	0.011239904
30	0xbfcd39b0	-1.603323
31	0xbfa01b39	-1.2508308
32	0xb9e86fd2	-0.000443338
33	0xbcf0c282	-0.029389624
34	0xbcf633d1	-0.030054005
35	0xbecb384f	-0.39691398
36	0xbd753b49	-0.05987099
37	0x3f2c5d3f	0.6732978
38	0xbf2e1507	-0.68000835
39	0x3ea5f5ec	0.32414186
40	0x3d84f7dc	0.06492588
41	0x3eceef45	0.40416923
42	0x3dc89e78	0.097958505
43	0x3ee65c5a	0.44992334
44	0xbce9f832	-0.028560732
45	0xbf16be7c	-0.58884406
46	0x402d4929	2.7075903
47	0x3faa0c11	1.3284932
48	0x3cd66082	0.026169065
49	0xbefd57a2	-0.4948092
50	0x3dc00bcf	0.09377252
51	0x3d29ef34	0.041487888
52	0x3e6229fb	0.22086327
53	0x3e278830	0.16360545
54	0x3de39987	0.111132674
55	0xbd8b549a	-0.06803246
56	0xbc36a05b	-0.01114663
57	0xbe84ceb0	-0.2593894
58	0xbe200951	-0.15628554
59	0xbd5ca5fc	-0.053869233
60	0x3e79c30f	0.24390815
61	0x3e36e359	0.17860164
62	0xbd9393a6	-0.07205896
63	0xba3a046c	-0.0007095996
64	0x3d1e26f7	0.03861138
65	0xbde54d57	-0.11196392
66	0x3d5358f0	0.05159849
67	0xbc6dd756	-0.014516672
68	0x3e8737ef	0.2640986
69	0x3e7f51a6	0.2493349
70	0xbe2f24d6	-0.17103896
71	0xbe2725ea	-0.16323057
72	0x3b09b552	0.0021012616
73	0x3dfffa43	0.124989055
74	0x3e1a5f61	0.15075447
75	0x3da749e9	0.08168394
76	0x3dc3f6ce	0.09568559
77	0xbe9badd7	-0.30406067
78	0x3e4026ba	0.18764773
79	0x3e955b8b	0.29171404
80	0xbdc954cf	-0.09830629
81	0x3e9806be	0.29692644
82	0x3e5eb168	0.21747363
83	0xbee7f192	-0.4530149
84	0x3df82868	0.12117082
85	0x3db795e6	0.08964138
86	0xbea226ac	-0.3167013
87	0x3f499dd4	0.7875645
88	0x3d04a87d	0.032387245
89	0x3da272f5	0.079320826
90	0x3e7cce80	0.24688148
91	0xbf9efece	-1.242151
92	0x3dc765f2	0.097362414
93	0x3e89a1b6	0.26881188
94	0xbf41750f	-0.7556924
95	0x3f4dfb8a	0.80461943
96	0xbc368ac7	-0.011141486
97	0x3f096d94	0.5368283
98	0x3dfbf33f	0.12302255
99	0xc00921ca	-2.1426873
100	0x3d9a7ddf	0.07543539
101	0x3f20bec4	0.62791085
102	0x3e134546	0.14381894
103	0xbf48a624	-0.7837851
104	0xbc265735	-0.010152628
105	0x3e58f788	0.21188176
106	0xbcfd9ef2	-0.03095958
107	0xbe0a6c8f	-0.13517974
108	0x3f221068	0.63306284
109	0x3fe6d92e	1.8035028
110	0x3d15246d	0.03641169
111	0x3e07a614	0.13246948
112	0x3ced3ab8	0.028958663
113	0x3eb29d3e	0.3488559
114	0x3d46cdca	0.0485361
115	0xbd95d887	-0.0731669
116	0x3d79a610	0.060949385
117	0xbc7d1a31	-0.015448139
118	0xbd6a7dd1	-0.057248894
119	0x3e0e0dc4	0.13872439
120	0x3d28072b	0.04102246
121	0x3f9ec522	1.240391
122	0xbcb3bbfe	-0.021940228
123	0x3f4a7ede	0.79099834
124	0xbf8a88c2	-1.0822985
125	0xc04a37e9	-3.1596625
126	0x3cc9fcd2	0.024656687
127	0x3f1a4822	0.60266316
128	0xbcfd07a4	-0.030887432
129	0xbc9f3e01	-0.019438745
130	0xbe359de9	-0.17736019
131	0xbd5b5fc5	-0.05355813
132	0xbd974d27	-0.073877625
133	0xbd719bfc	-0.05898665
134	0x3f89c8f8	1.0764456
135	0x3f6c3672	0.92270577
136	0x3d730b55	0.05933698
137	0xbd86d7bb	-0.06584116
138	0x3ded4e0c	0.11587152
139	0xbebe0579	-0.3711355
140	0x3e8d6028	0.27612424
141	0xbe0a229b	-0.13489763
142	0x3f0687ea	0.5255114
143	0xbe760cc9	-0.24028315
144	0xbdafc267	-0.08582001
145	0xbeb470cb	-0.35242304
146	0x3e8ce418	0.27517772
147	0xbea270b5	-0.31726614
148	0xbe2244e5	-0.15846594
149	0xbed6ef2e	-0.41979355
150	0xbf7f2f4b	-0.9968154
151	0xc0378c99	-2.8679564
152	0xbdce5fc1	-0.10076857
153	0xbe25d597	-0.1619476
154	0x3f534c8f	0.82538694
155	0xbf4fa6f5	-0.8111413
156	0x3ebb624c	0.36598432
157	0xbee2a1db	-0.4426411
158	0x3d371e2d	0.044706512
159	0x3e362f9f	0.17791604
160	0xbefb4773	-0.4907795
161	0x3de1bb3a	0.11022039
162	0xbdb7f2e3	-0.08981874
163	0x3db47098	0.08810538
164	0x3f3e472d	0.74327356
165	0xbe402367	-0.18763505
166	0xbe03f01f	-0.12884568
167	0x3e0fefe3	0.14056353
168	0xbf6b12f1	-0.9182578
169	0xbc0f2327	-0.008736408
170	0x3e07e781	0.13271905
171	0xbc5a007f	-0.013305782
172	0x3fac6ade	1.3470113
173	0xbec55d95	-0.3854796
174	0xbe1f7862	-0.15573266
175	0xbb14ad65	-0.002268636
176	0xbfd32694	-1.6496148
177	0xbf155179	-0.5832744
178	0x3e365a71	0.17807938
179	0xbe91d54a	-0.2848304
180	0x3dcb5b5d	0.099295355
181	0xbc3874a4	-0.011258278
182	0x3eb47f4b	0.35253367
183	0x3fdaf898	1.7107115
184	0x3db9c270	0.09070289
185	0x3e6899be	0.22714898
186	0xbe225a98	-0.15854871
187	0xbf15a5b8	-0.5845599
188	0xbe291d83	-0.16515164
189	0x3e873ef3	0.26415214
190	0x3f0bda65	0.5463012
191	0x3ff86280	1.940506
192	0x3c6e1204	0.014530662
193	0x3e8b0909	0.2715533
194	0xbe888df2	-0.26670796
195	0xbfdb999d	-1.7156254
196	0x3d1e0e80	0.038588047
197	0x3ea8dfd5	0.3298327
198	0x3e242444	0.16029459
199	0x3ff62337	1.9229497
200	0xbe0b0892	-0.13577488
201	0x3f0455be	0.5169333
202	0xbe979c24	-0.29611313
203	0xc0588ff6	-3.3837867
204	0xbe840bee	-0.25790352
205	0x3f071c9b	0.52778023
206	0xbf8c4cee	-1.0960977
207	0x3f434070	0.762702
208	0x3e192022	0.14953664
209	0x3fcc749a	1.5973084
210	0x3be5ed6b	0.007016828
211	0x3e848875	0.25885358
212	0x3f88f36a	1.0699284
213	0xbee2d22f	-0.44300982
214	0x3be89c4a	0.0070987092
215	0x3ea53190	0.32264376
216	0xbde31a45	-0.11088995
217	0x40392892	2.8931012
218	0x3d3c456d	0.045964647
219	0xbf1f8e8c	-0.62326884
220	0x3f8c4bef	1.0960673
221	0xbe99c46d	-0.30032673
222	0xbd2a334c	-0.041552827
223	0xbeeac7c7	-0.45855543
224	0xbe052437	-0.13002096
225	0x403b9af8	2.9313335
226	0xbd95eacb	-0.07320174
227	0x3f2c8139	0.6738468
228	0xbf195c5a	-0.5990654
229	0x3f016256	0.50540674
230	0x3d8c8e41	0.0686307
231	0x3f6429ee	0.8912648
232	0xbd43f601	-0.04784203
233	0x3dadacbe	0.084802136
234	0xbe4d1fb9	-0.20031632
235	0x3f94448a	1.1583416
236	0x3e00b7e1	0.12570144
237	0x3d279bfd	0.040920246
238	0x3ea0d014	0.3140875
239	0xbf18e962	-0.59731114
240	0x3dd1ea1d	0.10249732
241	0x3ea7438f	0.3266873
242	0xbecf696a	-0.40510112
243	0x3f4c508e	0.79810417
244	0x3e03668c	0.12832087
245	0xbe86d83b	-0.26336846
246	0x3e968cae	0.29404205
247	0xbfe088a6	-1.7541702
248	0x3cf645d4	0.030062594
249	0xbddb3d1e	-0.107050166
250	0xbf50659c	-0.81405044
251	0x3f25dbaa	0.64788306
252	0x3e568604	0.2094956
253	0xbe0fee96	-0.14055857
254	0xbe9fa364	-0.31179345
255	0xc03f157a	-2.9856858

fc1.bias f4 [100]
0	0xbe09a89a	-0.13443223
1	0xc00e5540	-2.2239532
2	0xbe290163	-0.16504435
3	0xbe182f1f	-0.14861725
4	0x3f3b3347	0.7312512
5	0x3f910ff0	1.1332989
6	0xbfa38978	-1.2776327
7	0x3eaf666d	0.34257832
8	0x3f59400d	0.8486336
9	0x3f2080b7	0.62696403
10	0x3f3a7a3a	0.7284275
11	0xbf7afb07	-0.9803929
12	0x3f3eca65	0.7452758
13	0xc00345a6	-2.051126
14	0xc00bddcf	-2.1854131
15	0xbff6fb70	-1.9295483
16	0x3f570d1a	0.84004366
17	0xbeb77460	-0.35830975
18	0x3f924c85	1.1429602
19	0x3f2521b0	0.6450453
20	0xbf941589	-1.1569072
21	0x3f31f7e0	0.6951885
22	0xbf1ebc92	-0.62006485
23	0xbe9c6f6e	-0.30553764
24	0x3f98bcc9	1.1932613
25	0x3f8c5c06	1.0965583
26	0xc06ac2b5	-3.668134
27	0xc0a315a1	-5.0963902
28	0xbd3ae0bc	-0.04562448
29	0x3f450760	0.7696438
30	0xbffe719a	-1.9878418
31	0xbdf23982	-0.11827375
32	0xbf2d158f	-0.6761102
33	0x3e644282	0.22290996
34	0x3e8deb9a	0.27718812
35	0x3f88b72f	1.0680903
36	0x3e0ecff8	0.13946521
37	0x3f866065	1.0498167
38	0xbd376e05	-0.044782657
39	0xbfcbcca9	-1.5921832
40	0xbe5e7378	-0.21723735
41	0xc0055264	-2.0831537
42	0xc0146d6c	-2.3191786
43	0x3ebcd564	0.36881554
44	0x3f29f33c	0.6638677
45	0xbe8dd0b0	-0.27698278
46	0xc06159c8	-3.5211048
47	0xbf1ccf2f	-0.6125364
48	0x3f3ef046	0.7458538
49	0x3fe296ad	1.7702233
50	0xbe10cd79	-0.14140882
51	0xbf977f81	-1.1835786
52	0xbf91c5f6	-1.1388538
53	0xbde26ba4	-0.11055687
54	0x3f07da3c	0.53067374
55	0xbe30e308	-0.17274106
56	0x3f1980eb	0.5996234
57	0x3f335c0c	0.7006233
58	0x3f2789ef	0.65444845
59	0x3e36132b	0.1778075
60	0xbf834796	-1.0256221
61	0x3e8e7863	0.27826223
62	0xbf152549	-0.5826002
63	0xbf7decb4	-0.99189305
64	0x3fc8292a	1.5637562
65	0xbf7f3b27	-0.99699634
66	0xbf35e432	-0.71051323
67	0xbf21c2fa	-0.63188136
68	0xbf944820	-1.1584511
69	0x3e184519	0.14870109
70	0x3fe2430e	1.7676713
71	0x3f420742	0.75792325
72	0x3ec94042	0.39306837
73	0x404699e6	3.1031432
74	0xbf6b7879	-0.919807
75	0x3e9ea9ff	0.30989072
76	0x3ba6d84c	0.0050917026
77	0x400b017b	2.1719654
78	0xbf1c1485	-0.6096881
79	0xbf08dd9f	-0.53463167
80	0xbeb1bb3b	-0.34713158
81	0xbe6e28cb	-0.23257749
82	0x3f62f91c	0.8866136
83	0xbf10725a	-0.56424487
84	0xbf7a8153	-0.97853583
85	0xbe569e97	-0.20958935
86	0xbf43b279	-0.764442
87	0x400207eb	2.0317333
88	0x3eaa41b6	0.33253258
89	0x3f8bcd00	1.0921936
90	0x3fd970f9	1.6987602
91	0xbf162df6	-0.5866388
92	0xbe1bfeef	-0.15233968
93	0xc03fdd4b	-2.9978817
94	0x3ed98dc9	0.42490986
95	0x3fee41f7	1.8613881
96	0x3f4fb741	0.81139
97	0x3f91d315	1.1392542
98	0xbe9ec96e	-0.31013054
99	0xbfca5678	-1.5807638

fc2.weight f4 [100, 100]
0	0xbd4d272c	-0.050086185
1	0xbf59316e	-0.8484105
2	0x3ce9da2c	0.028546415
3	0x3f16ea8c	0.5895164
4	0x3cf95550	0.030436188
5	0x3e6b8129	0.2299849
6	0xbfd71fc6	-1.6806571
7	0xbf0d2012	-0.5512706
8	0xbe72d865	-0.2371536
9	0xbd8e055b	-0.06934615
10	0xbeb84071	-0.35986665
11	0xbdcc5844	-0.09977773
12	0xbf8a36da	-1.0797989
13	0xbf65801a	-0.8964859
14	0xbf841548	-1.0318995
15	0xbf1dc7f5	-0.61633235
16	0x3ed6498e	0.41852993
17	0x3e8134b8	0.25235534
18	0x3f36316b	0.71169156
19	0xbcd52ebc	-0.026023261
20	0xbf97fbff	-1.1873778
21	0xbf151672	-0.58237374
22	0xbf8433bd	-1.0328289
23	0x3e923cc4	0.28561985
24	0xbf64887b	-0.8927075
25	0x3d49167a	0.0490937
26	0xbdbc657c	-0.09199044
27	0xbdc0f982	-0.0942259
28	0xbf69f158	-0.91383886
29	0xbfa285fa	-1.2697136
30	0x3f4dada5	0.80343086
31	0xbfc08c96	-1.5042903
32	0xbdd1e912	-0.10249533
33	0xbfd68f63	-1.6762508
34	0xbdd787b5	-0.10523931
35	0xbfbfbdaa	-1.4979756
36	0x3eef7a14	0.46772826
37	0x3eb70e96	0.35753316
38	0xbf965402	-1.1744387
39	0xbf7db4cd	-0.99104005
40	0x3d3f2608	0.04666713
41	0xbebb0319	-0.365258
42	0xbe51f382	-0.20503047
43	0xbed961d0	-0.42457438
44	0xbea30adc	-0.31844223
45	0xbf181ce3	-0.5941908
46	0x3d4d66ed	0.050146986
47	0x3ed8c54f	0.42338035
48	0x3d37d467	0.044880297
49	0x3ed3b0e6	0.413459
50	0xbe054431	-0.13014294
51	0x3f828e19	1.0199615
52	0x3e406da5	0.18791826
53	0xbe9fab33	-0.31185302
54	0xbf4226c7	-0.7584042
55	0xc0183ba0	-2.3786392
56	0x3f1eeca7	0.6207985
57	0xbf742d82	-0.9538194
58	0xbf128409	-0.5723272
59	0xbe61f567	-0.2206627
60	0xbdf8bf2b	-0.121458374
61	0xbed4a08c	-0.41528738
62	0xbe2721c8	-0.1632148
63	0xbfb81613	-1.4381737
64	0xbe2526d1	-0.16128089
65	0xbf48adc7	-0.78390163
66	0xbe316623	-0.17324118
67	0xbc5686bc	-0.013093647
68	0xbf498556	-0.7871908
69	0xbeafa050	-0.34301996
70	0xbfdf35e4	-1.7438321
71	0x3eb594b4	0.35465014
72	0xbca1b16b	-0.01973792
73	0xbf296feb	-0.661864
74	0xbf61467e	-0.8799819
75	0x3de3084d	0.110855676
76	0x3f0f1018	0.5588393
77	0xbe3cf666	-0.18453369
78	0xbf3361c5	-0.7007106
79	0xbeaf2f22	-0.34215647
80	0xbf1e7a11	-0.6190501
81	0xbe8e8f5e	-0.27843755
82	0xbc36a73f	-0.011148273
83	0x3e70f79e	0.23531958
84	0x3ea13bae	0.31490844
85	0x3e3327eb	0.17495696
86	0xbf6b548e	-0.91925895
87	0xbd20340d	-0.03911214
88	0x3e68ff67	0.22753678
89	0xbf881c8e	-1.0633714
90	0xbeb41820	-0.35174656
91	0x3dc2f497	0.09519308
92	0x3e38fa27	0.18064176
93	0xbf2493dd	-0.6428812
94	0xbe2e3335	-0.17011721
95	0x3e5c6156	0.21521506
96	0x3d5273c1	0.051379923
97	0xbfce836f	-1.613386
98	0x3f0b7e83	0.54489917
99	0x3e92ea7d	0.28694525
100	0xbe966f37	-0.29381725
101	0xbfb40065	-1.406262
102	0x3dbb0004	0.09130862
103	0xbd3902f0	-0.045168817
104	0x3bffd798	0.007807683
105	0xbf391caf	-0.7230939
106	0xbff6181f	-1.9226111
107	0xbed09d4b	-0.40745005
108	0x3ef300c7	0.4746153
109	0x3df2dca8	0.11858493
110	0xbfa126d7	-1.2589978
111	0x3c3201a5	0.01086465
112	0xbfa44721	-1.2834207
113	0xbcedf98a	-0.029049654
114	0xbf3b30c2	-0.73121274
115	0xbeb56542	-0.35428816
116	0xbf33317a	-0.6999737
117	0xbe2e59b0	-0.170264
118	0x3ecf944e	0.40542835
119	0xbf024b89	-0.5089651
120	0xbeba51b7	-0.36390468
121	0x3eb602c7	0.35548994
122	0xbdfa6621	-0.12226511
123	0x3da25673	0.07926645
124	0xbf41d407	-0.75714153
125	0xbe9bf2c1	-0.30458644
126	0xbea098f9	-0.3136671
127	0x3e4fce49	0.20293535
128	0xbe9e7c58	-0.30954242
129	0x3da2ea57	0.07954853
130	0x3e25be4c	0.16185874
131	0xbf997c47	-1.1991051
132	0xbf6f6bb9	-0.93523747
133	0x3e956c48	0.29184175
134	0xbe441f93	-0.1915267
135	0xbf123359	-0.571096
136	0xc0047194	-2.0694323
137	0xbec058e1	-0.3756781
138	0xbfa7df93	-1.3115104
139	0xbd3fd7b0	-0.046836555
140	0x3b08d772	0.0020880369
141	0x3df705c7	0.12061649
142	0xbf8e574a	-1.1120389
143	0xbdb35832	-0.08757056
144	0xbf647eaf	-0.89255804
145	0xbf329180	-0.69753265
146	0x3f592504	0.84822106
147	0xbe82cc84	-0.25546658
148	0xbf9a6acb	-1.2063841
149	0x3d6791aa	0.0565354
150	0xbfc1cc2e	-1.5140436
151	0x3ec33f28	0.38134122
152	0xbf08d162	-0.5344449
153	0xbeb9cc00	-0.36288452
154	0xbf0305d5	-0.51180774
155	0x3e1c436c	0.15260094
156	0x3e8b979a	0.272641
157	0xbef64ba6	-0.4810459
158	0xbe92b966	-0.28657073
159	0x3e872ade	0.26399893
160	0xbefaad90	-0.48960543
161	0x3ecf089a	0.4043625
162	0xbf69a379	-0.91265064
163	0xbf0b8f1c	-0.5451524
164	0x3e6632e6	0.22480354
165	0xbf87647e	-1.0577543
166	0xbea15d14	-0.31516325
167	0xbf5040ad	-0.8134869
168	0xbd8c686b	-0.06855854
169	0xbf755a11	-0.95840555
170	0x3e6ba8ba	0.23013583
171	0xbe51b20a	-0.20478073
172	0xbd2ae148	-0.04171875
173	0xbeda9c81	-0.42697528
174	0xbe95abc4	-0.2923261
175	0xbf7a7685	-0.97837096
176	0xbfebf66b	-1.8434576
177	0x3e72b191	0.23700549
178	0xbe35379e	-0.17696998
179	0xbd9ba5d3	-0.07599988
180	0xbf166cd7	-0.58759826
181	0xc01757a2	-2.3647237
182	0xbf81ad39	-1.0130988
183	0xbfacfe9b	-1.35152
184	0xbe3d4db0	-0.18486667
185	0x3d914000	0.07092285
186	0xbe5e4ac2	-0.21708205
187	0xbe90580d	-0.28192177
188	0x3d979069	0.07400591
189	0xbf35dbfe	-0.71038806
190	0xbea51114	-0.32239592
191	0xbeb325ac	-0.3498968
192	0xbf102d85	-0.5631946
193	0xbd0eccaf	-0.03486317
194	0x3eb0b5e7	0.3451378
195	0xbf1c85b5	-0.6114152
196	0xbfb30a52	-1.3987525
197	0xbe0ab6d4	-0.13546306
198	0x3e0cfb02	0.13767627
199	0xbf1c8dea	-0.61154044
200	0xbf8c8b51	-1.0980016
201	0xc09a92c6	-4.8304167
202	0x3d71da6f	0.059046205
203	0xbdd9562b	-0.10612138
204	0x3ab181e2	0.0013542736
205	0xbd3087e3	-0.04309834
206	0xbf25aea5	-0.6471961
207	0x3cab3670	0.020899981
208	0xc0064c65	-2.0984128
209	0x3ea89de1	0.32932952
210	0xbffabc7e	-1.9588773
211	0x3d2b89a0	0.041879296
212	0xbf13e02f	-0.5776395
213	0x3eb56d13	0.3543478
214	0x3e3fba34	0.18723375
215	0xbf52a1f2	-0.8227836
216	0xbecc96ba	-0.39958745
217	0x3d0e6730	0.034766376
218	0x3e8a6f35	0.2703797
219	0x3ee5b169	0.44861916
220	0x3e7d03f4	0.24708539
221	0x3ddc9fd7	0.107726745
222	0x3ab885fb	0.0014078015
223	0xbd9355e8	-0.0719412
224	0xbeb4153a	-0.35172445
225	0xbe887b97	-0.26656792
226	0xbe65ac9c	-0.22429127
227	0xbfb61bb5	-1.4227206
228	0x3d97edef	0.07418429
229	0x3d6273e3	0.0552863
230	0xbf36ceab	-0.714091
231	0xbf6bfa28	-0.92178583
232	0x3d63e80d	0.055641223
233	0xbe87943f	-0.2648029
234	0x3dc62351	0.09674705
235	0xbe0ad9f0	-0.13559699
236	0xbc72962d	-0.0148063125
237	0xbf6987a6	-0.9122261
238	0xbf522cde	-0.8209971
239	0xbf8c2f88	-1.0952005
240	0xbe92f5b9	-0.28703097
241	0xbd03f159	-0.03221259
242	0x3d6fb741	0.058524374
243	0xbecd41ba	-0.40089208
244	0xbc572e4f	-0.013133599
245	0xbfc6792e	-1.5505731
246	0xbd2df803	-0.04247285
247	0xbf00e8e3	-0.50355357
248	0xbf5406c8	-0.8282285
249	0xbf8a859d	-1.0822026
250	0x3d26fef6	0.040770493
251	0xbf709d70	-0.9399023
252	0x3ef1b4f4	0.4720837
253	0xbe81f4c9	-0.2538207
254	0xbbdd3f1a	-0.006751907
255	0x3ec48000	0.38378906

fc2.bias f4 [100]
0	0x3da079da	0.07835741
1	0x3e9fc613	0.31205806
2	0x3f22e5a2	0.6363164
3	0x3e9acf28	0.30236173
4	0xbe4c5e3d	-0.19957824
5	0xbe82378a	-0.25432998
6	0x3eeeed41	0.46665385
7	0xbcc14e36	-0.023596864
8	0x3f6ff099	0.937265
9	0x3e6da9b0	0.23209262
10	0x3fa40e91	1.2816945
11	0xc086f948	-4.21793
12	0xbf093959	-0.5360313
13	0xc008176a	-2.126429
14	0xbe029641	-0.1275263
15	0xbe0b9728	-0.1363188
16	0x3e2b8887	0.167513
17	0x3ecac140	0.39600563
18	0xb9c3fef9	-0.00037383268
19	0xbf148794	-0.58019376
20	0x3e8bbfcc	0.27294767
21	0x3ea00ce4	0.31259835
22	0xbdc359d5	-0.095386185
23	0xc0131301	-2.298035
24	0x40073993	2.112889
25	0x3edaa483	0.42703637
26	0xbff35c63	-1.9012569
27	0xbf9d04a9	-1.2267047
28	0x3e6830cb	0.22674863
29	0xbe8dce51	-0.2769647
30	0xbf85b7a2	-1.0446665
31	0x3f2363ab	0.63823956
32	0x3ef17c26	0.4716503
33	0x3f88c71f	1.0685767
34	0xbfcb80d6	-1.5898693
35	0x3f2ad373	0.66728896
36	0xbefd2b18	-0.4944694
37	0x3f3a7965	0.72841483
38	0xbec94b83	-0.39315423
39	0x3f46d3b4	0.77666783
40	0xbd220686	-0.039557002
41	0xbddd3127	-0.10800391
42	0x3f26a937	0.6510195
43	0x3e1de23b	0.15418331
44	0x3ed6dce5	0.41965404
45	0x3e44e239	0.19226922
46	0x402b2083	2.6738594
47	0x3f776342	0.9663583
48	0xbf219ed9	-0.6313301
49	0xbda1a6fa	-0.078931764
50	0x3e3ea5ce	0.18617937
51	0x3f0edbb0	0.55803967
52	0xc08e9ccf	-4.4566417
53	0x3e2da2e3	0.16956668
54	0xc0396964	-2.8970575
55	0xbe225989	-0.15854467
56	0xbfeb0640	-1.8361282
57	0x3f468d47	0.7755932
58	0xc02d277a	-2.7055345
59	0xbc800eac	-0.015631996
60	0x4005144d	2.079364
61	0xbfc5d952	-1.5456946
62	0xc03022d5	-2.752126
63	0xbf1e75cb	-0.6189849
64	0x3e06fd85	0.13182648
65	0x3ec235a7	0.37931558
66	0xbf04605e	-0.51709545
67	0x3b0528fd	0.002031862
68	0xbf4001e8	-0.7500291
69	0x3f6ef242	0.93338406
70	0x3caa99d2	0.0208253
71	0x3d0feb42	0.03513647
72	0xbe8c297a	-0.27375394
73	0xbd645819	-0.05574808
74	0xbe127c68	-0.1430527
75	0xbdbbe01f	-0.09173607
76	0xbfe63452	-1.7984717
77	0x3e8e22f2	0.27761036
78	0xbe1ef915	-0.15524705
79	0x3dbd6a08	0.092487395
80	0xbcf0ab87	-0.029378666
81	0xbda7ff43	-0.08202984
82	0xbbf19f2b	-0.0073737106
83	0x3f9442a4	1.1582837
84	0xbdabee4e	-0.083950624
85	0xbe518c8f	-0.20463775
86	0xbf0254d5	-0.50910693
87	0x3ed3227b	0.41237244
88	0x3ef9a8a4	0.48761475
89	0x3f89412d	1.0723015
90	0x3fe1a97d	1.7629849
91	0x3f0258b1	0.5091658
92	0xbf37f49b	-0.71857613
93	0x3e6e0118	0.23242605
94	0xbe7f9406	-0.2495881
95	0x3f358ecb	0.7092101
96	0xbeac5bb2	-0.33663708
97	0xbe7bc304	-0.24586111
98	0xbd01c08f	-0.03167778
99	0x3c4203a3	0.011841687

fc3.weight f4 [50, 100]
0	0x3e22205d	0.15832658
1	0xbefec253	-0.49757633
2	0x3e1536f5	0.14571746
3	0x3ea9728b	0.33095202
4	0x3d648fa3	0.055801045
5	0xbed9cb4e	-0.42537922
6	0xbea76321	-0.32692817
7	0xbd8cbad8	-0.06871575
8	0xbf2d3f9b	-0.6767518
9	0xbd520524	-0.051274434
10	0xbda4a687	-0.08039575
11	0xbf606d66	-0.8766693
12	0x3ca3ffa8	0.020019367
13	0xbe3eb0c3	-0.18622117
14	0xbea4ad2a	-0.32163364
15	0x3daa1673	0.08305063
16	0xbebc07a1	-0.3672457
17	0x3d3d6fe0	0.04624927
18	0xbe22f6b9	-0.1591443
19	0x3e166311	0.14686228
20	0x3d4b61de	0.04965388
21	0xbf05f61b	-0.5232865
22	0xbd9ee6ea	-0.07758887
23	0x3e053bd2	0.13011101
24	0xbebdd7a5	-0.37078586
25	0xbf207399	-0.6267639
26	0xbea9738a	-0.33095962
27	0xbf2e7825	-0.68152076
28	0xbdce5c73	-0.10076227
29	0x3edaf049	0.42761448
30	0xbf04176b	-0.51598233
31	0x3e4c8067	0.19970857
32	0xbf39f5bd	-0.7264059
33	0xbeaed898	-0.34149623
34	0xbeabb848	-0.33539033
35	0xbec87b87	-0.39156744
36	0x3cbc85e0	0.023013055
37	0xbee53483	-0.44766626
38	0xbec45eb3	-0.383535
39	0xbee22724	-0.44170487
40	0xbf5af666	-0.85532224
41	0x3da2d4c2	0.079507366
42	0xbed079b4	-0.40717852
43	0xbed7a6ea	-0.42119533
44	0x3dd91a51	0.106007226
45	0xbe25a9e2	-0.16178086
46	0xbe1326c9	-0.14370264
47	0x3ee5f9bd	0.44917098
48	0xbedb3f73	-0.42821845
49	0x3d2e3aef	0.042536672
50	0xbf2ddb31	-0.67912585
51	0xbde58bc6	-0.112083
52	0xbe17e4b3	-0.14833336
53	0x3db724bf	0.08942556
54	0xbbc28d56	-0.0059372587
55	0x3baab0b0	0.005209051
56	0xbd1117e3	-0.03542317
57	0xbdc97a6b	-0.098378025
58	0xbf088cc0	-0.5333977
59	0xbf0cb802	-0.54968274
60	0xbeda47f9	-0.42633036
61	0xbd9e1f29	-0.07720787
62	0xbdae88c8	-0.08522183
63	0x3cb6f18b	0.022331974
64	0xbc5e53ef	-0.013569816
65	0x3e8dd042	0.2769795
66	0xbeafe9f5	-0.34358183
67	0xbdb0eecf	-0.08639299
68	0xbeb1a474	-0.3469578
69	0xbe5a1053	-0.2129529
70	0x3dbfd2ba	0.09366365
71	0xbe97cfe2	-0.2965079
72	0x3b6c0a6f	0.003601696
73	0x3d0e9c84	0.034817234
74	0xbd605253	-0.05476601
75	0x3c2db121	0.010601313
76	0xbef214b8	-0.47281432
77	0xbdcc75ed	-0.0998343
78	0xbbddab0c	-0.006764775
79	0xbf5d2f6f	-0.864005
80	0xbe7cef34	-0.24700624
81	0x3da1bb80	0.07897091
82	0xbec71c10	-0.38888597
83	0xbebfa2ca	-0.37428886
84	0xbe08aeba	-0.13347903
85	0xbed7461f	-0.42045686
86	0xbe8a8198	-0.27051997
87	0xbe386e60	-0.18010855
88	0x3e2a8e98	0.16655958
89	0x3de30a30	0.110859275
90	0xbebd215e	-0.3693952
91	0xbe31bb54	-0.17356616
92	0x3e9781ba	0.2959116
93	0xbe6b7052	-0.22992066
94	0xbec1e3ab	-0.3786901
95	0xbf88c019	-1.0683624
96	0xbf68ce89	-0.9094015
97	0xbde4dd22	-0.1117499
98	0xbf017a11	-0.50576884
99	0xbf558b58	-0.83415747
100	0xbe0a5684	-0.13509566
101	0xbf745dc2	-0.95455563
102	0xbe02f548	-0.1278888
103	0xbea5debd	-0.32396498
104	0xbdbd214c	-0.092348665
105	0x3f13c18d	0.5771721
106	0xbe4717eb	-0.19442718
107	0x3cc8d6a8	0.024516419
108	0xbe79a611	-0.24379756
109	0xbedb6819	-0.42852858
110	0xbd342200	-0.043977737
111	0xbe6cb37b	-0.23115341
112	0x3d89d05d	0.06729195
113	0x3e8d71fb	0.27626023
114	0x3e16d16d	0.14728327
115	0xbd862b47	-0.06551223
116	0xbc56ba82	-0.01310599
117	0xbf1b4fdd	-0.60668737
118	0xbe24f726	-0.16109905
119	0x3e08efde	0.13372752
120	0xbdb99dc9	-0.09063298
121	0xbea9d82a	-0.33172733
122	0xbd9777b8	-0.073958814
123	0x3e6dba8d	0.23215695
124	0xbe0bfccb	-0.13670652
125	0xbeb88b65	-0.3604385
126	0xbcfc1b4a	-0.030774731
127	0x3de94373	0.11389818
128	0xbe604b53	-0.21903734
129	0xbd8b70a6	-0.06808595
130	0xbda95df3	-0.082698725
131	0xbf02b9d2	-0.5106479
132	0xbce3bad6	-0.027799051
133	0xbe2601a5	-0.16211565
134	0x3d94a563	0.072581075
135	0x3c261a95	0.010138174
136	0x3ea90e73	0.33018836
137	0xbd0dc37e	-0.034610264
138	0xbee1b094	-0.4408003
139	0xbe3a415f	-0.18189
140	0xbefbda36	-0.4918992
141	0x3d6789c5	0.05652787
142	0xbcf9ff16	-0.030517142
143	0xbe1a33a4	-0.15058762
144	0xbe80c783	-0.25152215
145	0x3e21cd75	0.15801032
146	0xbecee537	-0.40409252
147	0xbdc2cda5	-0.0951188
148	0x3ef62eae	0.4808249
149	0x3d08f0f1	0.033432905
150	0x3e850692	0.25981575
151	0x3e364778	0.178007
152	0x3da7b6f1	0.0818919
153	0xbe357048	-0.17718613
154	0x3bdefeae	0.0068052625
155	0x3d615f27	0.055022385
156	0x3e142d00	0.14470291
157	0xbecee901	-0.40412143
158	0x3d936c93	0.07198443
159	0x3e2d6252	0.16932037
160	0xbddbe488	-0.10736948
161	0x3da17364	0.07883337
162	0x3e6b83cb	0.22999494
163	0x3e98bc89	0.2983134
164	0xbe713f20	-0.23559237
165	0xbe903014	-0.2816168
166	0x3e262ac9	0.16227259
167	0xbc64f7c6	-0.013975089
168	0xbd7ff128	-0.062485844
169	0xbeb5a8ce	-0.3548035
170	0xbc8151f8	-0.015786156
171	0x3e83f40e	0.25772136
172	0x3e4d2589	0.2003385
173	0x3d57e6da	0.05271039
174	0xbcef56ad	-0.029216135
175	0x3cd2681f	0.025684414
176	0x3e319a86	0.17344102
177	0xbe066ed2	-0.13128212
178	0x3cc777b1	0.024349065
179	0xbf10019d	-0.5625246
180	0xbe29d834	-0.16586381
181	0x3dca10e6	0.09866504
182	0x3da65f56	0.08123653
183	0x39af5e64	0.00033448928
184	0xbe5f05cd	-0.21779557
185	0xbf27c365	-0.65532523
186	0x3e3fe30a	0.18738952
187	0xbe91af07	-0.28453848
188	0xbf0dd9f4	-0.55410695
189	0xbec24aa4	-0.3794757
190	0xbc2360d6	-0.009971818
191	0x3e7e6a7b	0.24845307
192	0xbcb00a52	-0.021489296
193	0x3ef1c839	0.4722307
194	0xbe5698f2	-0.20956782
195	0xc0056225	-2.0841153
196	0xbba1dc34	-0.0049395803
197	0x3dcf4f81	0.10122586
198	0xbf29f5f7	-0.6639094
199	0x3dda161a	0.10648747
200	0x3e509ee6	0.20373115
201	0xbf36e396	-0.7144102
202	0xbf7ac055	-0.97949725
203	0xbf425e48	-0.7592511
204	0xbc033c0e	-0.008009924
205	0xbdd7f86e	-0.10545431
206	0xbe79b1ce	-0.24384233
207	0x3b278a66	0.002556467
208	0xbdbd10d6	-0.09231727
209	0xbf1cec08	-0.61297655
210	0xbf142417	-0.5786757
211	0xbf4d661f	-0.8023395
212	0xbe14cdf9	-0.14531697
213	0xbe96b440	-0.29434395
214	0xbdcccf8f	-0.10000526
215	0x3d9ce028	0.07659942
216	0xbf2171a8	-0.6306405
217	0xbf27496c	-0.6534641
218	0xbeba4e87	-0.36388037
219	0xbed3d12e	-0.4137053
220	0xbf5dae73	-0.86594313
221	0x3dcefa96	0.10106389
222	0x3d7b5460	0.061359763
223	0xbee31b52	-0.4435678
224	0xbf3a2040	-0.7270546
225	0x3e05d613	0.13069944
226	0xbeaa4ee7	-0.33263323
227	0xbdeba3d2	-0.115058556
228	0xbf40c3dc	-0.7529886
229	0xbe60e2bb	-0.21961491
230	0xbf3260d4	-0.69679
231	0xbef61585	-0.48063293
232	0xbf37d9d3	-0.7181675
233	0xbf29d5fc	-0.6634214
234	0xbf142530	-0.57869244
235	0x3dab1d82	0.083552375
236	0x3e9c8425	0.30569568
237	0xbf30ecc1	-0.6911126
238	0xbecba2e5	-0.39772716
239	0x3d05d664	0.032675162
240	0xbe439d4d	-0.19102974
241	0xbe523c15	-0.20530732
242	0xbee9603c	-0.45581234
243	0x3d8c3d5d	0.068476416
244	0xbf1f2de0	-0.62179375
245	0xbef3df17	-0.47631142
246	0x3ddd0742	0.107924
247	0xbece31f2	-0.4027248
248	0xbdafefbd	-0.08590648
249	0x3a7a0161	0.00095369486
250	0x3e9d682b	0.30743536
251	0xbe002cc9	-0.12517084
252	0xbee7146d	-0.4513277
253	0xbeadb09e	-0.3392381
254	0xbf5035e0	-0.81332207
255	0xbd3c2a09	-0.045938525

fc3.bias f4 [50]
0	0xbf2b9bae	-0.67034423
1	0xc00aa67f	-2.166412
2	0xbfdca848	-1.7238855
3	0xbe48965b	-0.19588606
4	0x3f44b639	0.7684055
5	0x3e341751	0.1758702
6	0xbf6228a3	-0.88343257
7	0xc01623d9	-2.345938
8	0xbf77ebd6	-0.9684423
9	0xbf3d2608	-0.73886156
10	0xbf7284b6	-0.9473375
11	0xbfd516b0	-1.6647549
12	0xbf913b49	-1.1346217
13	0xc01c33b3	-2.4406555
14	0x3f41cf52	0.7570697
15	0xbf22a2e0	-0.6352978
16	0x3fa7e501	1.3116761
17	0xbfc0a57b	-1.5050501
18	0x3ce7d69b	0.028300574
19	0xbf5bc644	-0.85849404
20	0xbedca10d	-0.43091622
21	0xc008bd74	-2.1365633
22	0xbf92a38f	-1.1456164
23	0xbf5a8fee	-0.8537587
24	0xbf52222a	-0.8208338
25	0xbf4e0ffc	-0.8049314
26	0x3ef8edea	0.48619014
27	0x3fc289db	1.519832
28	0x3ff83d0f	1.9393634
29	0xbfb899ed	-1.4421974
30	0x3fbfebc6	1.4993827
31	0xbf2cbdec	-0.674773
32	0x3e9e102f	0.30871722
33	0xbfd070f5	-1.6284472
34	0xbfab9593	-1.3405021
35	0x3f48963c	0.7835424
36	0xc0617af7	-3.5231302
37	0xbea7e891	-0.32794622
38	0x3ddc1b5a	0.107474044
39	0xbf49a4cb	-0.7876708
40	0xbe07c2eb	-0.13257949
41	0x3de1bd74	0.110224634
42	0xbf5d18d0	-0.86365986
43	0xbfa76d6b	-1.3080267
44	0xbc9bc5c4	-0.0190152
45	0x3f6136d9	0.87974316
46	0xbf93b9ba	-1.1541054
47	0x3fa7d82f	1.3112849
48	0xbdba96ee	-0.09110819
49	0x3d858e0d	0.06521235

fc4.weight f4 [1, 50]
0	0x3d3dfa36	0.046381198
1	0x3c5fae15	0.013652344
2	0x3d637cac	0.05553882
3	0xbc8779f5	-0.016537646
4	0x3c44188d	0.011968744
5	0x3c013ab4	0.007887531
6	0x3c89cc67	0.0168211
7	0xbc9c4a25	-0.019078324
8	0xbc6e3470	-0.014538869
9	0xbc88183d	-0.01661312
10	0x3c25608d	0.01009382
11	0xbd35e1ef	-0.04440492
12	0xbcdc8374	-0.02691815
13	0xbc13ccd6	-0.009021005
14	0x3c989f24	0.018630572
15	0x3ca294ef	0.019846408
16	0xbc8c0003	-0.01708985
17	0xbb8b5447	-0.00425199
18	0xbca568ac	-0.020191513
19	0x3b131020	0.0022440031
20	0x3b84ea09	0.0040562195
21	0x3b9a3472	0.004705959
22	0x3c3e62f3	0.011620271
23	0x3c95b374	0.018274046
24	0x3c778bf2	0.015109049
25	0xbc285692	-0.010274546
26	0x3ccdcaa5	0.025121043
27	0x3c3a1d5d	0.01135954
28	0xbc8036a7	-0.01565106
29	0xbcbf36f6	-0.023341637
30	0xbc92f5d2	-0.017939482
31	0xbcfdb677	-0.030970795
32	0x3c351352	0.01105197
33	0xbc64bb75	-0.013960709
34	0x3c1ce167	0.0095752245
35	0x3cc1722a	0.023614008
36	0x3d0b41c7	0.033998277
37	0x3c60f50a	0.013730297
38	0x3c3c13c7	0.011479325
39	0xbc818eef	-0.015815226
40	0xbc6ab8b3	-0.014326262
41	0xbca559b5	-0.020184377
42	0xbcda3e3d	-0.026641006
43	0x3d9feb5d	0.07808564
44	0xbcd5a015	-0.02607731
45	0x3c860883	0.01636148
46	0x3c9a8c14	0.018865623
47	0xbc8df4d6	-0.017328661
48	0xbc9391c3	-0.01801384
49	0xbc806524	-0.015673228
