Results/BS_256_EP_6000_TMAX_1000_NOISE_0.01/checkpoint_actor.pth (torch_old, 72217 bytes, 8 tensors)

fc1.weight f4 [100, 24]
000000 7d e3 b7 bd fb 19 72 3e 67 d9 df bd f8 00 32 be
       -0.08978937 0.23642723 -0.10930138 -0.17383182
000010 ba 23 87 bd 64 67 e6 bd 3b e1 5f 3d 88 8e 0d 3e
       -0.06598611 -0.11250189 0.054658156 0.13823903
000020 52 57 b7 bd cd e7 22 3e 7b 69 64 bd f0 09 a3 bd
       -0.08952202 0.15908737 -0.055764657 -0.0796088
000030 cb c6 51 be ab ef 12 be ad 32 a0 bd 32 c0 02 bd
       -0.2048599 -0.14349239 -0.07822166 -0.031921573
000040 ab f0 ac bc 6e 97 07 3e b5 ae b6 bd d5 1f 0e be
       -0.021110853 0.1324136 -0.089200415 -0.1387933
000050 c7 17 04 3e cd 40 fc 3e 1c 16 eb 3b 78 9f d2 3d
       0.12899695 0.4926819 0.0071742665 0.102843225
000060 46 96 de 3c 17 39 a6 3c 5a f6 20 3e 78 bf 95 bc
       0.027171265 0.020290894 0.15718976 -0.018279776
000070 bd f7 a8 bd b5 d8 e0 be 51 90 db bd 73 e3 b1 3e
       -0.08250377 -0.43915334 -0.107208855 0.34743842
000080 e2 28 ff bd 70 fd 4e be 32 90 e0 bd 98 7f 5c be
       -0.1245897 -0.20213866 -0.10965003 -0.21533048
000090 46 e8 b1 bd ff 00 21 bd 90 0a fe 3d 00 25 99 3d
       -0.08686881 -0.03930759 0.124043584 0.0747776
0000a0 e7 2f 0f 3d 9c 34 88 be d4 2d be 3d fe 9c 0d bf
       0.034957793 -0.26602638 0.09286085 -0.55317676
0000b0 bd 90 08 bd 69 cd 6b be f2 9a 3f 3e aa bf 78 be
       -0.03334116 -0.23027577 0.1871145 -0.24291864
0000c0 b5 fb 51 bd ae cd 87 be db a0 85 3c f7 c3 1d 3e
       -0.051265437 -0.2652411 0.016312053 0.15406786
0000d0 b0 83 32 3e 66 6d 28 bd 06 58 b9 3c 99 1a 2d be
       0.17433047 -0.041119955 0.02262498 -0.16904677
0000e0 ec 3d 90 3c 37 db 17 bf c5 1b 24 bd 32 74 72 bd
       0.017607652 -0.5931887 -0.040065546 -0.059192844
0000f0 63 6b 06 3e df e2 ae 3e 4d c9 9f bc 27 04 dd 3d
       0.13126902 0.34157464 -0.019505167 0.107918076
000100 fe 03 c9 3d 2f 59 f8 be 18 81 35 3d 4b 97 f0 bd
       0.098152146 -0.48505542 0.044312567 -0.11747607
000110 6f 87 23 3e 2e 5c 2f 3f 36 5d f7 bd 6e 53 75 be
       0.15969633 0.6850003 -0.120783255 -0.23957607
000120 3d 73 50 3d 3a 4d 95 3e c3 8f 04 3e 2f 80 ac 3e
       0.05089115 0.29160482 0.12945466 0.33691546
000130 4d 0a bb bc 43 28 97 be e6 d3 f0 bc eb 78 ee 3c
       -0.02283206 -0.29522905 -0.029397916 0.029110393
000140 cc 4f 58 be 1d 2e d0 3e c3 b0 ed 3d 71 ee 5e 39
       -0.2112419 0.40660182 0.1160598 0.00021260396
000150 c9 d4 38 3e 06 64 bb 3c b0 f7 94 bd d7 15 e2 3d
       0.18049921 0.022874843 -0.07273805 0.11039322
000160 af 52 46 3c 98 e3 41 3e 1a 14 00 3e 7a f7 32 3e
       0.012104674 0.18934476 0.12507668 0.17477217
000170 64 4b df 3e 92 a2 c9 3e f0 6a 1b be db 4f 79 bd
       0.43612206 0.39381844 -0.15177512 -0.06086717
000180 d2 ba b3 3d 26 72 1e 3d c6 7d bb bd c5 5f 88 be
       0.087758675 0.03868308 -0.09154849 -0.26635566
000190 d3 02 c2 3e 28 d0 13 bc 84 9e ae bc f8 fe 4c be
       0.3789278 -0.009021796 -0.02131582 -0.20019138
0001a0 b3 bd 46 be 8a 1b a5 bd 08 09 bd bd fc 73 5c be
       -0.19408302 -0.08061893 -0.09230238 -0.2152862
0001b0 fa f3 a0 3d 2f 19 eb bd ca b6 b5 bc 64 9a 81 3d
       0.07859035 -0.11479413 -0.022181887 0.06328276
0001c0 3c 1f 07 be 47 f2 64 3e 53 a7 00 3e 59 47 3f be
       -0.13195509 0.22358046 0.12563829 -0.1867956
0001d0 fb 1a 78 bd 63 82 cb bd c5 8b 7e 3c 70 40 0a 3d
       -0.060572606 -0.09936979 0.015536253 0.03375286
0001e0 6f 92 27 3e b7 0e e9 be 47 e7 ea bd 6a e7 e4 bd
       0.16364454 -0.4551904 -0.11469894 -0.11176951
0001f0 68 14 8c be a7 05 81 be 52 94 87 bd de 96 9d be
       -0.2735932 -0.25199625 -0.06620087 -0.30779165
000200 33 45 82 3c ae 0a fe be c9 7a 89 bd 9a cf b8 bd
       0.015902137 -0.49617523 -0.067128725 -0.09023972
000210 ae b7 34 be f5 49 08 be 01 b4 fa 3d 71 93 1e be
       -0.17648193 -0.13309462 0.12241364 -0.15485932
000220 90 95 ba 3d 67 9e db be 50 eb 90 3c cc c3 a6 3d
       0.09110558 -0.4289429 0.01769033 0.08142814
000230 8f 30 4a 3e 4f a1 71 3d 5c 41 2e 3e 18 47 81 bd
       0.19745086 0.058991726 0.1701712 -0.06312388
000240 7c 84 da bd 5a ae 86 be 4d 31 1d 3e 2b 2e f1 3c
       -0.10669801 -0.26304895 0.15350838 0.02944096
000250 f3 66 14 be d4 3b d6 be e6 be 34 be c0 e9 10 be
       -0.14492397 -0.4184252 -0.17650947 -0.14151669
000260 f4 22 b3 3b ed 81 90 bd 44 9d 85 3d e1 85 46 be
       0.005466813 -0.070560314 0.06524137 -0.19387008
000270 e6 ae d1 3d f5 c0 12 bf 18 c7 b4 bd f0 62 a3 bd
       0.10238437 -0.5732568 -0.088270366 -0.07977855
000280 cb 1f 16 bd d6 31 5f be 7c 6c 1f be df f5 91 be
       -0.036651414 -0.21796355 -0.15568727 -0.28507897
000290 9b 9a f0 bb 06 c7 27 bf 51 a1 85 bd a1 d6 02 bd
       -0.007342649 -0.6553806 -0.06524909 -0.031942967
0002a0 68 97 65 bd 08 c5 1b be 96 f2 3b 3e 59 c1 d2 bd
       -0.056052595 -0.1521188 0.18354258 -0.102907844
0002b0 09 82 f0 3e 18 0b 9b 3d b1 81 38 be 16 41 e0 3d
       0.4697421 0.07570475 -0.18018223 0.10949914
0002c0 60 c1 c0 3d 45 4a 41 be a4 b7 0e 3e 97 7e 23 be
       0.09411883 -0.18875988 0.13937241 -0.15966259
0002d0 1e 4f 56 3e ab 35 c2 be bd ad f9 3d 93 10 7f 3d
       0.20928618 -0.3793157 0.12191341 0.062271666
0002e0 7e 1e 84 3e 16 30 07 3d 77 44 6c bd c9 37 a7 3d
       0.25804514 0.033004843 -0.05768248 0.08164937
0002f0 01 35 cb bc 6a 4a 2b bf 5f 29 1d 3e 71 4b 87 3e
       -0.024805548 -0.6691042 0.15347813 0.26424745
000300 cc 45 11 3d 95 d8 13 be 01 6d 12 be 70 e7 12 be
       0.035466954 -0.14438088 -0.14299394 -0.14346099
000310 8f 67 ff bd 2d ca 8c be 58 46 f7 bd 33 99 11 bd
       -0.12470924 -0.27497998 -0.12073964 -0.035546493
000320 25 35 38 3e 98 7a a6 3b 1c 62 e6 bd c3 a6 2b be
       0.17989023 0.0050805323 -0.11249182 -0.16762833
000330 57 59 a6 bd 16 a0 7c be f4 49 01 bd 64 27 14 3e
       -0.08122509 -0.24670443 -0.031564668 0.14468151
000340 d0 ec 6a 3e ac 12 a0 bd 42 d7 c0 3d 55 29 f2 bc
       0.229419 -0.078160614 0.09416057 -0.029560724
000350 ef 76 cb 3d e3 33 23 bf e9 03 c1 3d 34 e3 16 3d
       0.09934794 -0.6375105 0.09424574 0.03683777
000360 69 17 40 be 0b df 01 3e 35 22 a3 3d af 4e 23 be
       -0.1875893 0.1268274 0.07965509 -0.15947984
000370 72 e0 00 be 53 a5 92 3e 7a 6e 3b bc 53 d9 43 3c
       -0.12585619 0.28641757 -0.011439914 0.01195367
000380 6c 18 5d be dc e6 66 3e 26 68 c8 bd 8b b3 5c be
       -0.21591347 0.22549003 -0.0978549 -0.21552865
000390 20 45 9b bd 21 09 19 be 0e db 4b 3d a6 a7 30 3c
       -0.07581544 -0.14944889 0.049769454 0.010782158
0003a0 21 d3 8d bd b7 53 a1 3e c7 64 14 3e 54 2e 8f be
       -0.06925035 0.31509182 0.14491569 -0.27965033
0003b0 ed 11 2a 3e 33 2e 1b bf ed 1d 88 bd fc 76 b9 bd
       0.166084 -0.6061737 -0.06646333 -0.090558976
0003c0 83 ba 67 bd 98 20 93 3d 36 d7 dc bd 8b 7b 73 be
       -0.056574356 0.07183951 -0.10783236 -0.23777597
0003d0 d1 1f a8 3e a6 85 17 be fc f9 d7 3d 6e 54 d0 be
       0.32836774 -0.14797077 0.105457276 -0.40689415
0003e0 bc cc 63 bd 37 69 10 be 9c c0 37 bd 79 0d ba bd
       -0.05561517 -0.14102636 -0.04486142 -0.09084601
0003f0 f6 d2 93 3e 40 29 1f 3e 91 cb 6f bd d7 f5 45 be
       0.28871888 0.1554308 -0.058543745 -0.19332062

fc1.bias f4 [100]
000000 37 25 2a 3e d2 04 34 3d d7 fc fc bd 3d 9a 19 3d
       0.16615759 0.04394991 -0.12352913 0.03750061
000010 61 cb be bd 24 c1 5a bc 45 3e 1f 3d a9 f6 a6 be
       -0.09316135 -0.013351712 0.038877744 -0.32610062
000020 a4 07 6b be a3 a4 a7 3d 60 67 db bd c1 ba 09 3e
       -0.22952133 0.08185699 -0.107130766 0.13450147
000030 f3 ae 2f be c3 bd 2b be 61 c6 b1 3d 8f 62 97 be
       -0.17156582 -0.16771607 0.08680416 -0.29567382
000040 39 17 1f be dc 9d 5a 3e f0 02 79 be 7e 19 c7 3c
       -0.15536202 0.21349281 -0.24317527 0.024304148
000050 14 1f a8 bb f1 40 0f be 47 47 60 be 5b 0c 6b 3e
       -0.005130658 -0.13989617 -0.2190219 0.22953932
000060 c4 32 52 bd 83 a4 41 be 0c 76 bf be 28 20 f0 bd
       -0.051317945 -0.18910412 -0.3739475 -0.11724883
000070 39 a5 2d be d4 4a b0 bc 91 4e 13 be 46 3f 1c 3e
       -0.16957559 -0.021520056 -0.1438544 0.15258512
000080 73 0a 43 be 9a 28 6c 3d 9e 21 db 3d f8 34 43 3e
       -0.19046955 0.05765591 0.10699771 0.19063175
000090 4e 4e 18 3e df 82 7f be e0 03 09 be 86 53 a5 3d
       0.14873621 -0.24952267 -0.13380384 0.080725715
0000a0 9b 50 0d 3e 2c d2 ba bd 07 b2 8a bd 41 a5 70 be
       0.1380028 -0.09122118 -0.06772237 -0.2350054
0000b0 81 0f 2b be 80 78 9e 3c d4 f8 1b bd f1 07 30 be
       -0.16705133 0.019344568 -0.038079098 -0.1719053
0000c0 43 a3 d7 3c 04 2d 5c bd 34 1d 7d 3e 3d c1 7b 3e
       0.026322966 -0.053753868 0.24718171 0.24585433
0000d0 98 98 ed bd ae 43 4f bc 03 be 58 3e 38 44 d4 be
       -0.116013706 -0.012650413 0.21166234 -0.41458297
0000e0 03 6a 59 be 3c ec 85 3d ef 17 00 3e cb d4 af 3e
       -0.21231847 0.06539199 0.1250913 0.34342036
0000f0 83 c6 c4 3d 0f 19 1a bd 54 5d 09 3e c5 bd 8e be
       0.096081756 -0.037621554 0.13414508 -0.27879158
000100 1e cb 96 3d df b9 81 3c 73 d8 5a bd 6b de bd 3d
       0.0736296 0.0158357 -0.05342908 0.092709385
000110 15 8a b0 bd 81 47 36 3c de 19 49 3e 1c bd 36 be
       -0.08620087 0.011125446 0.19638774 -0.17845577
000120 2e 9d 31 be 40 05 09 bd e2 9d ad 3d e6 e6 87 be
       -0.17345116 -0.033452272 0.084773794 -0.2654335
000130 a9 1a 88 3e b9 7a 46 be 4a d2 fc bd 54 03 a2 3d
       0.2658284 -0.19382752 -0.12344797 0.07910791
000140 84 66 46 be 72 b5 cc bb dd e5 03 be fc ce 99 3d
       -0.19375044 -0.006247216 -0.12880655 0.07510182
000150 46 e5 14 be 79 da f7 bd ef 81 d6 3d e6 8c 9c bd
       -0.14540586 -0.12102217 0.104740016 -0.07644062
000160 49 4d 86 be 0b 6b a4 3d 56 95 80 be f4 0c 3f 3e
       -0.2623084 0.08028229 -0.25113934 0.18657285
000170 1b a8 33 3e 82 c3 e7 3d cd 8f f9 bd 06 40 d2 3c
       0.17544596 0.11316587 -0.12185631 0.025665294
000180 c4 61 75 bd d6 cc ca 3e 17 5e 7c bd 6d e7 16 3d
       -0.05990769 0.39609402 -0.06161317 0.0368418

fc2.weight f4 [100, 100]
000000 26 e5 fe 3d 74 f7 a3 3c f8 fe 7b 3c 4e 99 16 3e
       0.1244605 0.020015456 0.0153806135 0.14706919
000010 26 be e8 3b b8 ce 6c be d2 ea e6 3d f0 7d 0a 3e
       0.0071027456 -0.23125732 0.11275257 0.13524604
000020 63 e1 8e be c0 83 85 3d 48 c2 0d 3e 94 87 e0 3d
       -0.2790633 0.0651927 0.13843644 0.109633595
000030 c4 a1 8f 3d c4 8d c2 3d 55 61 72 bd 53 01 3a bd
       0.07013276 0.09499696 -0.059174854 -0.04541142
000040 9e e5 68 bd ad 79 1b bd 88 c7 8b bd d8 fe 6e be
       -0.056859605 -0.037957836 -0.06825167 -0.23339403
000050 3b 23 5a bd 44 43 0f 3d 56 3c b8 bd 2a 31 80 be
       -0.053256255 0.03497626 -0.08995883 -0.2503751
000060 a1 51 d5 3d 33 40 f0 bc 01 21 8f 3d 80 1e 87 bd
       0.1041596 -0.029327488 0.06988717 -0.06597614
000070 75 d8 91 3d 0f 84 2d bd bc 92 92 3d ba 11 47 bd
       0.07121364 -0.04236227 0.071568936 -0.04860089
000080 8c c9 ec 3b d7 79 ff 3c 29 de b9 3d 6f dc 47 3d
       0.0072261747 0.031186027 0.09075577 0.048794206
000090 c0 b0 7c 3d 46 10 91 bc f8 9e 09 bc f8 21 73 bd
       0.061692 -0.017707955 -0.0083997175 -0.059358567
0000a0 bc 38 07 be 9c 85 b9 bd 44 a7 a4 3c 9b 5a 8c bd
       -0.13205236 -0.09058687 0.02009929 -0.06853219
0000b0 2f c6 bb bd d3 10 95 bc 9e e5 5c bd 54 df 13 3d
       -0.0916866 -0.018196499 -0.053929918 0.036101654
0000c0 cf cb d3 bd 43 05 9b 3d 3a 80 b2 b8 f7 05 42 3d
       -0.10341608 0.07569363 -8.5115855e-05 0.04736897
0000d0 ae a2 3b bd 67 a9 af 3c 5e 6a ac 3d d3 05 0a 3e
       -0.04580944 0.021443082 0.084187254 0.13478784
0000e0 e3 0f 57 be 16 bf a9 3c a9 a9 20 3d 96 6b 2d be
       -0.21002154 0.020721 0.0392243 -0.16935572
0000f0 6d 26 b3 bd 5f c5 93 bd b7 fb 24 3e ee 22 bd 3d
       -0.087475635 -0.0721538 0.16111647 0.09235178
000100 73 a2 e0 3c 60 56 97 3d 82 5c 2e bd e9 70 41 bd
       0.027421212 0.073895216 -0.04256869 -0.04722682
000110 e6 23 02 3e cc eb 1a 3c 30 db 3a 3e 7c f3 99 3c
       0.12709007 0.009455632 0.18247676 0.01879286
000120 6d 5c a8 3c f6 de 75 3d df 9c f3 3c f1 ab 81 bd
       0.020551885 0.060027085 0.029737888 -0.06331623
000130 52 ed 18 be 76 ed cb 3d ad b4 85 3d de 0a 03 bd
       -0.1493428 0.099574015 0.06528602 -0.031992786
000140 a2 00 ff bd 21 77 0a 3e 49 20 2b be 51 02 85 bd
       -0.124512926 0.13522007 -0.16711535 -0.064945824
000150 d9 70 2a be 51 6b 06 3e 8e 1e 88 3d 2d 6f 7c be
       -0.1664461 0.13126875 0.06646453 -0.24651785
000160 3a e6 50 bd 15 9b a6 bd 18 c9 1d 3e 22 f4 19 be
       -0.05100081 -0.08135048 0.15408742 -0.15034536
000170 66 4e 89 bd a8 5f 97 3c 92 12 28 be c4 d0 2e 3e
       -0.067044064 0.01847823 -0.16413334 0.17071825
000180 8b df 0c 3e a6 7c 93 3e 81 ce 10 3d 8e 0b 07 3e
       0.1375715 0.28806037 0.035353187 0.13188002
000190 9a ee f4 3d 94 4f 8a be 4a 07 85 3c f8 33 5d bc
       0.11959572 -0.27013838 0.016238827 -0.01350116
0001a0 cd 23 a2 3c ad bc 5d bd 83 e8 e3 3c 84 5f ed bc
       0.019792462 -0.054135013 0.027820831 -0.02897621
0001b0 54 b3 a0 3a e2 2a 16 be 9a 4a c0 3c ba d2 45 3d
       0.0012260475 -0.14664796 0.023473073 0.048296668
0001c0 a0 2d 3b be b0 7b 66 3d 34 f4 cd bd f3 93 db bd
       -0.18279123 0.0562703 -0.10056344 -0.107215784
0001d0 54 ec 82 3b ee 9e 60 be ba 9e 03 3e 85 98 c6 be
       0.0039954577 -0.21935627 0.12853518 -0.38788238
0001e0 11 56 ca bd f2 7e 39 be 45 c1 f2 3c 79 cf ab 3d
       -0.09879697 -0.18114832 0.029633174 0.08389182
0001f0 98 44 e5 bd c6 d0 35 be fc 63 22 3d 23 b3 b6 bd
       -0.11194724 -0.17755422 0.039646134 -0.08920886
000200 9b d7 62 3b a4 b9 7c 3b f0 43 0f bd 75 fa 3b bd
       0.0034613374 0.00385628 -0.0349769 -0.04589315
000210 b7 83 13 be 6c db 1c 3d 78 c2 b7 3c d1 ac 00 3e
       -0.14405714 0.038295195 0.022431597 0.12565924
000220 50 28 d5 3a 07 7d 19 3d e6 1e d7 bd 8e 04 46 bd
       0.0016262624 0.03747275 -0.1050394 -0.048344187
000230 8f 92 00 3b 79 d0 49 bb 4e a1 13 3d f1 14 12 3d
       0.0019618606 -0.0030794425 0.036042504 0.035664503
000240 52 05 1c 3b 69 f0 ca 3d 2b 98 c1 3c d5 55 99 bd
       0.0023806882 0.09909136 0.02363213 -0.07487074
000250 e2 cb 90 3d a9 d7 39 3e 47 52 d8 3d 14 87 76 bd
       0.070701376 0.18148674 0.10562568 -0.060187414
000260 93 50 f2 3d 94 4f 83 bd 24 d9 37 bd cd 91 83 3c
       0.118317746 -0.06411663 -0.044884816 0.016060734
000270 35 8f f5 3c 43 42 93 bd b8 ba b7 3c c5 4b 3f 3d
       0.029975513 -0.07190373 0.022427902 0.04670312
000280 fa 62 e7 bd 06 1d 51 3e 06 2b 37 3e 60 a5 23 3d
       -0.11298175 0.20421228 0.17887506 0.039952636
000290 7a bf 1c 3c 21 5f 5a 3e e7 d4 07 be 0c 29 8f 3d
       0.009567136 0.21325351 -0.1326481 0.06990251
0002a0 f5 10 34 bd 7d 93 8b 3d 58 df 3a bd 01 4c 10 be
       -0.043961484 0.068152405 -0.045623153 -0.14091493
0002b0 c3 c7 9b 3d d3 0c 01 3e 56 e8 ea bd 1f df 08 be
       0.07606461 0.12602548 -0.11470096 -0.13366364
0002c0 03 0c 9d ba 53 d2 85 3c 93 71 b9 3d 93 93 89 3d
       -0.0011981729 0.016335642 0.09054866 0.06717601
0002d0 7f 5d 8b bd 9b 33 42 3c 2e e9 0c 3d 45 94 dd 3d
       -0.06804942 0.011853124 0.034402065 0.10819296
0002e0 1b e5 a0 be b1 b3 99 3c 38 4b 25 bd 8b ba 03 3d
       -0.31424794 0.018762441 -0.040354937 0.032160323
0002f0 76 9d 58 3d fd d6 3e bd 6b 2c 06 3e 16 0e c8 bb
       0.05288454 -0.046591748 0.13102882 -0.006105195
000300 e9 3a ec bd 15 49 bd 3d a6 e6 7a 3c 55 82 c8 bd
       -0.11534674 0.09242455 0.01531378 -0.09790484
000310 81 ae 6d 3d 09 5b 10 bf 45 e6 19 3e 25 e4 bb 3d
       0.058027748 -0.5638891 0.15029247 0.091743745
000320 34 35 b6 3d 5d 77 13 bd 27 66 52 3d 78 77 89 bb
       0.088968664 -0.036002506 0.05136695 -0.00419515
000330 65 0d 8c bd 31 53 a0 3c 29 07 09 3d b7 a1 fe bd
       -0.06838492 0.019570919 0.033454094 -0.124331884
000340 bb 39 1a 3e 9b a7 d6 3c 9b fc 4e bd 31 f8 f2 bc
       0.15061085 0.026202967 -0.050533872 -0.029659363
000350 1c 70 8f bd 19 fc ad 3d f0 d6 f9 bd 50 7a 40 bd
       -0.07003805 0.084953494 -0.12199199 -0.046991646
000360 cd bc ca bc a1 a8 6d bd cb ec 2e bd ac a3 0d be
       -0.02474823 -0.058022145 -0.042706292 -0.13831967
000370 f6 e2 a6 bd 1c ae d5 3d 90 fd a5 3d 27 3e b8 3d
       -0.08148758 0.10433599 0.08105004 0.089962296
000380 d3 69 3f bd ff 9e 3d bd ce ea 00 bd 7a 03 54 be
       -0.04673178 -0.04629421 -0.031473927 -0.20704451
000390 cf a8 cd 3c 3b 25 6b 3d 76 93 cc bb f7 41 1e be
       0.025104908 0.057408553 -0.0062431647 -0.15454851
0003a0 ce e5 cf 3d d4 7a 95 be 61 4b 99 be c0 bc 6e 3c
       0.10151254 -0.29195273 -0.29940322 0.014571369
0003b0 03 9f 4b 3c cc 15 79 be 68 71 ad 3d 70 bd 10 3e
       0.012428048 -0.24324721 0.08468896 0.14134765
0003c0 f7 bc f7 3b f8 19 92 bd 70 94 91 3c 4f f5 86 be
       0.007560368 -0.071338594 0.017770976 -0.2635903
0003d0 ae 6b d7 3c b0 4b 32 bd 53 81 02 3d 30 53 bf 3c
       0.026296463 -0.043529212 0.031861614 0.023355097
0003e0 c7 f8 50 3d 10 6e 65 3d 4a 4d 12 3d f1 89 07 be
       0.051018503 0.056013167 0.03571824 -0.13236214
0003f0 0c 56 1e be b0 c1 e0 3d 73 63 c0 bd ba eb c2 3d
       -0.15462512 0.10974443 -0.093939684 0.095176175

fc2.bias f4 [100]
000000 60 c8 da 3d ad 98 ae 3c 46 82 85 bd b5 a5 43 3e
       0.1068275 0.021313036 -0.06518988 0.19106181
000010 e0 ae 18 be c8 b4 43 3d d7 ad b5 bd 14 0d 87 bd
       -0.1491046 0.04777983 -0.08871048 -0.06594291
000020 02 f5 aa 3d 70 4b 6e bd 2e a4 20 be 36 fd ad 3b
       0.08347513 -0.05817741 -0.1568763 0.005309726
000030 48 c4 0a 3e 34 5b 20 3d 9f f1 8d be fb 37 e4 bc
       0.13551438 0.039149478 -0.27723405 -0.027858725
000040 cd bb b5 bb cf bb 28 bd 76 51 d9 bd 70 b5 6b 3d
       -0.0055460692 -0.041194733 -0.106112406 0.05754608
000050 f3 32 4d bd 49 68 1b be 38 17 06 be 95 c9 51 bd
       -0.050097417 -0.151765 -0.13094795 -0.051217634
000060 cf c5 4b 3d 41 3c 0f bb 1a a3 c8 3d 47 d1 b5 bd
       0.04974919 -0.0021855982 0.09796734 -0.08877807
000070 21 d7 dd 3c 00 0b 86 bd 99 78 9e 3d c7 b2 a1 bd
       0.02708012 -0.06545067 0.07737846 -0.07895427
000080 02 c2 9b bd 2e f4 3a bd fa 28 55 3d 29 56 8e bb
       -0.076053634 -0.045643024 0.05204103 -0.004343767
000090 d6 03 e2 3c 8f 25 04 3e 58 5c 4a be 4e 83 74 bd
       0.02758972 0.12904952 -0.19761789 -0.059695534
0000a0 75 bf c4 3c 9b 00 c4 bd 91 cb d8 bc f7 5c dd bd
       0.024017075 -0.09570428 -0.026464256 -0.10808747
0000b0 ed 6f 92 3d 0d f0 ff bd ba 9f 1e 3d dc 19 55 bd
       0.071502544 -0.12496958 0.038726546 -0.052026615
0000c0 89 a9 bc bd a7 6b 3e 3e 56 47 ba bd 52 8d 52 3d
       -0.09212024 0.18595754 -0.090956375 0.051404305
0000d0 ef bb 72 be 9a 23 e0 3b ad 3b 9e bd 87 7d d7 3c
       -0.23704503 0.0068401815 -0.07726226 0.026304973
0000e0 5b 49 40 be 8f b8 ce bc d8 6d da 3c 80 48 e6 bd
       -0.18777983 -0.025234489 0.026663706 -0.11244297
0000f0 39 a4 cb bd a8 8f 60 3d b2 6f d4 3d 28 56 47 3d
       -0.09943432 0.0548245 0.10372867 0.04866615
000100 b1 cc c9 bd 78 38 ad bd 36 58 61 bd 31 e7 6b 3d
       -0.09853495 -0.08458036 -0.055015765 0.05759353
000110 cb 7a b3 bd c6 e5 b4 3b f3 b7 b6 bd ed c8 15 be
       -0.08763655 0.005520555 -0.08921804 -0.14627428
000120 f4 32 09 be 57 28 bd 3a 71 4d ad bd dd c4 55 3d
       -0.13398343 0.0014431578 -0.084620364 0.052189697
000130 40 e4 b3 3c a3 f9 b8 3d ac 96 2b 3c 96 1a 19 3d
       0.021959424 0.090319894 0.010472935 0.03737887
000140 a8 66 37 3d 57 bb b5 bb 6e 9b 0d bd 1b d3 83 3c
       0.044775635 -0.0055460143 -0.034572057 0.016091874
000150 f7 82 d7 bc 51 c0 8b bd 6a b1 4a 3e 90 d6 3e 3e
       -0.026307566 -0.06823791 0.1979424 0.18636537
000160 a1 10 90 bb 14 74 20 be 25 f5 21 3d 06 11 f4 3c
       -0.0043965136 -0.1566928 0.03954043 0.029793274
000170 01 94 96 bd 4d 3f f7 bd ea b1 c7 bc 45 df 0b 3e
       -0.07352448 -0.120726205 -0.024376828 0.1365939
000180 79 7b 80 bd 35 79 3c 3e 45 14 58 be 53 c7 c0 bd
       -0.062735505 0.18405612 -0.21101482 -0.09413018

fc3.weight f4 [50, 100]
000000 f6 7b 80 3c 1b e2 1b 3e 2c 31 8d bc c1 db 6e 3d
       0.01568411 0.15222971 -0.017235361 0.058315042
000010 1a f0 84 3e 2a a2 68 3d db bd 62 3e f2 ea 0d 3e
       0.25964433 0.056795277 0.22142737 0.13859156
000020 27 ca a3 3d 01 02 f2 3d 8b 9e 65 3d 35 e1 a2 bc
       0.07997542 0.118167885 0.0560594 -0.019882778
000030 01 a8 a0 bd b3 9f 84 bd cb e7 be 3e ec 01 18 bd
       -0.07844544 -0.06475773 0.3728622 -0.037111208
000040 ea 82 9e 3c 1f 9e 23 3e 88 e4 0e bd ed d6 46 be
       0.019349534 0.15978287 -0.034885913 -0.19417925
000050 1d 86 c9 3d d3 ed 74 3d 4d ef f9 3d ed 72 f9 bd
       0.09840033 0.05979712 0.12203846 -0.121801235
000060 ec e5 2c 3d 0e b3 3d 3e 07 fe 98 3c 60 82 87 be
       0.042211458 0.18525335 0.018675817 -0.26466656
000070 14 d1 5a 3e 63 dc 6b bd e0 69 de bc 4e ef cd 3d
       0.2136882 -0.057583224 -0.027150095 0.10055409
000080 bf b2 35 3e 53 6d b5 3e ae d6 ec 3d b3 f0 06 3e
       0.17743967 0.3543497 0.115643844 0.13177757
000090 fa 51 3b be c8 c6 4c 3d 12 3e ce bd 05 a9 34 3e
       -0.1829299 0.04999426 -0.10070433 0.17642601
0000a0 a5 19 7c 3d c9 1f 80 3d ee 8b 24 3e ff aa 55 3e
       0.061547894 0.062560625 0.16069004 0.20866011
0000b0 2b c5 1c 3e 58 20 20 3e 04 ce 09 3d 2f e0 12 bd
       0.15309589 0.15637338 0.033643737 -0.03585833
0000c0 6c 35 9b 3c 85 8a 7b bd 30 21 e8 bb 69 ad 42 3e
       0.018946372 -0.0614114 -0.0070840344 0.19011463
0000d0 95 a4 16 3d ac e8 a1 bd f8 da ef bc ad 04 06 3d
       0.03677805 -0.07905707 -0.029279217 0.032719303
0000e0 a2 10 e9 bc b5 d3 ac bd 7b 85 3f be eb eb 38 3e
       -0.028450314 -0.084388174 -0.18703263 0.18058746
0000f0 22 89 ea 3c 92 e9 90 bd 0a 4c 5a 3d 4d 0f 2e 3e
       0.028629843 -0.070758 0.053295173 0.16998024
000100 29 80 45 3d 9f 73 52 3e 70 bc 92 bd e1 af f8 3d
       0.048217926 0.20551918 -0.07164848 0.12142921
000110 cd ea bf 3d ab 39 4b bd 25 ac 03 3b c9 25 32 3d
       0.093709566 -0.049615543 0.002009162 0.043493066
000120 3d ee 88 3c 85 68 70 be 57 99 a3 bc 1a 54 81 bd
       0.016715163 -0.23477371 -0.01997058 -0.06314869
000130 ab 4e 29 3e d0 6d d5 3d dd 71 6e 3b 20 cc 65 bd
       0.16533916 0.10421336 0.0036383786 -0.056102872
000140 a5 09 ae 3c 3b fd 89 be 43 22 37 3d cd 47 93 3d
       0.021244833 -0.26951012 0.04471041 0.07191429
000150 33 17 8a be 2a 2f 39 3e 64 96 9a 3d 62 1e e7 bd
       -0.26970825 0.18084398 0.07548216 -0.11285092
000160 e8 42 f8 ba 61 15 20 bd 77 ae a7 be ec 7c 80 3d
       -0.0018940838 -0.03908289 -0.32750294 0.06273827
000170 37 5a 17 bc f2 c9 0c 3e 1a fb b3 3d ea 9b 17 be
       -0.0092378175 0.13748911 0.08788128 -0.1480557
000180 26 00 4b 3d 76 37 b0 bd 07 11 cd 3d e4 7d 97 3d
       0.04956069 -0.08604328 0.10013013 0.073970586
000190 4b 14 83 bd d6 99 b2 bd c6 5a a3 3d 13 73 0e 3d
       -0.06400355 -0.08720748 0.07976298 0.034777712
0001a0 0d ce 8c be 39 d3 1a 3e c0 5d f7 3d bd f5 56 3d
       -0.27500954 0.15119638 0.12078428 0.052480448
0001b0 5c 17 1c be f3 ab 8a bd 0f a1 17 bc 8a 2c be 3d
       -0.15243286 -0.06771078 -0.009254708 0.09285839
0001c0 f1 b2 ad 3b ae 28 b1 bd 4b 31 89 3d 7c 26 b5 3d
       0.0053008725 -0.08650337 0.06698855 0.08845231
0001d0 3c 6e 7d be 46 8c 90 bd 03 a3 eb 3a d8 b8 7f 3e
       -0.24749082 -0.07058005 0.0017977658 0.24972856
0001e0 4c 33 81 bd 02 1d fe ba cb 81 09 be fd d4 92 3d
       -0.06308612 -0.0019387307 -0.13428418 0.071695305
0001f0 31 23 77 3d 3e ad 1b be c4 b1 03 3e 7d 50 9c bd
       0.060336296 -0.15202805 0.12860781 -0.076325394
000200 dd db 52 3e 0e d4 97 be fe 37 1b ba 72 a6 39 be
       0.20591684 -0.29653972 -0.0005921124 -0.181299
000210 0c 42 0d 3d 0b 2f 90 3e c8 96 d2 3d 08 51 36 3e
       0.034486815 0.2816089 0.102826655 0.17804348
000220 31 9c b7 3d d6 92 5a 3d fa 5b 6c be ed da 1b be
       0.08965338 0.05336269 -0.23081961 -0.15220232
000230 f6 ee df 3d 76 be 9e 3d 4e 9b a5 3d 50 65 87 3e
       0.1093425 0.07751171 0.08086263 0.26444483
000240 43 22 19 bd 03 7f ab 3b c0 53 46 3e 30 f6 8f 3e
       -0.03738619 0.005233647 0.19367886 0.28117514
000250 ce 5b 25 3d bc 18 9e 3d f1 35 6a 3d f0 8d 6f 3d
       0.040370755 0.077195615 0.05718035 0.05848497
000260 d6 b3 4e 3d e0 16 61 3e 57 e7 23 bb 39 29 9f bd
       0.050464474 0.21981382 -0.0025009715 -0.077715345
000270 05 3d 66 3d ef 3d 03 be 7e ef b3 bd 25 b2 90 bd
       0.056210537 -0.12816595 -0.08785914 -0.070652284
000280 bb 4d 6a be 99 5c 2e 3d 5c d5 df 3d 72 68 b1 3d
       -0.22881214 0.042568777 0.10929367 0.086624995
000290 4d 6c 2c 3e 9e 6b 85 bc 7d f7 a5 3d ac 4e 66 3e
       0.16838188 -0.016286667 0.08103845 0.22490948
0002a0 d5 1c 06 3e 17 48 c2 bd 83 29 46 3e 34 5d df 3d
       0.13096936 -0.09486406 0.19351773 0.10906449
0002b0 2a dd 5b bd 3e eb 7b 3e e0 78 b9 bc 73 df f1 3b
       -0.053677715 0.24601457 -0.022640646 0.0073813736
0002c0 c3 01 54 3c 10 04 65 bd 21 75 f6 3c c7 dd 2a bb
       0.012939873 -0.055912077 0.030085148 -0.002607213
0002d0 f0 14 04 3e 6f 77 68 3e da eb 09 3e 90 b5 88 bd
       0.12898612 0.2270181 0.13468876 -0.06675255
0002e0 b8 4f 54 3e 81 9b d6 3c f4 b6 9e 3d 90 ff 0b be
       0.20733535 0.026197197 0.07749739 -0.13671708
0002f0 be 1f f4 bb 69 33 7a 3e 99 ab 4f 3e 1b d1 8b bb
       -0.007450073 0.24433674 0.20280303 -0.0042668707
000300 a6 c3 ca bd ef fa ea bd 43 e0 56 3d 53 18 c9 3d
       -0.09900598 -0.11473643 0.052459966 0.098190926
000310 23 17 11 3e 17 99 08 3d 41 be 09 be 59 06 c5 3d
       0.14168982 0.033349123 -0.13451482 0.09620351
000320 4a a7 d6 3c d0 9b 96 be 8f eb 0b 3e 06 0c 1d be
       0.026202817 -0.2941575 0.13664077 -0.15336618
000330 cb df 23 3e d7 ca 2a 3d ba 71 ac be c1 34 9a bb
       0.16003339 0.04169735 -0.33680516 -0.004705996
000340 67 3e 75 bd 93 c9 b8 3d 85 1d 55 3e ad df f5 3d
       -0.059873965 0.09022822 0.20812042 0.120055534
000350 84 fc 59 bc 71 fd 21 3e d8 65 e0 be 0b 55 22 3e
       -0.013304833 0.15819336 -0.438277 0.15852754
000360 db ac ea 3e b6 8c 06 3e ca ca a4 3c 49 e2 f7 3d
       0.45835003 0.13139614 0.020116229 0.12103707
000370 fe 5b 48 3d 82 1e 1f 3d 8f 43 27 be f1 89 33 3d
       0.048915856 0.038847454 -0.16334365 0.043832723
000380 86 e9 51 3d 99 6f 1a 3e 1d 4e f3 3c b3 30 49 3e
       0.051248096 0.15081634 0.029700333 0.19647484
000390 71 c4 b4 be 3b 99 7e 3e e0 9e a6 bd cf d1 74 bd
       -0.35306123 0.2486314 -0.08135772 -0.0597704
0003a0 77 de 26 be f8 84 ac be 7d 23 eb 3c 1e fa 53 3c
       -0.16295801 -0.33695197 0.028703446 0.012938051
0003b0 d9 27 77 3c 12 62 6e be 24 8c 24 3e 7c 5c a3 bd
       0.015085184 -0.23279598 0.16069084 -0.07976624
0003c0 b2 53 32 bd 5b 58 b8 bc 85 54 54 3d 88 0f 16 be
       -0.04353685 -0.022503069 0.051838417 -0.14654362
0003d0 9f 05 2e be 8c d5 82 3d 63 b4 57 be eb e0 41 3d
       -0.16994332 0.06388387 -0.21064906 0.04733364
0003e0 6e 35 2d be de 71 bb 3c 9d 31 8b be ea 33 53 be
       -0.16914913 0.022881445 -0.2718629 -0.20625272
0003f0 aa 55 3a 3e 3e 11 be bd 5e f9 ab 3d 58 15 d9 3c
       0.18196741 -0.092806324 0.083971724 0.026499435

fc3.bias f4 [50]
000000 fb 0f ba bd 5c a3 ef 3d bd 3c 70 bd 8c cb 02 be
       -0.09085079 0.1170108 -0.058651675 -0.1277296
000010 80 fd 24 3d a1 c7 29 3e 53 70 ea bc 9c 20 0b bd
       0.04028082 0.16580059 -0.028618013 -0.033966646
000020 ad 63 48 bd c8 ab 0f bd 5b 79 6c 3c b4 94 94 bc
       -0.048923183 -0.035075933 0.01443323 -0.018137313
000030 ac 3c de bd 24 5b 80 3c 0d 78 db bc 0c f8 9a bd
       -0.10851416 0.01566846 -0.026790643 -0.075668424
000040 20 35 4b bd 59 1f 42 3c d4 5e 9d 3b e1 f2 f1 3d
       -0.04961121 0.011848294 0.004802564 0.118139036
000050 6f 45 74 bc aa 10 2a bd 5d c4 aa bb 14 a5 c5 3d
       -0.014909132 -0.0415198 -0.0052113966 0.09650627
000060 7d 04 c2 bd 63 0b f5 3c 56 68 ff bd 79 39 ee bb
       -0.09473512 0.029912656 -0.124710724 -0.007270035
000070 08 e7 85 3d 6e 2c b7 bd 99 65 6e 3d 10 14 57 bc
       0.06538206 -0.08944021 0.05820236 -0.013127342
000080 20 68 81 3d 05 6f 07 bd a6 43 b9 3d a1 1e c5 bd
       0.063186884 -0.03306486 0.09046106 -0.096249826
000090 48 33 23 be 21 56 06 3e 68 24 57 bd 41 83 0c 3c
       -0.15937531 0.13118793 -0.052524954 0.008576215
0000a0 87 98 97 bd df 04 53 3c 53 80 07 3d 75 38 d0 bd
       -0.07402139 0.012879579 0.033081364 -0.10167018
0000b0 fd 02 13 3c ac 1e 9b 3c 02 1d 80 3c 54 ae 6b bc
       0.00897288 0.018935524 0.015638832 -0.014384825
0000c0 ec 5a 6b bd 68 41 18 b9
       -0.057459757 -0.00014520215

fc4.weight f4 [2, 50]
000000 75 fc 83 bd 6c 0f 0f 3d b8 6d 69 3e 5d a6 48 be
       -0.06444637 0.034926817 0.2279576 -0.19594713
000010 91 a3 04 bf 4d d6 9b 3e 98 97 8e 3e 92 1f 0b 3f
       -0.5181208 0.30436936 0.27850032 0.5434505
000020 4d a3 00 3f 1e 10 81 3e 78 35 19 be d7 7e a6 bc
       0.5024918 0.2520761 -0.14961803 -0.020324154
000030 c2 37 b0 be 53 49 41 be 68 89 0d 3f 57 69 13 3e
       -0.3441754 -0.18875627 0.5528779 0.14395653
000040 84 cb a2 3e dd 6a bb bd 56 cd d8 bd 4b 6d b9 3e
       0.31795895 -0.09151242 -0.1058604 0.36216196
000050 11 58 27 3d 14 e9 15 3d 7b 06 ee be bc 18 5e be
       0.04085547 0.036599234 -0.4648932 -0.21689123
000060 aa ed 31 3d f2 eb d8 be 80 a0 2b 3f 8c e4 82 3e
       0.043439545 -0.42367512 0.6704178 0.25564992
000070 47 48 04 3f 80 22 43 3e 40 b2 9d be 38 a4 37 3f
       0.51672786 0.1905613 -0.30800056 0.7173495
000080 0c 07 22 3e bf e8 e7 be ac ad 2b bd 8d e0 39 be
       0.15823 -0.4529476 -0.041913673 -0.18152066
000090 0b cb 6b 3f 53 0f 9c 3e 8d 3b 03 3e 3c 34 e2 be
       0.92106694 0.3048044 0.12815686 -0.44180477
0000a0 87 cb cb be 78 32 3c 3e 69 5a 51 3e d3 1d 16 3f
       -0.39803717 0.18378627 0.20444645 0.5863926
0000b0 e8 2d 9f be b7 e8 6d be 13 0c cb 3e 3b 65 77 3e
       -0.3108971 -0.23233305 0.3965765 0.2415971
0000c0 fb ce aa 3d 00 82 87 3f 74 22 e8 bd b1 89 ba 3e
       0.0834026 1.0586548 -0.113346964 0.36433175
0000d0 2f cd 6a be 18 de 98 be 46 eb 04 3f b1 8e 16 3f
       -0.22929834 -0.29856944 0.519215 0.5881148
0000e0 fa 75 b9 be e6 38 19 3e 46 8f cc 3d d4 f7 f0 3d
       -0.3622282 0.14963111 0.09988265 0.117660195
0000f0 12 36 b3 be d9 9a 90 be ed 38 00 3e 06 d7 b8 be
       -0.3500219 -0.2824314 0.12521715 -0.3610155
000100 32 4e 9f be e8 6c ef be 68 fc 69 3e 9d db 91 3d
       -0.31114346 -0.46762776 0.22850192 0.07121966
000110 46 5d 03 be 46 2b fe 3e 68 ad 94 be af e3 93 3e
       -0.1282855 0.4964239 -0.29038548 0.28884646
000120 cf 45 de 3d 1a d6 87 be 6b b5 13 3f bb 0e 01 3f
       0.10853159 -0.26530534 0.57698697 0.504131
000130 27 c6 05 3f 25 12 9f be bf 60 55 be 3f 3b 9c be
       0.5225548 -0.3106853 -0.20837687 -0.3051395
000140 2e a4 c1 3e 4d b5 48 3e b4 52 7d be 13 41 49 be
       0.37820572 0.19600411 -0.2473858 -0.1965373
000150 ab af 2b 3e 87 8f e2 3e 50 f7 06 bd d7 6b 96 be
       0.16766231 0.44250128 -0.0329507 -0.2937915
000160 63 8e 81 be d6 4e 1a 3f 2e 5e bd 3e 2d d9 29 3f
       -0.25303945 0.60276544 0.36985916 0.6634701
000170 b3 97 b7 3e f3 df 88 be 95 6c d9 3e 77 50 2c be
       0.35857925 -0.2673336 0.42465654 -0.1682757
000180 12 83 78 be 81 9c f8 be 03 bc f2 3d a5 e3 90 3e
       -0.2426875 -0.48556903 0.11852267 0.2829868

fc4.bias f4 [2]
000000 cb e9 99 3d 80 da 10 3e
       0.075152956 0.14145851
